bn_checkpoint_actor.pth (torch, 316219 bytes, 14 tensors)

fc1.weight f4 [256, 33]
0	0xbe36a5ee	-0.17836735
1	0xbe03e512	-0.12880352
2	0xb9db645b	-0.00041845706
3	0xbd8cd097	-0.06875723
4	0x3ce6436d	0.028108323
5	0x3d5c6857	0.053810444
6	0xbd1d64a2	-0.03842605
7	0x3d0e4290	0.034731448
8	0xbd59f222	-0.05320943
9	0xbe2311a1	-0.15924694
10	0x3deb59e5	0.114917554
11	0xbb7d100b	-0.0038614299
12	0x3dace30e	0.08441745
13	0xbd6ae1e7	-0.057344344
14	0x3e2535db	0.16133825
15	0x3d1ac8fc	0.03778933
16	0x3cb968fe	0.022633072
17	0xbd2d32b8	-0.042284697
18	0xbc8425b7	-0.016131265
19	0x3cae3335	0.021264652
20	0x3d433ec0	0.047667265
21	0xbe332bd1	-0.17497183
22	0xbd85afb5	-0.06527654
23	0xbe02796f	-0.12741636
24	0x3d31dd7c	0.043424115
25	0xbd602a68	-0.05472794
26	0x3ddbf6db	0.10740443
27	0xbdb3611f	-0.08758759
28	0xbdcb3027	-0.09921294
29	0xbe0be38a	-0.13661018
30	0xbdc74fa7	-0.09731989
31	0xbe0b249d	-0.13588186
32	0x3e3bcd89	0.18340124
33	0x3d2136ce	0.039358906
34	0xbc238a9e	-0.009981779
35	0x3e78c019	0.2429203
36	0xbca763a2	-0.02043325
37	0x3cc8ece4	0.02452702
38	0xbd383e22	-0.04498113
39	0x3c8ba168	0.017044738
40	0x3b7892ce	0.00379293
41	0xbb8e0d39	-0.0043350724
42	0xbd67a0db	-0.056549888
43	0xbde5ab05	-0.1121426
44	0x3dcf0a25	0.10109357
45	0xbce93a28	-0.028470114
46	0x3d5aa13a	0.053376414
47	0xbc347715	-0.0110147195
48	0xbdb3e2c8	-0.087834895
49	0x3e1d0f4f	0.15337871
50	0x3c47d5db	0.012196983
51	0x3d7207ea	0.05908958
52	0x3d8296a7	0.06376391
53	0xbd52c26b	-0.051454943
54	0x3dc1c1b5	0.09460775
55	0xbc8057f7	-0.015666945
56	0x3db8d086	0.09024148
57	0x3cc040b4	0.023468353
58	0x3d8e0d54	0.06936136
59	0x3d95863b	0.07300993
60	0x3d6a7f7b	0.05725048
61	0xbcaefc71	-0.021360608
62	0x3d13c2d0	0.03607446
63	0x3cc07960	0.023495376
64	0x3d8deedc	0.069303244
65	0x3e715b37	0.23569952
66	0xbe053058	-0.13006723
67	0x3ded8a79	0.11598677
68	0xbd836a36	-0.064167425
69	0x3d07bc36	0.033138476
70	0xbcc59444	-0.02411855
71	0xbd9bceb4	-0.07607785
72	0x3dc1895e	0.09450029
73	0x3ceac32a	0.028657515
74	0x3bf75a52	0.007548609
75	0x3d34f6a8	0.044180542
76	0x3c846d5c	0.016165428
77	0x3d22540e	0.039630942
78	0x3d73a226	0.05948081
79	0xbda239f3	-0.07921209
80	0x3d9e4a97	0.07729071
81	0xbd0e47f1	-0.034736577
82	0x3d935670	0.07194221
83	0xbb45299b	-0.0030084613
84	0xbd875daf	-0.066096656
85	0xbccb7cfd	-0.024839872
86	0xbc010baf	-0.007876321
87	0xbd2573c9	-0.040393624
88	0xbd12fa39	-0.035883162
89	0xbd3200a5	-0.043457646
90	0x3e05ae2f	0.13054727
91	0xbcc9a9a8	-0.024617031
92	0xbd3f4e60	-0.046705604
93	0xbd68c307	-0.056826618
94	0x3e3d4ae4	0.184856
95	0x3d972476	0.07380001
96	0xbe2a1534	-0.16609651
97	0xbe2c15a5	-0.16805132
98	0x3ee56adf	0.448081
99	0x3e42b3b2	0.19013861
100	0xbdbc2c70	-0.09188163
101	0xbe02ff19	-0.12792625
102	0x3d41cb7a	0.04731319
103	0xbd5af311	-0.053454462
104	0x3d915541	0.07096339
105	0xbdd30249	-0.1030317
106	0x3cb39ee2	0.021926347
107	0xbd88858d	-0.06666098
108	0xbc781e04	-0.015143875
109	0x3d85ab6b	0.06526836
110	0x3d0d542d	0.034504104
111	0xbe069f62	-0.13146737
112	0xbcddc466	-0.02707119
113	0x3cbc9ca9	0.02302392
114	0x3e872825	0.26397815
115	0x3dfa917c	0.1223478
116	0xbd6748ba	-0.05646584
117	0x3da49eb4	0.08038083
118	0xbd90a1ea	-0.07062133
119	0xbda0d174	-0.0785245
120	0x3d8ed9e2	0.069751516
121	0x3d78c3f6	0.060733758
122	0xbd0a9a78	-0.03383872
123	0x3dcace54	0.09902635
124	0x3e0949eb	0.13407104
125	0xbd8f271b	-0.06989881
126	0xbd6568d4	-0.056008175
127	0x3b91954f	0.004442848
128	0xbe320fe5	-0.17388876
129	0xbd973a9a	-0.07384224
130	0xbab408cd	-0.0013735533
131	0xbe7530ad	-0.2394435
132	0x3d6148b8	0.05500099
133	0x3d831e1e	0.06402229
134	0xbd838dbf	-0.0642352
135	0x3e1a8b9d	0.1509232
136	0x3e1a92f3	0.15095119
137	0xbda0ada1	-0.07845617
138	0x3d059cd8	0.03262028
139	0x3c895d9b	0.016768267
140	0x3e464a24	0.1936422
141	0xbd62c65a	-0.055364944
142	0x3d4fa3aa	0.05069319
143	0x3d6c2796	0.05765494
144	0x3e1143c6	0.1418601
145	0x3e5b44ba	0.21412936
146	0x3e04c265	0.1296478
147	0x3dfa742e	0.12229191
148	0x3d36bf53	0.044616055
149	0xbcda699c	-0.026661687
150	0xbd44760c	-0.04796414
151	0xbd54ade7	-0.05192366
152	0xbb5b9e41	-0.0033511075
153	0x3dfe7849	0.12425286
154	0xbe2f5e23	-0.17125754
155	0xbd8478c4	-0.06468347
156	0x3dd4a122	0.10382296
157	0xbe1fe120	-0.15613222
158	0xbdb93b22	-0.09044482
159	0x3e2b3514	0.16719466
160	0xbdcca2f8	-0.09992021
161	0x3e312f88	0.17303288
162	0xbd055ef1	-0.032561246
163	0x3e1164c6	0.14198598
164	0xbdab99e0	-0.08378959
165	0x3e7c78d8	0.24655473
166	0xbdb1d83b	-0.08683821
167	0xbd9a2cbc	-0.07528064
168	0x3de9a7ec	0.11408982
169	0x3e04c808	0.12966931
170	0x3db9cec2	0.09072639
171	0x3e39af2e	0.18133232
172	0xbcef5bc2	-0.029218558
173	0xbd566305	-0.052340526
174	0xbdd64a48	-0.10463387
175	0x3e2899a6	0.16464862
176	0x3defe72f	0.11714017
177	0x3d43580a	0.047691382
178	0xbe395843	-0.18100075
179	0x3d8c09f8	0.06837839
180	0x3e38b864	0.1803909
181	0x3ca21963	0.019787496
182	0xbd540a3a	-0.051767565
183	0xbd6c6048	-0.05770901
184	0xbacf5ddc	-0.0015820819
185	0xbd42cd1b	-0.047558885
186	0x3d23614d	0.039887715
187	0xbcce2164	-0.025162406
188	0xbd838238	-0.06421322
189	0xbd188657	-0.03723749
190	0x3cc50f86	0.024055254
191	0xbdec086b	-0.11525043
192	0xbd099c6b	-0.033596437
193	0xbe0f2c44	-0.1398173
194	0x3e24c12b	0.16089313
195	0xbe235990	-0.15952134
196	0x3dc929be	0.09822415
197	0x3e5fee1e	0.21868178
198	0xbd884418	-0.06653613
199	0xbe5ee638	-0.21767509
200	0xbdb93b45	-0.09044508
201	0x3bf3ed37	0.0074440497
202	0x3d44fe0a	0.048093833
203	0xbd6426a6	-0.05570092
204	0x3d8b7e25	0.068111695
205	0xbccb7291	-0.024834903
206	0xbd14cba5	-0.036327023
207	0x3e0aeaa8	0.13566077
208	0xbd884057	-0.06652897
209	0xbc2f0818	-0.010683082
210	0xbe427d62	-0.18993142
211	0x3d9c17ea	0.07621749
212	0x3de5c274	0.112187296
213	0xbb75e98c	-0.0037523238
214	0x3d0ef714	0.0349036
215	0x3bf82f3d	0.0075739906
216	0xbd8a15b8	-0.06742424
217	0xbc303501	-0.010754825
218	0xbdb15cdd	-0.086602904
219	0xbd93a9be	-0.0721011
220	0x3dc66343	0.096869014
221	0xbd9705c9	-0.0737415
222	0xbc836bcf	-0.016042618
223	0xbd9f5abb	-0.07780977
224	0xbddd8800	-0.108169556
225	0x3b82eeb2	0.00399574
226	0xbd949ee5	-0.07256869
227	0x3ce7c93e	0.028294202
228	0xbbcc2fc9	-0.0062312824
229	0x3da73d1b	0.08165952
230	0x3e8ee32c	0.27907693
231	0xbe7cca87	-0.24686633
232	0xbd269c6b	-0.040676516
233	0xbe2c75f7	-0.16841875
234	0x3e1a7298	0.15082777
235	0xbe551070	-0.20807052
236	0xbdf44340	-0.119268894
237	0xbdd4defd	-0.10394094
238	0x3de077f7	0.109603815
239	0xbd58faab	-0.05297343
240	0xbd44cf20	-0.048049092
241	0x3d8a718f	0.06759941
242	0x3caa2580	0.020769835
243	0x3dbb56e1	0.0914743
244	0xbda721c0	-0.08160734
245	0xbe54dc6a	-0.20787206
246	0x3e24a8f5	0.16080077
247	0x3d8bfab7	0.068349294
248	0x3b99d192	0.004694172
249	0xbd9b9351	-0.07596458
250	0xbd0b0fba	-0.033950545
251	0x3ddaee2c	0.10689959
252	0xb9b4a11a	-0.00034452305
253	0xbdc3541f	-0.09537529
254	0x3c00e665	0.00786743
255	0xbe134196	-0.14380488

fc1.bias f4 [256]
0	0xbd9c07e1	-0.0761869
1	0x3da8735f	0.0822513
2	0x3e1bb2f2	0.15204981
3	0x3dc10e34	0.09426537
4	0xbd165957	-0.036706295
5	0xbe0c0243	-0.13672738
6	0xbe1333b2	-0.14375189
7	0xbd2aa652	-0.04166252
8	0xbd60b781	-0.054862503
9	0xbe07218e	-0.13196394
10	0x3d305681	0.043051247
11	0xbd873226	-0.06601362
12	0x3d4ed03a	0.05049155
13	0xbdbd3d2f	-0.092401855
14	0xbc8033a2	-0.01564962
15	0xbd56f2a8	-0.05247751
16	0x3ddaf002	0.10690309
17	0xbe22a953	-0.15884905
18	0xbd8ca8bf	-0.06868123
19	0x3d18a236	0.03726407
20	0xbd491194	-0.04908903
21	0xbb423af9	-0.0029637201
22	0x3df0d383	0.11759093
23	0x3ccc55d3	0.024943268
24	0x3cafb5d3	0.021449005
25	0x3d507173	0.050889444
26	0xbdbfd4b7	-0.09366744
27	0xbd8e5138	-0.06949085
28	0x3daab161	0.083346136
29	0x3ccec672	0.02524111
30	0x3de896f5	0.11356918
31	0xbcb633b5	-0.022241453
32	0x3e27892b	0.16360919
33	0x3dd4de47	0.103939585
34	0xbd4794ff	-0.048726078
35	0xbdb62f5c	-0.08895752
36	0x3d0ffec6	0.03515508
37	0xbe14b7da	-0.14523259
38	0xbda30d4a	-0.07961519
39	0x3d5a68b4	0.05332251
40	0x3c793bd3	0.015212017
41	0x3da1547e	0.07877444
42	0xbd94f660	-0.07273555
43	0x3e15f071	0.14642502
44	0xbdc405a5	-0.09571389
45	0xbdb67565	-0.0890911
46	0x3dee9619	0.116497226
47	0xbd096ec3	-0.033552896
48	0x3d4beadc	0.049784526
49	0xbcfd4a90	-0.030919343
50	0xbdfc11c3	-0.12308075
51	0xbbe3baa7	-0.006949741
52	0x3da1c182	0.07898237
53	0x3df03378	0.11728567
54	0x3e07e98d	0.13272686
55	0xbbc9b69b	-0.0061558015
56	0x3e011c8b	0.12608545
57	0x3d494352	0.049136467
58	0x3bd1d898	0.006403994
59	0x3b56d498	0.0032780524
60	0xbc881167	-0.01660986
61	0x3d4b767e	0.04967355
62	0xbc12634a	-0.008934805
63	0x3de552fe	0.1119747
64	0xbcd9201e	-0.026504572
65	0xbdc61097	-0.09671133
66	0x3d4f3979	0.05059192
67	0xbdc7a460	-0.09748149
68	0x3ddd5aed	0.10808358
69	0x3e11a214	0.14221984
70	0x3ce4aae5	0.02791352
71	0xbd0f0d5c	-0.03492485
72	0xbc00cea1	-0.007861764
73	0x3da7484c	0.081680864
74	0xbe082b13	-0.13297682
75	0xbd3edb64	-0.046595946
76	0xbdd94e34	-0.10610619
77	0xbe214134	-0.1574753
78	0xbdff07a3	-0.124526285
79	0xbde4c1da	-0.11169787
80	0x3e07ba8c	0.13254756
81	0x3dd9edc3	0.106410526
82	0xbdf21b01	-0.11821557
83	0xbe0caba3	-0.13737349
84	0x3e1faa71	0.15592362
85	0x3d29559d	0.041341413
86	0x3da42792	0.0801536
87	0x3cdea8b1	0.027180048
88	0xbd853b83	-0.065054916
89	0xbdc09bbf	-0.09404706
90	0x3dbff8c4	0.0937362
91	0xbe303774	-0.17208654
92	0xbe1464a5	-0.14491518
93	0x3d574481	0.052555565
94	0xbd3b03ce	-0.045657925
95	0x3d086c44	0.033306375
96	0x3dbe3381	0.09287167
97	0xbdccdf53	-0.10003533
98	0xbdc8cc9c	-0.09804651
99	0xbddb466f	-0.107067935
100	0xbe1beee7	-0.15227853
101	0xbc41033f	-0.011780559
102	0x3e1745d8	0.14772737
103	0xbc2d538f	-0.010579004
104	0x3dc36c26	0.09542112
105	0xbdb153f1	-0.08658589
106	0x3c8e4261	0.017365636
107	0xbe05e128	-0.13074172
108	0xbc3c5eff	-0.011497258
109	0x3d1cb0f7	0.038254704
110	0xbd9881b5	-0.07446615
111	0x3e23a586	0.15981111
112	0x3d49878c	0.049201533
113	0x3db25879	0.08708281
114	0x3e31501f	0.1731572
115	0x3d972295	0.07379643
116	0xbc5fa3c5	-0.013649886
117	0x3daa59b5	0.083178915
118	0x3e2fb07a	0.17157164
119	0xbe2b9b8a	-0.16758552
120	0xbd0662e0	-0.03280914
121	0x3dad18bd	0.08451984
122	0xbd2caae3	-0.042155158
123	0xbe11091b	-0.1416363
124	0xbdceecd0	-0.10103762
125	0xbdb954c9	-0.090493746
126	0x3d93ae9c	0.072110385
127	0x3de30551	0.110849984
128	0xbca1f16b	-0.019768437
129	0xbe11e1ea	-0.14246336
130	0x3ccb0f60	0.024787605
131	0x3d474ccf	0.048657235
132	0xbd86600a	-0.06561287
133	0x3d75d3f2	0.06001658
134	0xbd91a886	-0.071122214
135	0x3d700ce0	0.05860603
136	0x3dff09f9	0.12453074
137	0x3db1d8d6	0.08683936
138	0xbc873bbe	-0.01650798
139	0x3e2b343c	0.16719145
140	0xbc79e4e4	-0.015252326
141	0xbe1ef980	-0.15524864
142	0x3e00184b	0.12509267
143	0x3e25b79a	0.1618332
144	0x3da293d7	0.079383545
145	0x3e1c3a4c	0.15256613
146	0x3dc07fe9	0.09399397
147	0x3d918f96	0.07107465
148	0x3dcea4bd	0.10090015
149	0xbe08e33e	-0.13367936
150	0xbb060b4c	-0.002045351
151	0xbd984304	-0.07434657
152	0x3d44116b	0.047868174
153	0xbe1da13d	-0.15393539
154	0x3c279653	0.010228711
155	0x3d8b6292	0.0680591
156	0xbd84752c	-0.06467661
157	0xbd8fb1b1	-0.07016314
158	0xbde766e6	-0.11298923
159	0x3d4444fe	0.04791736
160	0xbe159dff	-0.14611052
161	0xbd125b17	-0.0357314
162	0x3c1f63a2	0.009728344
163	0x3d4b4aa0	0.049631715
164	0xbe190f53	-0.14947252
165	0x3d0fc581	0.035100464
166	0xbd8bd9af	-0.06828629
167	0xbca636c3	-0.020289784
168	0xbe0218b8	-0.12704742
169	0xbe0c0c42	-0.13676551
170	0x3cc1ebd7	0.023672028
171	0x3cf20cd9	0.029547142
172	0x3e1922c3	0.14954667
173	0x3e27bace	0.16379854
174	0x3e023ccb	0.12718503
175	0x3d8a26d0	0.06745684
176	0x3ded2061	0.115784414
177	0x3d984dfc	0.07436749
178	0xbe260ae6	-0.16215095
179	0x3e01b904	0.12668234
180	0x3cadfb83	0.021238094
181	0xbd31a66d	-0.043371607
182	0xbd541400	-0.051776886
183	0x3e0e2d22	0.13884404
184	0x3df8d634	0.12150231
185	0xbc847803	-0.016170507
186	0xbd853e1c	-0.06505987
187	0xbdbfaf98	-0.09359664
188	0x3dcd7dba	0.10033746
189	0xbdd85444	-0.105629474
190	0xbdec65dd	-0.115428664
191	0xbdd5f293	-0.10446658
192	0x3d4ef551	0.05052692
193	0x3e08a44d	0.13343926
194	0x3d0e7745	0.034781713
195	0x3d84eb63	0.06490209
196	0xbe0ff219	-0.14057197
197	0xbe018904	-0.12649924
198	0xbdd0d502	-0.10196878
199	0xbde4023d	-0.111332394
200	0xbd9f1b74	-0.07768908
201	0xbdd84037	-0.10559123
202	0xbd694b52	-0.056956597
203	0xbddcb2c4	-0.10776284
204	0x3d547f0e	0.05187898
205	0x3b937cd7	0.004500966
206	0x3c10c5a2	0.008836182
207	0x3d975071	0.0738839
208	0xbe208580	-0.15675926
209	0xbd8b82be	-0.068120465
210	0xbbc1bf66	-0.005912709
211	0xbe26926f	-0.16266797
212	0x3dbd6606	0.09247975
213	0xbe05dd7b	-0.1307277
214	0x3df0f15a	0.11764784
215	0x3e30614a	0.17224613
216	0x3d12a315	0.03580006
217	0xbdad88dc	-0.084733695
218	0x3dfbafb1	0.1228937
219	0xbde9ca47	-0.114155345
220	0x3c06f2ab	0.0082365675
221	0x3ddf6c2d	0.10909305
222	0x3e271142	0.16315177
223	0x3c51d614	0.012807388
224	0xbc558bfa	-0.013033861
225	0xbc776d82	-0.015101792
226	0xbe2cde61	-0.16881706
227	0x3cfd6d53	0.030935919
228	0xbe0d797e	-0.13815877
229	0x3c8047b7	0.015659196
230	0xbd296a2e	-0.041361026
231	0x3de2bf1a	0.11071606
232	0xbd8ed4d3	-0.06974187
233	0x3dfd6f99	0.12374801
234	0xbd29e06e	-0.0414738
235	0xbd099c75	-0.033596475
236	0xbe224716	-0.1584743
237	0x3e1ae6d1	0.15127112
238	0x3c77424b	0.015091489
239	0xbe20b12c	-0.15692586
240	0x3c21b94f	0.009870841
241	0x3d91f99a	0.07127686
242	0xbd16bb21	-0.036799554
243	0x3e117bac	0.14207333
244	0x3dae5697	0.085126095
245	0xbcb6e85d	-0.022327596
246	0x3e32299c	0.17398685
247	0x3dfb2568	0.12262994
248	0xbcae906a	-0.021309096
249	0xbc770ad2	-0.015078263
250	0x3d5ad0b6	0.0534217
251	0xbd787e48	-0.060667306
252	0x3ddb77eb	0.10716232
253	0xbe2b7ffd	-0.16748042
254	0xbdbf1059	-0.0932929
255	0x3da368d1	0.079789765

fc2.weight f4 [256, 256]
0	0x3c0de1e6	0.008659815
1	0xbc98a149	-0.018631594
2	0x3d49c1e6	0.04925718
3	0x3d852b00	0.06502342
4	0xbe24e572	-0.16103151
5	0x3cd4f775	0.025996903
6	0x3c3030ac	0.010753792
7	0x3d95cd5f	0.07314562
8	0xbc7e9d61	-0.015540452
9	0x3d644175	0.055726487
10	0x3cd34c4d	0.025793219
11	0xbda95264	-0.08267668
12	0xbc3d9790	-0.01157178
13	0x3d067084	0.032822147
14	0xbc0512c7	-0.008122153
15	0x3bad6eb9	0.00529274
16	0x3c77900c	0.015110027
17	0x3d327703	0.04357053
18	0xbd8a4033	-0.06750526
19	0x3d607ba3	0.05480541
20	0xbcbc4f91	-0.022987159
21	0x3d65f395	0.0561405
22	0xbcbeeecf	-0.023307232
23	0x3c03e66d	0.008050543
24	0x3d9af6fa	0.07566638
25	0xbca8bebc	-0.020598762
26	0x3d8ab8db	0.0677354
27	0xbd681e8c	-0.056669757
28	0x3cfeeb67	0.031118108
29	0x3d204149	0.03912476
30	0xbc791ab0	-0.015204117
31	0x3c26f3d1	0.010189966
32	0x3d269007	0.0406647
33	0xbc9bc1c7	-0.019013299
34	0x3d4745d7	0.04865059
35	0x3ae1a5ac	0.0017215512
36	0xbd0a62e3	-0.033785712
37	0x3cfc7dea	0.03082176
38	0x3cec475e	0.028842624
39	0xbd7046e1	-0.058661345
40	0xbd0b0625	-0.033941407
41	0xbc0b9a10	-0.008520618
42	0xbdb12f82	-0.086516395
43	0x3c32c87b	0.010912056
44	0x39e3623b	0.0004337
45	0x3c5b52cc	0.0133864395
46	0x3df44ef9	0.11929125
47	0xbca82551	-0.020525606
48	0x3cfd4a6d	0.030919278
49	0x3cfdf017	0.030998273
50	0xbd5d9a25	-0.05410208
51	0xbcb7b788	-0.022426382
52	0xbd981671	-0.07426155
53	0xbb835435	-0.004007841
54	0xbd064d6f	-0.03278869
55	0x3d659e58	0.05605921
56	0xbb9ff29f	-0.0048812176
57	0xbd219595	-0.039449293
58	0x3cccf0ae	0.025017109
59	0xbca593b8	-0.02021204
60	0xbcdc2ec9	-0.026877778
61	0xbd9757c0	-0.07389784
62	0xbd64c0d2	-0.05584795
63	0x3c762b44	0.015024964
64	0xbcb3c82e	-0.021946039
65	0x3b62c693	0.0034603223
66	0xbc89e59a	-0.016833115
67	0xbb96b72d	-0.004599473
68	0x3d144a04	0.0362034
69	0xbdc8cbed	-0.09804521
70	0x3d3c29c6	0.045938276
71	0x3da82482	0.08210088
72	0x3dae0fc4	0.08499101
73	0x3cc636ce	0.024196055
74	0x3d0c318c	0.03422694
75	0x3d2dbc88	0.042416126
76	0x3e0c5339	0.13703622
77	0xbd85a0df	-0.06524824
78	0x3d2f3fa4	0.0427853
79	0x3d0b8124	0.034058705
80	0xbd099a79	-0.033594582
81	0xba3dbc39	-0.0007237825
82	0x3d07e53f	0.03317761
83	0xbd978bb2	-0.07399692
84	0xbbca579f	-0.006174996
85	0x3d83819b	0.06421205
86	0xbcedb972	-0.029019091
87	0xbd37cc9e	-0.044872873
88	0xbd172cb2	-0.03690786
89	0xbcec6f48	-0.028861657
90	0xbc6e69c3	-0.014551583
91	0xbd645b23	-0.055750977
92	0x3ca52f89	0.020164268
93	0x3bbf0511	0.0058294614
94	0xbd2f3f6e	-0.0427851
95	0x3dbe988e	0.09306441
96	0xbcfcf1bc	-0.030876987
97	0xbdd19340	-0.10233164
98	0xbcf61213	-0.030037915
99	0x3d40e067	0.047089007
100	0x3b91574d	0.004435456
101	0xbd5c4106	-0.05377295
102	0xbc2a5d71	-0.010398255
103	0x3af32600	0.0018550754
104	0x3db9f685	0.09080223
105	0xbd7d436b	-0.061831873
106	0xbd9e2057	-0.07721012
107	0x3d33cacf	0.043894585
108	0x3acdf774	0.0015714006
109	0x3c99dac8	0.01878108
110	0xbd5e223b	-0.054231863
111	0xbdfc0e97	-0.1230747
112	0xbd2550e6	-0.040360354
113	0x3d8473e7	0.06467419
114	0x3d068c96	0.032848917
115	0x3d83e247	0.06439643
116	0x3d7f1777	0.062278237
117	0xbc8a015e	-0.016846355
118	0x3d4f94a1	0.050678853
119	0x3d4884fc	0.04895495
120	0x3d8beb64	0.068320066
121	0xbd1354ea	-0.035969652
122	0x3bb50b2f	0.005525015
123	0xbd52fe20	-0.051511884
124	0xbd2f2494	-0.042759493
125	0x3d45d12b	0.04829518
126	0x3c46c200	0.012131214
127	0xbc927070	-0.01787588
128	0xbdc61e34	-0.096737295
129	0x3d6dff39	0.058104727
130	0xbdbd23b7	-0.09235328
131	0x3d3a0b5d	0.045420993
132	0xbdce82bf	-0.100835316
133	0xbd86ead0	-0.06587756
134	0x3b9fb872	0.0048742825
135	0x3d447761	0.04796541
136	0x3da1860a	0.07886894
137	0x3d3bbc26	0.04583373
138	0xbcfdf1df	-0.030999122
139	0x3c8e40b3	0.017364835
140	0x3d5a8744	0.053351656
141	0x3c3de80e	0.011590971
142	0xbd975fdf	-0.07391333
143	0xbc181e08	-0.009284504
144	0xbe119ac7	-0.14219199
145	0xbd90ceb3	-0.07070675
146	0xbc1a5db1	-0.009421752
147	0xbdbbcfd9	-0.09170503
148	0xbc8fb312	-0.017541442
149	0x3d6494bc	0.055805907
150	0xbc8edca1	-0.017439188
151	0x3ba206d5	0.004944662
152	0x3d71b42a	0.05900971
153	0xbd819622	-0.06327464
154	0xbd8300fd	-0.06396673
155	0x3cb75128	0.022377566
156	0x3c192670	0.009347543
157	0x3d29dfe6	0.04147329
158	0xbc4f41e1	-0.012649984
159	0xbccae816	-0.02476887
160	0xbd7ce201	-0.06173897
161	0xbc603d82	-0.01368654
162	0xbcbbb1cd	-0.02291193
163	0xbba062d5	-0.004894594
164	0x3ca63a20	0.020291388
165	0xbd4ac68f	-0.049505766
166	0x3dc05e2f	0.09392964
167	0xbd142e85	-0.036177177
168	0xbbbe45b5	-0.0058066496
169	0x3d860052	0.0654303
170	0xba3d0cb5	-0.00072116713
171	0xbcb9e68b	-0.02269294
172	0x3ccacab1	0.024754854
173	0xbda71016	-0.08157365
174	0xbdc19bf2	-0.09453572
175	0x3db040f3	0.08606138
176	0xbc92904e	-0.017891075
177	0x3c580db0	0.013186857
178	0x3da290dd	0.07937787
179	0xbd42b2aa	-0.04753367
180	0xbcfa2f09	-0.030540006
181	0xbcee66c0	-0.02910173
182	0xbc950d2e	-0.018194761
183	0xbc305aa7	-0.010763801
184	0xbac853fb	-0.0015283817
185	0x3dcb8654	0.099377304
186	0x3c5c1e5a	0.013434971
187	0xbcfb09f9	-0.030644404
188	0x3c836ac8	0.016042128
189	0x3ab45411	0.0013757964
190	0xbdd73f78	-0.105101526
191	0xbd54f9f4	-0.051996186
192	0xbcb6012c	-0.022217356
193	0x3c37ed09	0.011225947
194	0x3cd3adf6	0.025839787
195	0x3be039da	0.006842834
196	0x3c99ce31	0.018775078
197	0xbd3f562c	-0.04671304
198	0xbbe774dc	-0.0070634913
199	0xbde2c028	-0.11071807
200	0x3d8c73d5	0.06858031
201	0xbc4e1ea8	-0.012580551
202	0xbcf260e5	-0.029587219
203	0x3c787920	0.015165597
204	0x3d2f09f0	0.042734087
205	0x3c8d376f	0.017238347
206	0x3ba47d08	0.0050197877
207	0x3d229f8f	0.03970295
208	0x3da42661	0.08015133
209	0xbcb0e724	-0.021594591
210	0x3c1d6b00	0.00960803
211	0xbda7a136	-0.081850454
212	0x3d0e8fea	0.034805216
213	0x3bb6859c	0.0055701267
214	0x3d9b3a51	0.07579482
215	0x3d023b0b	0.03179459
216	0x3c2faec7	0.0107228225
217	0x3c5adf1f	0.01335886
218	0x3d0b1408	0.03395465
219	0x3d3035bf	0.043020006
220	0xbcd13eb4	-0.025542594
221	0x3d978e11	0.07400144
222	0xbc85d2f2	-0.016335938
223	0xbd30b075	-0.043137033
224	0x3d58e381	0.05295134
225	0x3cfac7a4	0.030612774
226	0xbe07da52	-0.13266876
227	0xbc97ef52	-0.018546734
228	0xbc0841b5	-0.008316447
229	0x3d075578	0.033040494
230	0xbb97f6c4	-0.004637571
231	0xbc8ae7b8	-0.016956195
232	0xbc7b220e	-0.0153279435
233	0x3d816bc3	0.06319382
234	0xbd1e7ddf	-0.03869426
235	0x3ce9471c	0.02847629
236	0x3d1aa7d6	0.037757717
237	0x3c62f70f	0.013852849
238	0x3d4393ba	0.047748305
239	0x3d1b80bf	0.03796458
240	0xbd6a4f54	-0.05720456
241	0x3da2afca	0.07943685
242	0x3d424b2c	0.04743497
243	0xba4974b1	-0.000768493
244	0x3ba8fbc5	0.0051569664
245	0x3d8b45f7	0.06800454
246	0xbd754995	-0.059884626
247	0x3d18c12a	0.03729359
248	0xbd10f336	-0.035388194
249	0xbcaa1406	-0.020761501
250	0xbd6ecfcb	-0.058303636
251	0x3d82003c	0.06347701
252	0xbd207085	-0.039169807
253	0xbc3a4495	-0.01136889
254	0x3d2debf8	0.042461365
255	0x3c2d6057	0.010582051

fc2.bias f4 [256]
0	0x3c93d8a2	0.018047635
1	0xbc4561d1	-0.012047247
2	0x3d66c6c2	0.056341894
3	0xbd6bdb78	-0.05758235
4	0x3c47494e	0.012163473
5	0xbd696bf5	-0.05698772
6	0xbb5973dc	-0.003318063
7	0xbd1ec584	-0.038762584
8	0x3cdb8e03	0.026801115
9	0xbc1a2c1a	-0.009409929
10	0x3d3926e7	0.045203116
11	0xbd061bb8	-0.03274128
12	0x3d1cf021	0.038314942
13	0x3c86d341	0.016458156
14	0xbcd000e5	-0.025391052
15	0x3c1d9d85	0.009620075
16	0x3d14785c	0.036247596
17	0xbc5d1eeb	-0.013496141
18	0x3d166d21	0.036725167
19	0xbc322989	-0.010874161
20	0x3d200e73	0.03907628
21	0x3d60f76f	0.05492347
22	0x3c45caca	0.012072274
23	0x3d397bad	0.045283962
24	0x3cfb8bf2	0.03070638
25	0x3ae7c00d	0.0017681137
26	0x3d64413b	0.05572627
27	0xbd46de1e	-0.04855167
28	0x3c9fe901	0.019520285
29	0xbc83c4f9	-0.016085135
30	0xbd3477a7	-0.044059422
31	0xbd1cf887	-0.03832295
32	0xbd4fd2c4	-0.05073811
33	0xbb8562a4	-0.004070597
34	0xbd42fdea	-0.047605433
35	0xbcad88a1	-0.021183314
36	0xbd628187	-0.05529931
37	0x3bdf3209	0.0068113846
38	0xbceb1dfa	-0.028700817
39	0xbd27cf50	-0.040969193
40	0xbd00b22d	-0.03141992
41	0xbcc2463d	-0.023715133
42	0xbd1b9c58	-0.037990898
43	0xbd1f9f07	-0.03897002
44	0xbd2033c0	-0.039111853
45	0x3d635074	0.055496648
46	0x3c768ab7	0.015047721
47	0x3ce9f180	0.028557539
48	0xbd747dec	-0.0596904
49	0x3c9cae89	0.019126194
50	0xbc5f0c8b	-0.01361383
51	0xbd0cca3a	-0.034372546
52	0xbc0a6572	-0.008447038
53	0x3cf0e3f2	0.029405568
54	0x3b514ce3	0.0031936697
55	0x3d6d8e53	0.05799706
56	0xbd6b308f	-0.057419356
57	0xbd484d38	-0.048901767
58	0x3c1203c8	0.008912034
59	0xbcaa6d9b	-0.020804217
60	0x3bccbc11	0.006248005
61	0xbd7db3a4	-0.061938897
62	0xbd06c669	-0.032904062
63	0xba9f6b86	-0.0012162782
64	0x3d25fa4a	0.040521897
65	0xbd6f3ed7	-0.058409538
66	0x3c91920b	0.017769834
67	0xbc1669a9	-0.009180465
68	0x3d1ca585	0.03824379
69	0x3c012cfc	0.00788426
70	0x3d28f343	0.041247617
71	0x3d1501e1	0.036378745
72	0x3cd48b60	0.025945365
73	0x3be6c9f8	0.0070431195
74	0x3d39ae9e	0.045332544
75	0xbd7ef708	-0.062247306
76	0xbd7d140c	-0.061786696
77	0xbc31393a	-0.0108168665
78	0xbd1f62d4	-0.03891261
79	0x3d71cd5d	0.05903374
80	0xbc7e9438	-0.015538268
81	0x3baf30c3	0.005346389
82	0xbcc284f0	-0.02374503
83	0xbaae141b	-0.0013281138
84	0x3cefb13f	0.029259322
85	0xbd2d4592	-0.042302676
86	0x3d437e97	0.047728147
87	0x3d2f38f9	0.042778943
88	0xbb5572ce	-0.003256965
89	0xbd7b54f9	-0.061360333
90	0x3cf62c98	0.03005056
91	0xba59a7bb	-0.0008302887
92	0xbd39bc43	-0.045345556
93	0x3d372f0c	0.0447226
94	0xbc9a427c	-0.01883053
95	0x3c906d81	0.01763034
96	0xbd56602b	-0.052337807
97	0x3d4dad5d	0.05021416
98	0x3d63969a	0.055563547
99	0x3cdf5dc2	0.027266387
100	0xbcbe9de9	-0.023268657
101	0xbd116d80	-0.035504818
102	0xbc7fbf6c	-0.015609603
103	0x3ccd2b9a	0.025045205
104	0xbcc1dab9	-0.023663865
105	0xbc26fc16	-0.010191938
106	0x3d3e36f1	0.046439115
107	0x3cf5c8ce	0.030002978
108	0xbd5bbe6e	-0.053648405
109	0x3cc89ed2	0.024489794
110	0xbce368d2	-0.027759943
111	0x3c71f15e	0.014767019
112	0x3d1bce12	0.03803832
113	0xbc9beba8	-0.019033268
114	0x3bbc0dc5	0.005738946
115	0x3d1e4013	0.038635325
116	0x3bd983ec	0.0066380408
117	0x3d5178e1	0.05114067
118	0xbd494f17	-0.04914769
119	0xbd79d0af	-0.06099003
120	0xbce1a9bf	-0.027546762
121	0xbcfc3df2	-0.030791257
122	0x3d7bd135	0.061478812
123	0x3c743fce	0.01490779
124	0xbb5afab7	-0.0033413598
125	0x3ca14d5d	0.01969021
126	0x3cfc0265	0.03076286
127	0x3d21191a	0.03933058
128	0x3a547ed5	0.00081060576
129	0xbd771692	-0.06032426
130	0x3d538434	0.05163975
131	0x3ce0bc10	0.027433425
132	0xbd64385b	-0.055717807
133	0x3d727f2b	0.059203308
134	0x3d04a195	0.03238066
135	0xbc288ac4	-0.010286991
136	0xbd16aead	-0.036787678
137	0xbc043900	-0.0080702305
138	0xbd70144a	-0.0586131
139	0x3be937ec	0.007117262
140	0x3d4266cf	0.047461327
141	0x3c3ab059	0.011394584
142	0x3cb166bc	0.021655433
143	0x3c2d6fa6	0.010585701
144	0xbbb50f66	-0.0055255173
145	0xbcbba527	-0.0229059
146	0xbd6f064a	-0.058355607
147	0x3cb29f01	0.021804335
148	0x3d3fb48f	0.046803053
149	0xbbc24d8d	-0.005929655
150	0x3d14b546	0.03630569
151	0xbcb1be10	-0.021697074
152	0xbc7fd091	-0.015613691
153	0x3d7f8b89	0.06238893
154	0xbcdb60fb	-0.026779642
155	0xbd2406be	-0.040045492
156	0x3d63a6d4	0.05557902
157	0x3d3e81f4	0.04651065
158	0xbd614f54	-0.055007294
159	0xbd3eae9c	-0.04655324
160	0x3d40b095	0.0470434
161	0x3b8e3f81	0.0043410663
162	0x3d30c77d	0.043158997
163	0xbd62bac0	-0.05535388
164	0xbced64e4	-0.028978772
165	0xbd4844c0	-0.04889369
166	0x3d29cc9a	0.04145489
167	0x3d4cb1a6	0.049974106
168	0x3cbeeea3	0.02330715
169	0x3d147173	0.036241006
170	0x3cc05f21	0.023482861
171	0x3d3b64c7	0.045750406
172	0xbd1f6b82	-0.038920887
173	0x3d3df050	0.046371758
174	0x3c52d7db	0.012868847
175	0xbd7b5e38	-0.06136915
176	0x3c3dd68d	0.011586797
177	0xbd5ea865	-0.054359812
178	0xbd55595e	-0.05208718
179	0xbc4b70ce	-0.012417031
180	0xbd01b3ac	-0.03166549
181	0xbd3dd97a	-0.04634998
182	0x3cf48f3f	0.029853461
183	0x3c105e8c	0.008811604
184	0xbb63fd5d	-0.0034788467
185	0xbd21cedc	-0.039503917
186	0x3d24e272	0.040255018
187	0xbd4fc3df	-0.050723907
188	0x3d1c6317	0.038180437
189	0xbd6b3bfe	-0.05743026
190	0xbd696efe	-0.056990616
191	0x3a1d055c	0.00059898733
192	0xbc56c0a1	-0.01310745
193	0x3ba0a087	0.004901949
194	0x3d3d090b	0.046151202
195	0x3b780498	0.0037844535
196	0xbc2fa4aa	-0.010720411
197	0xbd7e25c6	-0.062047742
198	0xbcf78835	-0.030216316
199	0xbd11336c	-0.03544943
200	0xbc8eceaf	-0.017432539
201	0xbd329ac1	-0.043604616
202	0x3d299ee8	0.04141131
203	0x3d0c1a29	0.034204636
204	0xbd7fd022	-0.06245435
205	0x3d675c73	0.05648465
206	0x3b8206dd	0.0039681033
207	0xbd569424	-0.05238737
208	0xbcbe3d43	-0.023222571
209	0xbd43d3a2	-0.04780925
210	0x3cb5720d	0.02214911
211	0x3d6f150e	0.05836969
212	0x3d32b457	0.043629017
213	0xbbc68917	-0.006058823
214	0xbd7a07d2	-0.061042614
215	0xbd4571d0	-0.048204243
216	0xbd1342d8	-0.03595242
217	0x3d4b7a42	0.04967714
218	0x3ce6bc69	0.028166013
219	0xbc22067f	-0.009889244
220	0x3cbb8e13	0.022894895
221	0xbd7c1bb0	-0.061549842
222	0xbd0990d1	-0.033585373
223	0xbd286555	-0.041112263
224	0xbd7ad14f	-0.06123477
225	0x3d11513c	0.03547786
226	0xbd6b5540	-0.057454348
227	0x3d68c63a	0.05682967
228	0xbd70c4b6	-0.05878135
229	0x3d6caa53	0.05777962
230	0x3c2d62d8	0.010582648
231	0x3d01ec2b	0.031719368
232	0x3cba1a2a	0.022717554
233	0xbcdf133b	-0.02723085
234	0x3bfb56c0	0.0076702535
235	0xbbb7ed3f	-0.0056129987
236	0xbc183bce	-0.009291602
237	0xbd57a81e	-0.052650563
238	0xbc2859d2	-0.010275321
239	0x3b907499	0.004408431
240	0xbba294ba	-0.0049615772
241	0xbca004c0	-0.019533515
242	0xbd4f5f80	-0.050628185
243	0xbd79a051	-0.060943905
244	0x3d077672	0.033071943
245	0xbb861634	-0.0040920023
246	0x3d1cf8c5	0.038323183
247	0xbd6ed3c0	-0.05830741
248	0x3cea09a1	0.028569045
249	0x3d2c06ed	0.041998792
250	0x3d790f87	0.060805824
251	0x3ca9fc61	0.020750226
252	0x3ce057bd	0.027385587
253	0xbd580a04	-0.052743927
254	0x3d605ec2	0.054777868
255	0x3d284dd1	0.041089837

fc3.weight f4 [4, 256]
0	0xbd378cdf	-0.04481208
1	0xbd78bacc	-0.06072502
2	0x3de24c45	0.110497035
3	0xbe28e089	-0.16491903
4	0x3e567006	0.20941171
5	0x3e5ea53e	0.21742722
6	0xbd65c180	-0.05609274
7	0x3b969088	0.004594866
8	0xbd935344	-0.07193616
9	0x3e6c51ac	0.2307803
10	0xbe120bd4	-0.14262325
11	0xbe8faad0	-0.28060007
12	0xbc82b964	-0.015957542
13	0xbd4e71e5	-0.050401587
14	0x3e2e029a	0.1699318
15	0x3e5dbb54	0.21653491
16	0xbda6bd99	-0.08141632
17	0x3eb60758	0.35552478
18	0xbe81bbc8	-0.25338578
19	0xbe2359ad	-0.15952177
20	0x3e5acdc3	0.21367554
21	0x3db424a9	0.08796055
22	0x3eca5e7f	0.3952522
23	0x3e876b38	0.2644899
24	0xbd923735	-0.07139436
25	0x3c546551	0.012963609
26	0xbe3df46e	-0.18550274
27	0xbe33ba7e	-0.1755161
28	0x3e68c0cb	0.22729795
29	0xbe89c12f	-0.269052
30	0xbdfa29a2	-0.12214972
31	0x3e0c197d	0.13681598
32	0x3c801526	0.015635084
33	0xbe3d6ca4	-0.18498474
34	0xbcbb39fe	-0.022854801
35	0xbeaa30f1	-0.33240464
36	0xbe7a6d25	-0.24455698
37	0x3e3957d8	0.18099916
38	0xbc2cdfba	-0.010551387
39	0x3e1c8483	0.15284924
40	0x3dbc4201	0.09192277
41	0x3e7e072c	0.24807423
42	0xbdca1acc	-0.09868392
43	0x3e6baafd	0.23014446
44	0xbe2bfe62	-0.16796258
45	0xbd192fda	-0.03739915
46	0xbe34742a	-0.17622438
47	0x3e11715c	0.142034
48	0xbd92446b	-0.07141956
49	0x3d98ed57	0.07467144
50	0x3d6475b6	0.05577632
51	0xbdf4bdcd	-0.11950264
52	0xbdbd2567	-0.092356496
53	0xbc8b70fe	-0.017021652
54	0x3d8451ea	0.06460936
55	0x3eb897f8	0.36053443
56	0x3e3dddc0	0.18541622
57	0xbd9a3aea	-0.07530768
58	0xbdb50006	-0.08837895
59	0xbe484345	-0.19556911
60	0x3e6af3a1	0.229445
61	0x3e1abecc	0.15111846
62	0x3e406dc9	0.1879188
63	0x3ce97dc5	0.028502354
64	0xbe5bf0ee	-0.21478626
65	0xbd9741cf	-0.07385599
66	0xbe94497c	-0.28962314
67	0x3da81f2d	0.08209071
68	0x3e2e0b6e	0.16996548
69	0xbdbdf7df	-0.09275793
70	0x3dcc251c	0.099680156
71	0x3e30ffba	0.17285052
72	0xbe0d6d66	-0.13811263
73	0xbd98088d	-0.07423506
74	0x3d5cfd96	0.053952776
75	0xbc9b2766	-0.018939685
76	0xbd9ba9b8	-0.07600731
77	0x3dbb8730	0.09156644
78	0x3e801e5e	0.25023168
79	0xbdd28f11	-0.10281194
80	0xbd44c43e	-0.048038714
81	0xbd9d0fe6	-0.07669048
82	0x3dc4e8ed	0.096147396
83	0x3c7ee015	0.015556355
84	0xbe9141da	-0.28370553
85	0xbdaed7d5	-0.085372604
86	0x3d964b06	0.07338528
87	0x3ddb6782	0.10713102
88	0xbe96e3d5	-0.29470697
89	0xbeb5b1b2	-0.35487133
90	0xbe686ed3	-0.22698526
91	0x3e841d2f	0.25803515
92	0xbe69b1f9	-0.22821797
93	0xbbaf8c18	-0.0053572766
94	0xbd8c46dc	-0.06849453
95	0x3e78ea13	0.24308042
96	0xbd1d4248	-0.03839329
97	0x3e0d92f7	0.13825594
98	0x3e8a59b1	0.27021554
99	0x3dd3a190	0.1033355
100	0x3d6f0426	0.058353566
101	0x3e1ade57	0.15123878
102	0x3e898307	0.26857778
103	0xbdb20963	-0.086931966
104	0xbcbc7b5f	-0.023008047
105	0x3e298895	0.16556008
106	0x3d1dbe6d	0.038511682
107	0x3da0d920	0.07853913
108	0x3e098ffd	0.13433833
109	0xbe6d9e26	-0.2320486
110	0xbdd132a2	-0.102147356
111	0xbe827080	-0.25476456
112	0x3cb5a601	0.022173883
113	0xbde7ba55	-0.11314837
114	0xbde80b13	-0.11330237
115	0xbe6eb190	-0.23309922
116	0x3dabf53a	0.08396383
117	0x3b86b3d8	0.0041107945
118	0x3d6eed08	0.05833152
119	0x3e4d21fa	0.20032492
120	0x3d3f7ddd	0.046750892
121	0x3e09be66	0.13451537
122	0xbd9e0a96	-0.07716863
123	0xbddc05af	-0.107432716
124	0x3e8101cc	0.25196683
125	0xbd88b3e7	-0.06674939
126	0x3e957fdb	0.29199108
127	0xbe997999	-0.29975584
128	0xbe247e4b	-0.16063802
129	0x3dffb931	0.12486494
130	0x3e8a90cb	0.27063593
131	0xbeccf6d4	-0.40032065
132	0x3b7445a9	0.0037272966
133	0xbe222003	-0.15832524
134	0x3eb1b8db	0.34711346
135	0x3e1d6101	0.15369035
136	0xbd2a12cc	-0.041521832
137	0xbe44f1e4	-0.19232899
138	0x3db890d8	0.09012002
139	0xbda9beeb	-0.08288368
140	0x3e3fa736	0.1871613
141	0x3eb08af2	0.34481007
142	0xbd3336ed	-0.043753553
143	0xbc3e0a95	-0.011599203
144	0xbb5c7628	-0.0033639763
145	0x3e4c9372	0.19978121
146	0xbce66eff	-0.028129099
147	0xbdea000a	-0.11425789
148	0x3df3e789	0.11909396
149	0xbe4d4771	-0.20046784
150	0x3cc3bdec	0.023894273
151	0xbd4c7e00	-0.04992485
152	0x3e6b9d7c	0.23009294
153	0x3d86b17c	0.06576821
154	0xbdacf827	-0.08445769
155	0xbd795d82	-0.06088019
156	0x3c402f6f	0.011730059
157	0x3d1e1ccf	0.038601693
158	0xbda24354	-0.07922998
159	0x3d83825d	0.06421349
160	0x3c85e3fd	0.016344065
161	0x3d3cc252	0.046083756
162	0xbda9409f	-0.082642786
163	0xbe8ef949	-0.27924564
164	0x3e431ef2	0.19054773
165	0x3d33d639	0.04390547
166	0xbde0798d	-0.10960684
167	0xbe988d05	-0.2979509
168	0xbc7a94aa	-0.015294233
169	0xbdafd0c5	-0.085847415
170	0x3d8df0c9	0.06930692
171	0x3ccd7b09	0.025083082
172	0x3e60bdbe	0.21947381
173	0x3e20735c	0.15669006
174	0xbddaff9e	-0.10693286
175	0x3e5ab27d	0.2135715
176	0x3ecfbb7e	0.40572733
177	0xbe639ed0	-0.22228551
178	0x3ea1b664	0.31584466
179	0xbeb9b472	-0.3627048
180	0x3eb2a608	0.34892297
181	0xbe61d9a6	-0.22055683
182	0x3e1eecb7	0.15519987
183	0xbe2cd5aa	-0.16878381
184	0xbd954046	-0.0728765
185	0xbd10cff6	-0.035354577
186	0x3c8ffce5	0.017576644
187	0xbde44e6a	-0.11147769
188	0xbe0549f6	-0.13016495
189	0xbdbf566f	-0.09342658
190	0x3da8d77a	0.08244224
191	0x3e275f7e	0.16345021
192	0x3d9eda9c	0.0775654
193	0xbd99b0ce	-0.07504426
194	0x3e0f0b34	0.13969117
195	0xbddcf810	-0.10789502
196	0xbe08de6e	-0.133661
197	0x3e93b666	0.28850096
198	0x3d14a111	0.036286417
199	0xbe45ef41	-0.1932955
200	0x3e427b99	0.18992461
201	0xbe14ee6b	-0.14544074
202	0x3ea41086	0.32043856
203	0xbdb675d6	-0.08909194
204	0xbd381bbe	-0.044948332
205	0xbd351b2f	-0.044215377
206	0xbd804c95	-0.06264607
207	0xbd8ba782	-0.06819059
208	0x3e7a2e67	0.24431764
209	0x3e2da6d9	0.16958179
210	0xbd422363	-0.04739703
211	0xbe5a1e5b	-0.21300642
212	0xbe289b63	-0.16465525
213	0x3d8b710c	0.06808671
214	0x3e02763b	0.12740414
215	0xbd94b93d	-0.07261894
216	0xbb473b92	-0.0030400497
217	0xbdc6bea8	-0.097043335
218	0x3d65e366	0.056125067
219	0xbec63534	-0.38712466
220	0xbc6ba3c5	-0.014382307
221	0xbcbbd26a	-0.022927482
222	0xbec06d41	-0.37583354
223	0x3e30c5cb	0.17262952
224	0x3cde4346	0.027131688
225	0xbde8625c	-0.113468856
226	0x3cad6c61	0.021169843
227	0xbd934ed4	-0.0719277
228	0x3e921fe1	0.28539947
229	0x3ecc9e79	0.39964655
230	0xbded835a	-0.11597319
231	0xbe66f640	-0.22554874
232	0x3e58a8e3	0.21158175
233	0xbd636427	-0.055515435
234	0x3daf8959	0.08571119
235	0x3db559bf	0.08855008
236	0x3dc7ee6d	0.09762273
237	0x3ddef2c9	0.10886151
238	0x3dc1d45f	0.09464335
239	0x3e43fc63	0.19139247
240	0x3e1cfe23	0.1533132
241	0xbd1920a3	-0.03738464
242	0x3ebf00c4	0.37305272
243	0x3de90526	0.11377935
244	0xbe3f8ca6	-0.18705997
245	0x3d022f3f	0.03178334
246	0x3e443c32	0.19163588
247	0xbd8549bc	-0.06508204
248	0xbe92b25e	-0.28651708
249	0xbe44d451	-0.19221617
250	0xbea77784	-0.3270837
251	0x3e64ba93	0.22336797
252	0xbe875809	-0.26434353
253	0xbba3e1a2	-0.0050012628
254	0xbdc299f6	-0.09502022
255	0xbd67e70d	-0.05661683

fc3.bias f4 [4]
0	0x3b3f51db	0.0029193077
1	0xbcde63e7	-0.027147247
2	0xbdae0284	-0.084965736
3	0x3d8b9fce	0.0681759

bn1.weight f4 [256]
0	0x3f82d5a4	1.0221448
1	0x3f773799	0.9656921
2	0x3f78e2d3	0.97221106
3	0x3f7e86c3	0.9942438
4	0x3f6964b8	0.9116931
5	0x3f7daa06	0.9908756
6	0x3f82940c	1.020143
7	0x3f7a2733	0.97716063
8	0x3f746221	0.9546223
9	0x3f8eb4c4	1.1148915
10	0x3f6f895a	0.93568957
11	0x3f78568e	0.9700707
12	0x3f7d6bfa	0.98992884
13	0x3f803205	1.0015265
14	0x3f82053e	1.015785
15	0x3f7feae4	0.9996779
16	0x3f82087a	1.0158837
17	0x3f7b5729	0.9817987
18	0x3f70c090	0.9404383
19	0x3f8310dd	1.0239521
20	0x3f8530aa	1.0405476
21	0x3f830788	1.0236673
22	0x3f7c587b	0.9857251
23	0x3f81dcd0	1.0145512
24	0x3f7a8871	0.97864443
25	0x3f7129d3	0.94204444
26	0x3f83bed0	1.0292606
27	0x3f7eaa52	0.9947864
28	0x3f8250b8	1.0180883
29	0x3f7adec4	0.97996163
30	0x3f822875	1.0168597
31	0x3f71806d	0.9433659
32	0x3f807f45	1.003884
33	0x3f6e5479	0.93097645
34	0x3f8c0e3a	1.0941842
35	0x3f72100b	0.9455573
36	0x3f7a099b	0.97670907
37	0x3f7492fa	0.9553677
38	0x3f8244a7	1.0177201
39	0x3f7c7548	0.98616457
40	0x3f7af804	0.9803469
41	0x3f84a367	1.0362366
42	0x3f78c70e	0.97178733
43	0x3f7321ef	0.94973654
44	0x3f759162	0.9592496
45	0x3f8418ec	1.0320106
46	0x3f877adb	1.0584368
47	0x3f807d73	1.0038284
48	0x3f75647e	0.95856464
49	0x3f88377b	1.0641931
50	0x3f818ea6	1.0121658
51	0x3f7d2239	0.98880345
52	0x3f73f51b	0.95295876
53	0x3f836742	1.0265887
54	0x3f744b12	0.9542705
55	0x3f86c797	1.052966
56	0x3f6fc66f	0.9366216
57	0x3f77ca65	0.96793205
58	0x3f83d96b	1.0300726
59	0x3f7f02f6	0.99613893
60	0x3f7ee5bb	0.9956929
61	0x3f742fd0	0.95385456
62	0x3f7ad94e	0.9798783
63	0x3f6a4b5d	0.91521245
64	0x3f6d0c1c	0.925966
65	0x3f845087	1.0337075
66	0x3f90a7f4	1.1301255
67	0x3f87af5e	1.0600393
68	0x3f76cfd7	0.9641089
69	0x3f74e7bc	0.956661
70	0x3f7d7119	0.990007
71	0x3f7371d9	0.9509559
72	0x3f8e5884	1.1120763
73	0x3f8caf37	1.0990971
74	0x3f76035b	0.9609887
75	0x3f704d6a	0.93868124
76	0x3f8f14ca	1.1178219
77	0x3f80b7f0	1.0056133
78	0x3f6d8208	0.92776537
79	0x3f957914	1.1677575
80	0x3f7bab23	0.9830801
81	0x3f84b7f0	1.0368633
82	0x3f8e4518	1.1114836
83	0x3f6a5ff2	0.9155265
84	0x3f8146b7	1.0099705
85	0x3f7cbc57	0.98724884
86	0x3f7e69e6	0.9938034
87	0x3f7c7872	0.98621285
88	0x3f7a8448	0.97858095
89	0x3f83a225	1.0283858
90	0x3f7d53eb	0.98956174
91	0x3f8187f8	1.0119619
92	0x3f84fa05	1.03888
93	0x3f81762f	1.0114192
94	0x3f762c41	0.96161276
95	0x3f737b20	0.9510975
96	0x3f7fe4df	0.99958605
97	0x3f89a7ac	1.0754294
98	0x3f76675e	0.96251476
99	0x3f802fa9	1.0014545
100	0x3f8039e9	1.0017673
101	0x3f87346a	1.056287
102	0x3f8186d5	1.0119272
103	0x3f86b7ec	1.0524879
104	0x3f84cb3c	1.0374522
105	0x3f80959c	1.0045657
106	0x3f71fbb7	0.9452471
107	0x3f8072cb	1.0035032
108	0x3f7f6e6f	0.99777883
109	0x3f746b3e	0.9547614
110	0x3f7f02ef	0.9961385
111	0x3f6b968e	0.92026603
112	0x3f72436f	0.94634145
113	0x3f852d79	1.0404502
114	0x3f8258b0	1.0183315
115	0x3f707cf8	0.9394069
116	0x3f77c3c0	0.96783066
117	0x3f806da9	1.0033466
118	0x3f74d37b	0.95635194
119	0x3f839608	1.0280161
120	0x3f67b028	0.9050317
121	0x3f81b69c	1.0133853
122	0x3f75eaf4	0.96061635
123	0x3f718482	0.94342816
124	0x3f7abf5d	0.9794825
125	0x3f802500	1.0011292
126	0x3f7f7a1c	0.997957
127	0x3f7aed77	0.9801859
128	0x3f784cac	0.9699199
129	0x3f87e239	1.0615913
130	0x3f7ec9fd	0.9952696
131	0x3f80e423	1.0069622
132	0x3f7f0b85	0.9962695
133	0x3f722480	0.94586945
134	0x3f7e4f27	0.99339527
135	0x3f70f61a	0.9412552
136	0x3f8d3595	1.1031977
137	0x3f7f6dda	0.99776995
138	0x3f84253e	1.0323865
139	0x3f8da7b8	1.1066809
140	0x3f822352	1.0167029
141	0x3f84055d	1.0314137
142	0x3f7748a3	0.9659521
143	0x3f82033e	1.015724
144	0x3f812c7a	1.0091698
145	0x3f8aceb8	1.0844336
146	0x3f806858	1.0031843
147	0x3f851cb0	1.039938
148	0x3f81ea03	1.014954
149	0x3f72cae0	0.9484081
150	0x3f7a0952	0.9767047
151	0x3f6a6ebe	0.9157523
152	0x3f8a3936	1.0798709
153	0x3f7dd661	0.9915524
154	0x3f7f0ef8	0.99632215
155	0x3f806902	1.0032046
156	0x3f845c65	1.0340697
157	0x3f782c0e	0.9694222
158	0x3f80c8ba	1.0061257
159	0x3f7746c0	0.9659233
160	0x3f7d33ec	0.9890735
161	0x3f7cf5a4	0.9881232
162	0x3f71fded	0.94528085
163	0x3f86da2c	1.0535331
164	0x3f90b1d0	1.1304264
165	0x3f898946	1.0745018
166	0x3f7e550c	0.9934852
167	0x3f74e765	0.9566558
168	0x3f7eef02	0.99583447
169	0x3f8047dd	1.0021931
170	0x3f7ec1c6	0.99514425
171	0x3f7cf2b0	0.9880781
172	0x3f746bcd	0.9547699
173	0x3f7c5038	0.98559904
174	0x3f7f276d	0.99669534
175	0x3f79dbfa	0.9760128
176	0x3f7f2196	0.99660623
177	0x3f819b49	1.0125514
178	0x3f72fd42	0.9491769
179	0x3f731c40	0.9496498
180	0x3f76656e	0.9624852
181	0x3f879980	1.059372
182	0x3f76d862	0.96423924
183	0x3f843e53	1.033152
184	0x3f75691f	0.9586353
185	0x3f79d308	0.97587633
186	0x3f6f7c0f	0.93548673
187	0x3f8a1be0	1.0789757
188	0x3f749243	0.9553568
189	0x3f85dd64	1.0458188
190	0x3f78f351	0.9724627
191	0x3f7ce1f6	0.9878229
192	0x3f885b61	1.0652887
193	0x3f80e340	1.0069351
194	0x3f6cc448	0.92487
195	0x3f7ac00d	0.97949296
196	0x3f74ca25	0.9562095
197	0x3f786fa0	0.97045326
198	0x3f77e0d9	0.96827465
199	0x3f81fa2b	1.015447
200	0x3f70b46c	0.940253
201	0x3f831969	1.024213
202	0x3f7db762	0.99107945
203	0x3f82244c	1.0167327
204	0x3f7b631d	0.9819811
205	0x3f8d2e53	1.1029762
206	0x3f711690	0.9417505
207	0x3f842776	1.0324543
208	0x3f7fd23e	0.9993018
209	0x3f7fbd36	0.9989809
210	0x3f712e30	0.942111
211	0x3f82b8c8	1.0212641
212	0x3f82f26c	1.0230231
213	0x3f7a7683	0.97837085
214	0x3f81bfbb	1.0136636
215	0x3f8e615a	1.1123459
216	0x3f819ad7	1.0125378
217	0x3f83581b	1.0261263
218	0x3f80257c	1.0011439
219	0x3f5f246f	0.8716497
220	0x3f78d77b	0.972038
221	0x3f773d20	0.96577644
222	0x3f6ae055	0.91748554
223	0x3f7c72ab	0.9861247
224	0x3f8f0327	1.1172837
225	0x3f81c605	1.0138556
226	0x3f8ad517	1.084628
227	0x3f805620	1.0026283
228	0x3f731d96	0.9496702
229	0x3f7a924f	0.978795
230	0x3f7c91e5	0.9866012
231	0x3f71752d	0.9431942
232	0x3f766fe2	0.9626447
233	0x3f7ce0d6	0.9878057
234	0x3f67b8e4	0.90516496
235	0x3f8b5947	1.088662
236	0x3f7d1408	0.9885869
237	0x3f7624ed	0.96150094
238	0x3f897dce	1.0741518
239	0x3f8067ee	1.0031717
240	0x3f798de4	0.9748213
241	0x3f6fbf50	0.93651295
242	0x3f8138df	1.0095481
243	0x3f797ac0	0.97452927
244	0x3f7d5334	0.9895508
245	0x3f81fd2c	1.0155387
246	0x3f843cc1	1.0331041
247	0x3f7e9dc2	0.9945947
248	0x3f72ddf9	0.94869953
249	0x3f7c2c27	0.9850487
250	0x3f90b727	1.1305894
251	0x3f74505d	0.95435125
252	0x3f747a85	0.9549945
253	0x3f72949a	0.94758
254	0x3f85d435	1.0455385
255	0x3f7744c1	0.96589285

bn1.bias f4 [256]
0	0xbbc14d83	-0.0058991327
1	0xbe0f765f	-0.14009999
2	0xbbcc0134	-0.0062257294
3	0x3d8a1ad1	0.06743396
4	0x3c5381f6	0.012909403
5	0x3d19f160	0.03758371
6	0x3cad0db2	0.021124694
7	0xbdd3569f	-0.10319256
8	0xbd99f5ee	-0.075176105
9	0xbe0b063f	-0.13576601
10	0xbd862d19	-0.065515704
11	0xbcc1f4b4	-0.023676254
12	0x3c83151e	0.01600128
13	0xbdbd8d11	-0.09255422
14	0xbe3fa04a	-0.18713489
15	0x3e36a57a	0.17836562
16	0xbd32d758	-0.0436624
17	0xbd0341ea	-0.032045282
18	0xbdddd6b3	-0.10831966
19	0x3e00ceed	0.12578936
20	0xbd83393c	-0.06407401
21	0xbca86219	-0.02055459
22	0xbde53aff	-0.11192893
23	0xbd6985ad	-0.05701225
24	0xbe17619b	-0.14783327
25	0x3d4d3b1c	0.0501052
26	0x3d95a12b	0.07306131
27	0x3c7135f8	0.01472234
28	0x3ccf3a13	0.025296247
29	0xbe000a3e	-0.12503907
30	0x3d86f76d	0.065901615
31	0x3db4de4c	0.08831462
32	0x3d43a0cd	0.047760773
33	0x3c22a65e	0.00992736
34	0x3d8ad0aa	0.06778081
35	0x3caf391f	0.021389542
36	0xbd89e147	-0.06732421
37	0x3d42aefc	0.04753016
38	0xbdee00f4	-0.116212755
39	0xbd9f9b4c	-0.077932924
40	0xbcc430ed	-0.02394911
41	0xbdfc2def	-0.12313449
42	0x3cc73b42	0.024320249
43	0x3c550009	0.013000497
44	0xbde7ac18	-0.11312121
45	0xbcd0ddf0	-0.025496453
46	0xbd869f43	-0.065733455
47	0x3d81dba9	0.06340725
48	0x3b829938	0.0039855503
49	0xb8764767	-5.871747e-05
50	0xbb8b9a17	-0.0042603123
51	0xbd5d24b8	-0.053990096
52	0xbe0949aa	-0.13407007
53	0x3df0bdb3	0.11754932
54	0x3d09dfe1	0.033660773
55	0x3e123c03	0.14280705
56	0xbe2000f4	-0.15625364
57	0x3ca7efa2	0.020500008
58	0xbe1a5eca	-0.15075222
59	0x3d475259	0.048662517
60	0xbd97c8bf	-0.07411336
61	0xbe193cf4	-0.14964658
62	0x3dc39e61	0.09551693
63	0xbd8c11da	-0.068393424
64	0xbc8b4447	-0.01700033
65	0xbc88b488	-0.016687647
66	0xbddaa88b	-0.10676678
67	0x3c38e038	0.011283927
68	0xbd98fe1a	-0.07470341
69	0xbd049289	-0.03236631
70	0xbdd8e256	-0.10590045
71	0xbde171e4	-0.11008051
72	0x3d6a29f3	0.057168912
73	0xbdc2b733	-0.09507599
74	0xbd062a06	-0.03275492
75	0x3c02e676	0.0079895165
76	0xb9e54426	-0.00043729058
77	0xbd8b34a4	-0.0679715
78	0x3baca229	0.0052683544
79	0xbe13357c	-0.14375871
80	0xbdac434d	-0.08411274
81	0xbdf5c11b	-0.119997226
82	0xbcd5e673	-0.026110863
83	0xbdf89b67	-0.12139016
84	0xbda8ba2c	-0.082386345
85	0xbc8ebe96	-0.017424863
86	0xbdc9b4ca	-0.09848936
87	0xbc60317c	-0.013683673
88	0xbd59b2a6	-0.053148888
89	0x3e76ca0e	0.24100515
90	0xbdba0241	-0.09082461
91	0xbd57f6b1	-0.052725498
92	0xbdebfce6	-0.11522846
93	0x3e117851	0.14206053
94	0x3d4374dc	0.047718868
95	0xbda7de3d	-0.081966855
96	0xbc272f8c	-0.010204207
97	0x3c84450a	0.016146202
98	0xbe3d6ca7	-0.18498479
99	0xbdf9c4d7	-0.12195747
100	0x3cca4651	0.024691733
101	0xbde077b2	-0.1096033
102	0xbccce7a3	-0.025012797
103	0xbd490165	-0.049073596
104	0x3df3771a	0.11887951
105	0x3dbf3a18	0.093372524
106	0x3d37f7fc	0.04491423
107	0xbdba2424	-0.090889245
108	0x3dcc38eb	0.09971794
109	0xbd6ff6a5	-0.058584828
110	0xbceef6ad	-0.029170359
111	0x3cbcc34a	0.02304234
112	0x3d059876	0.0326161
113	0x3d853ad7	0.065053634
114	0xbcbd4dee	-0.023108449
115	0xbdcc7ddf	-0.099849455
116	0xbd8b57ce	-0.06803857
117	0x3c899f5e	0.016799625
118	0x3dd3546e	0.10318838
119	0xbdaed3b2	-0.085364714
120	0xbcf0ad04	-0.029379375
121	0x3dc2e0c0	0.09515524
122	0xbd28d49e	-0.041218393
123	0xbca7639d	-0.020433242
124	0x3cc4db31	0.0240303
125	0xbcf0f341	-0.029412868
126	0xbdbaa2a9	-0.09113056
127	0x3ca7067c	0.020388834
128	0xbc163097	-0.009166858
129	0xbb71f1fe	-0.003691792
130	0x3d4ba570	0.04971832
131	0xbbfb32a3	-0.0076659485
132	0xbd768971	-0.060189668
133	0xbd760d2a	-0.060071148
134	0xbd03e070	-0.032196462
135	0xbe1ae1c5	-0.15125187
136	0x3cfbfb9e	0.030759629
137	0xbe239379	-0.15974225
138	0xbdaa8c51	-0.083275445
139	0x3cb4e309	0.022080915
140	0x3d9a3c5a	0.075310424
141	0x3d9d2fd9	0.07675142
142	0xbbb882f7	-0.0056308466
143	0x3c6f586e	0.014608486
144	0x3d854f7b	0.065093
145	0xbdd49bb5	-0.10381261
146	0x3da69ead	0.08135734
147	0xbd858048	-0.06518608
148	0x3d834ffe	0.06411742
149	0xbbcd5b0c	-0.006266957
150	0xbca63ab8	-0.020291671
151	0x3cd63768	0.026149467
152	0xbd267461	-0.04063833
153	0xbdbdd7b0	-0.09269655
154	0xbd991d13	-0.074762486
155	0xbda40bad	-0.080100395
156	0x3deb325b	0.11484214
157	0xbd0957cb	-0.03353099
158	0xbe862ccc	-0.26206052
159	0xbe03220f	-0.12805961
160	0xbd67aed3	-0.05656321
161	0xbd91c4f9	-0.07117648
162	0x3d4a40c2	0.049378164
163	0xbd747afa	-0.059687592
164	0x3d5ed617	0.05440339
165	0x3e116472	0.14198473
166	0xbd1d6406	-0.038425468
167	0xbe1c8904	-0.15286642
168	0xbb0e6a0f	-0.0021730696
169	0xbd287555	-0.04112752
170	0x3d28073d	0.041022528
171	0xbc8b8981	-0.01703334
172	0xbd9fcc02	-0.07802583
173	0xbb9e408a	-0.004829471
174	0xbdd4ae0a	-0.10384758
175	0x3d3a01a1	0.04541171
176	0xbd27577a	-0.04085491
177	0xbda8f8b9	-0.08250565
178	0xbcc6ba24	-0.02425868
179	0xbe2d3f48	-0.16918671
180	0x3e65d67f	0.22445105
181	0x3dd68120	0.104738474
182	0xbd193043	-0.03739954
183	0x3db476c3	0.088117145
184	0x3de44dfb	0.11147686
185	0xbd57566a	-0.052572645
186	0x3c99b285	0.018761883
187	0x3e3d56d2	0.1849015
188	0x3ddaf9bf	0.106921665
189	0x3cbde646	0.023181092
190	0x3cf2d5ff	0.029643057
191	0xbe3c47ae	-0.18386719
192	0x3e8594bd	0.2609004
193	0x3dd5c5fa	0.10438152
194	0xbca76340	-0.020433068
195	0xbc29a447	-0.010354108
196	0xbe010605	-0.12599953
197	0xba3956dd	-0.00070701336
198	0xbd4c99e7	-0.04995146
199	0x3d2f3eb0	0.042784393
200	0xbd1ab625	-0.037771363
201	0xbdf481b6	-0.11938803
202	0x3ca045a8	0.019564465
203	0x3c5ffc8b	0.013671051
204	0x3def217f	0.11676311
205	0xbdfe978a	-0.124312475
206	0x3d3a6063	0.045502078
207	0x3b2bc6c3	0.0026211
208	0xbc8e462d	-0.017367447
209	0xbd21f172	-0.0395369
210	0xbc12005f	-0.008911221
211	0x3c68ce05	0.014209275
212	0xbdb8c6bd	-0.09022281
213	0xbd36045c	-0.04443775
214	0xbd9bd22b	-0.07608446
215	0x3e05a9bc	0.1305303
216	0xbe3e3b6b	-0.18577354
217	0xbc34d9f1	-0.011038289
218	0xbcbed277	-0.023293717
219	0xbd0eb7d1	-0.03484327
220	0x3db5fe1f	0.088863604
221	0xbdeede98	-0.1166355
222	0xbd0011a1	-0.031266812
223	0x3cedce16	0.029028933
224	0x3df51451	0.11966766
225	0xbd0cfd38	-0.034421176
226	0x3d18787d	0.03722428
227	0xbd737035	-0.05943318
228	0xbd5d8995	-0.054086287
229	0x3c648188	0.013946898
230	0x3d3bbb0a	0.04583267
231	0x3e06f20b	0.1317827
232	0x3dafa82a	0.085769966
233	0xbda609cf	-0.081073396
234	0x3d097432	0.033558078
235	0xbd0edb7e	-0.034877293
236	0xbcdf37cc	-0.027248286
237	0xbde2d897	-0.110764675
238	0xbce6ea37	-0.028187854
239	0x3cfb87a0	0.03070432
240	0x3d4321b6	0.04763957
241	0x3c321960	0.010870308
242	0x3c20593a	0.009786898
243	0xbb2da629	-0.0026496744
244	0xbded7eba	-0.11596437
245	0xbd0af807	-0.033927944
246	0x3da34eef	0.0797404
247	0xbdf5bf13	-0.11999335
248	0xbd3c9ecf	-0.04604989
249	0x3ca7ec25	0.020498345
250	0xbd84dc7e	-0.06487368
251	0xbd03c829	-0.03217331
252	0x3d19d748	0.037558824
253	0xbde3ac4a	-0.11116846
254	0x3e0b74d0	0.13618779
255	0x3d62a3d7	0.05533203
