bn_checkpoint_critic.pth (torch, 443379 bytes, 11 tensors)

fcs1.weight f4 [256, 33]
00000000: 966e 933c cff9 c3be 1748 443e bb11 0f3e
00000010: 4578 2c3e ce77 663d 7d9c e03d 61dd 2d3e
00000020: c800 00bf 2b40 af3e 8de8 71bd 47b9 52be
00000030: 5ca5 463e ea2a aabe 8e6f 2dbf 9760 e63e
00000040: 2798 ba3e a626 86be 1900 213d ce99 f13d
00000050: 901e e83c 4197 fdbd 8c40 19bd 794d 223e
00000060: 8cab 0cbe 2785 643e d18d 9abe e82c 193e
00000070: 6ec6 cb3e 8df7 7e3c ae96 e73d a1a3 03be
00000080: f5d5 7dbf 1fb6 9bbe 8d1d e4be dc72 a1be
00000090: a1ad f53d b5c0 8ebe d966 4ebe 4e95 7fbd
000000a0: f4b5 7f3e 7e66 9a3e bd21 9a3d 0bc7 be3d
000000b0: 1e1a a8bd da88 78be e178 993e 9044 99bd
000000c0: 6c0e 34bf 0a5f 43bc e305 8bbd 403f 9f3e
000000d0: 4343 50bd a6ba ccbc 457a 81bd 8f68 a6bd
000000e0: a2a9 493e 90ce 9cbe d07c 9cbe 1994 873e
000000f0: 65e0 d1bd ba2b ebbe 2009 0b3e 34ea d537
00000100: 1988 88bd 963f 4e3f 17f5 803e 1e81 2c3f
00000110: 7c98 8b3e 8ae3 89be 532d 7fbd aee7 c3be
00000120: 8f72 f93e 45c7 64be 7ee6 92be 09dd 763f
00000130: 5139 d43c 2030 083f 0fbe 99bd 3329 413a
00000140: d527 74be 0b97 06be 2b45 193e a69a 4c3e
00000150: 8d6b b43e a47e c13c 54df 4abd 7a18 a1be
00000160: 7694 24be 9279 c53e 5feb 8f3e 0c2a 5e3e
00000170: e4b8 033e c0ac a33c 92b5 d13e 9eda 79bd
00000180: 036d 18be 9410 013e 934d cb3d e5f9 c13d
00000190: d385 053e b9ae 21be a741 bd3c 7995 a5bd
000001a0: 88d7 e0bd 1590 98bd f00c 773c a3b9 e23c
000001b0: 4cd0 ac3c c6b7 ed3c aa63 feb9 3ab6 2ebd
000001c0: 41a5 f4bd 7e4d a8bd fbcf 463d c385 cc3b
000001d0: 88e1 783d 5f93 1c3e f293 1fbc a287 d23b
000001e0: cc91 04bc 32f2 74bc e136 9d3b dcb3 23bd
000001f0: e25a 3abc 80b4 733e fb93 1e3e 793d c13c
00000200: 593a 933d b390 7e3d 9d71 fcbd 14de 58c0
00000210: 6039 a13e 1c3b 31be 5a34 58bf ee3d 5e3e
00000220: e244 e4be be59 203f 11ff 87be 1b33 d7bd
00000230: d5a2 203f 8e0f 8abe 08d0 69be a996 0ebe
00000240: 644b 6a3e 13c8 923d eaba 0fbf f427 56be
00000250: e7df 263e 381f 0f3d f3ea 3f3e 4345 69bd
00000260: fdbd 0b3d dbba be3d b704 2cbe 1d6d 22bf
00000270: fb08 05be 170f bbb9 c1ea 213e 39ca 59bd
00000280: 60ad bd3d b485 d6bd 3e2f ad3a f0f3 883b
00000290: 3dde e1bd 8b89 d33d 6012 f13e 32bf 8fbe
000002a0: 12be 853d 8e40 9c3e 4a55 a5be def4 02bf
000002b0: bb7a 333e 058a ffbe 24bf 93bd 55eb 68bf
000002c0: 4182 b13e ca44 833e 4851 71be eee5 39be
000002d0: 43c9 4c3e aa77 873e cca8 833e ba6b b93d
000002e0: 2397 b7bd 07d0 a4be 50a1 be3e b83a 8b3c
000002f0: bd97 70be 4638 933d ac6c 803e a53b 863e
00000300: 4cf0 133e 8a90 f8bd 2318 413b 080a a03d
00000310: 533d b23d 6888 6ebf fbaf d7be 39b6 18bd
00000320: f6de b0bc c4c7 af3e 6869 7fbc 1d45 c4bd
00000330: abde 7e3e 6f0b 493d 961d bdbe 61e1 ed3d
00000340: 650f 233d 421d aa3d 3cdd 8dbe 015c ffbb
00000350: 3b91 d43d 17a2 c53e 92d8 73be c3c0 13be
00000360: d05d 1cbc 6565 f4bd 1f90 b3bd 23a5 a83d
00000370: 0367 99bd 15f1 54be eb95 2abe 6448 17be
00000380: d064 d13d 5522 1d3a 7308 cabe e431 8abc
00000390: a516 79bc 184f 9abb fab0 fd3f d269 34bf
000003a0: 863f c33e 45bb eebe 34a6 c4bd 22f5 87bd
000003b0: 2996 de3e 410f 143e 710c bfbb 5815 18bf
000003c0: edbd 583d a4f3 a4bd c9b7 1e3e 87b2 773d
000003d0: c17d 833e f495 08be 0229 a63e d760 ffbc
000003e0: eef4 153e beb2 c7bd f869 55bd c338 f33c
000003f0: 75ef da3c 4adf 373d 5903 503e 2e97 55bd
0.017997067 -0.38276526 0.19168125 0.13971607 0.16842754 0.0562666 0.10967348 0.1697898
-0.5000119 0.34228644 -0.05905967 -0.2057849 0.19399017 -0.33235866 -0.67748344 0.44995567
0.36444208 -0.2620136 0.039306734 0.11796914 0.028334886 -0.12382365 -0.037415072 0.15849866
-0.13737315 0.22316419 -0.30186322 0.14958537 0.39799827 0.01556195 0.11308037 -0.12855388
-0.991546 -0.30412385 -0.44553795 -0.31532943 0.11996008 -0.278814 -0.20156421 -0.062398247
0.24971753 0.3015632 0.07525966 0.09315308 -0.082081065 -0.24270955 0.29975036 -0.074837804
-0.70334506 -0.011924515 -0.06788232 0.31102943 -0.050845396 -0.024991345 -0.06322149 -0.08125412
0.19693616 -0.30626345 -0.30563974 0.26480177 -0.10247878 -0.45931798 0.135777 2.5500638e-05
-0.066665836 0.80565774 0.2518699 0.6738452 0.27264774 -0.2693141 -0.062299084 -0.38262695
0.48720214 -0.2234164 -0.28691477 0.9643102 0.025906237 0.5319843 -0.07506954 0.0007368505
-0.2384332 -0.13143556 0.14967792 0.19980869 0.35238305 0.023619957 -0.04952939 -0.31463987
-0.16072258 0.38569313 0.2810926 0.21695727 0.12863499 0.019979835 0.4095884 -0.060999505
-0.14885335 0.1260398 0.099269055 0.09471492 0.13039331 -0.15789308 0.023102595 -0.0808515
-0.10978609 -0.074493565 0.015078768 0.02767641 0.021095417 0.029018294 -0.0004852091 -0.042654254
-0.11945582 -0.082179055 0.04853819 0.0062415316 0.06076196 0.15290593 -0.009739863 0.00642486
-0.008091401 -0.014950322 0.004797802 -0.03996645 -0.011374207 0.23799324 0.15486138 0.023588883
0.07188863 0.062149715 -0.123263575 -3.3885546 0.31489086 -0.17307705 -0.8445488 0.21703312
-0.44583803 0.62636936 -0.26561788 -0.105077945 0.6274846 -0.26964992 -0.22833264 -0.1392466
0.22880322 0.071670674 -0.56144583 -0.20913678 0.1629635 0.034941882 0.1874197 -0.05695082
0.034116734 0.093129836 -0.16798674 -0.63447744 -0.12991707 -0.00035678662 0.15812208 -0.05317137
0.09261584 -0.104747206 0.0013212932 0.0041794702 -0.11028717 0.103289686 0.47084332 -0.28075558
0.06530394 0.30518 -0.32291633 -0.5115489 0.17527287 -0.49909988 -0.072141916 -0.9098409
0.34669688 0.2563842 -0.23566163 -0.18154117 0.1999865 0.26458484 0.2571472 0.0905375
-0.08964374 -0.32189962 0.37232447 0.016995773 -0.23495384 0.07188468 0.2508291 0.2621738
0.14447135 -0.12136944 0.002946385 0.07814413 0.08703103 -0.9317689 -0.4212645 -0.037283156
-0.021590691 0.34332097 -0.015589096 -0.09583495 0.24889629 0.04908317 -0.36936635 0.11615253
0.039809603 0.08306362 -0.2770785 -0.00779295 0.10379263 0.38600227 -0.23813084 -0.14429002
-0.009543851 -0.11933402 -0.08767723 0.08234622 -0.07490351 -0.2079509 -0.16658752 -0.14773709
0.102243066 0.00059941906 -0.3945957 -0.016869493 -0.015203153 -0.0047091357 1.9819634 -0.7047397
0.38134402 -0.4662725 -0.09602013 -0.06638552 0.43473938 0.14458944 -0.0058303406 -0.5940757
0.052915502 -0.08054283 0.15499796 0.06047299 0.2568188 -0.13338453 0.3245316 -0.031174107
0.14644215 -0.09750889 -0.052103013 0.029690152 0.02672551 0.04489068 0.20313777 -0.05214613

fcs1.bias f4 [256]
00000000: d3f3 9bbd 32b4 a83d b1b4 1b3e e44c be3d
00000010: 3ea2 16bd caeb 0bbe 4f1f 13be 4e40 2bbd
00000020: fed4 60bd 9b2d 07be a6eb 2f3d 8c05 87bd
00000030: 4cd2 4e3d 7d6c bdbd 0328 80bc afce 56bd
00000040: d6fa da3d b385 21be 3d71 8cbd b66a 183d
00000050: a160 48bd 94e7 40bb 8a0d f13d c726 cc3c
00000060: 52d8 af3c a813 503d b0ca bfbd dcaf 8ebd
00000070: ecf5 aa3d 53bc ce3c cd8a e83d 7fef b5bc
00000080: c47b 273e df02 d53d a3e3 47bd d129 b6bd
00000090: 66eb 0e3d d8a5 14be 9b5a a3bd 5e9c 5a3d
000000a0: 14db 783c 61de a13d 8d10 95bd 0438 163e
000000b0: aa82 c4bd 487b b6bd a0be ee3d abb3 09bd
000000c0: a6dd 4b3d fd38 fdbc a850 fcbd 4495 e4bb
000000d0: 49a7 a13d 8147 f03d a3f5 073e 076d c5bb
000000e0: 7132 013e 4575 493d e3d6 d13b 10d2 5b3b
000000f0: 336d 88bc b6ba 4b3d 2673 13bc 9d1f e53d
00000100: 1467 d9bc de55 c6bd bf77 4f3d 94c0 c7bd
00000110: 24bd dc3d e704 123e ce96 e43c eb41 0fbd
00000120: f39b 06bc f70b a73d 8e1d 08be 09ff 3ebd
00000130: 5a5a d9bd bfb4 21be dd6c febd 400d e5bd
00000140: d2ae 073e 3dcd d93d 271d f2bd 17b8 0cbe
00000150: 3daf 1f3e 57b2 283d 0625 a43d b99e df3c
00000160: 9239 85bd c817 c1bd f83e c03d d90d 30be
00000170: 4a4e 14be df9e 563d 460d 3bbd 7594 073d
00000180: 81f9 bd3d 5be4 ccbd b1a6 c8bd 8e82 dbbd
00000190: 82f4 1bbe 166a 40bc a760 173e e325 2ebc
000001a0: 6095 c33d 6037 b1bd 1a2d 8d3c 35ce 05be
000001b0: 84e5 3bbc bf6b 1c3d e67e 98bd 93a8 233e
000001c0: 3091 493d 59dd b13d cf6d 313e a306 973d
000001d0: 42fa 5fbc 6a23 aa3d f37b 2f3e 7fa3 2bbe
000001e0: 5b4c 06bd 744a ad3d 20e4 2cbd 8304 11be
000001f0: e4c9 cebd 4c42 b9bd 2f2a 943d 13f9 e23d
00000200: 3c6c a2bc 20cb 11be c096 ca3c 6f82 473d
00000210: d97e 86bd 1f08 763d 433a 91bd 137a 703d
00000220: 761a ff3d abd6 b13d bb24 87bc 5e33 2b3e
00000230: 65da 7bbc 3d25 1fbe f426 003e 77cb 253e
00000240: 24a0 a23d 8f37 1c3e 56a4 c03d 6c8c 913d
00000250: bd7d ce3d a108 09be b2f0 07bb e43c 98bd
00000260: d5da 433d 32d7 1dbe 4587 283c 5e83 8b3d
00000270: 0352 84bd 58d9 8fbd ba3d e7bd 7b49 453d
00000280: b4a8 15be c300 12bd be67 1e3c 596e 4b3d
00000290: 6cfa 18be 6fc2 0f3d 37e8 8bbd 3150 a6bc
000002a0: 7b0f 02be c706 0cbe 647d c23c d27c f13c
000002b0: 893a 193e 1f89 273e 853a 023e b226 8a3d
000002c0: b51a ed3d 192c 983d 20f7 25be 61b3 013e
000002d0: 0d5d ad3c 04c6 31bd 1bb0 53bd c64a 0e3e
000002e0: d2bd f83d 79fd 83bc 3028 85bd 7eb1 bfbd
000002f0: 997d cd3d 4126 d8bd 843c ecbd 4efa d5bd
00000300: 97ee 4e3d 7fba 083e 053f 0e3d 4ed0 843d
00000310: 8402 10be 3378 01be 6886 d0bd 7721 e4bd
00000320: a924 9fbd d30d d8bd c561 69bd 93b5 dcbd
00000330: 3084 523d 2b5f 963b 232a 103c 2423 973d
00000340: 1079 20be a08e 8bbd 3da1 c3bb 4677 26be
00000350: 576a bd3d 70c4 05be 6118 f13d 1a5d 303e
00000360: 25d5 133d 4470 adbd 77a5 fb3d fda0 e9bd
00000370: c112 073c 039d df3d 6c2b 273e 865e 4f3c
00000380: ee0a 58bc 3cce 77bc 69de 2cbe bac9 fd3c
00000390: 8daa 0dbe b863 7f3c d649 29bd cbbc e23d
000003a0: a2ba 8ebd 305b fd3d f986 29bd 64a2 09bd
000003b0: 3f53 22be cde5 1a3e d06e 763c 5270 20be
000003c0: f9d3 203c 5114 923d 328b 16bd 5f88 113e
000003d0: 4f5a ae3d 2344 b7bc 6739 323e b385 fb3d
000003e0: 6013 afbc 182c 76bc 481d 5b3d 42a0 78bd
000003f0: 5f7f db3d 038f 2bbe 7410 bfbd 4672 a33d
-0.07614865 0.082374945 0.15205647 0.092920095 -0.03677582 -0.13664165 -0.14367412 -0.041809373
-0.054890625 -0.13200991 0.04294934 -0.06592855 0.050493523 -0.09249208 -0.01564408 -0.052443203
0.106923744 -0.15773658 -0.06857536 0.037211142 -0.048920278 -0.0029434906 0.117701605 0.024920834
0.021465454 0.050799996 -0.093648314 -0.06967136 0.08347687 0.025236284 0.11354599 -0.022208927
0.16355807 0.10400938 -0.048801076 -0.088946946 0.034892462 -0.1451639 -0.07976266 0.05337178
0.015188951 0.079037435 -0.072785474 0.14669806 -0.09595235 -0.08910233 0.116574526 -0.03361861
0.049771927 -0.030910963 -0.123200715 -0.0069758017 0.07893235 0.11732388 0.13277297 -0.00602496
0.12616898 0.049184103 0.0064037903 0.0033541955 -0.016653633 0.04973861 -0.0089996215 0.111876704
-0.02653841 -0.096843466 0.05065131 -0.09753528 0.10778263 0.14259683 0.02790394 -0.034974974
-0.008215892 0.08156579 -0.13292524 -0.04662994 -0.10612936 -0.15791605 -0.12423108 -0.11184168
0.13250282 0.10634849 -0.118219666 -0.137421 0.15594192 0.041185703 0.08014874 0.027297365
-0.06505121 -0.09428364 0.0938701 -0.17192782 -0.1448299 0.052397605 -0.045666955 0.033100564
0.09276105 -0.10004493 -0.09797419 -0.10718261 -0.15229991 -0.011744043 0.14782964 -0.01062915
0.095499754 -0.0865314 0.01723342 -0.13066943 -0.011468295 0.038188692 -0.07446079 0.15982275
0.049210727 0.08684797 0.17327045 0.07374313 -0.013670506 0.08307536 0.17137127 -0.16761588
-0.032787662 0.084614664 -0.042209744 -0.14161877 -0.10097101 -0.09045848 0.072346084 0.110826634
-0.019827 -0.14237642 0.024730086 0.048708376 -0.06567163 0.06006634 -0.07091191 0.05871017
0.12456219 0.08683523 -0.016497007 0.16718814 -0.0153718935 -0.15541549 0.1251486 0.16190897
0.07940701 0.15255569 0.094063446 0.071068615 0.100825764 -0.13382198 -0.002074283 -0.07433489
0.047816116 -0.15414122 0.010286157 0.06812166 -0.06460955 -0.07023877 -0.1129107 0.04816578
-0.14615136 -0.035645258 0.009668289 0.049665783 -0.14939278 0.035097536 -0.06831401 -0.02030191
-0.12701218 -0.1367446 0.023741432 0.029478464 0.14963736 0.16360901 0.12717636 0.06745662
0.115773596 0.07430286 -0.16207552 0.12666084 0.021162534 -0.043401733 -0.05168162 0.13895711
0.1214558 -0.016112076 -0.06501806 -0.09360026 0.100337215 -0.10554171 -0.1153498 -0.104481325
0.050520506 0.13352393 0.03472807 0.064850435 -0.1406346 -0.12643509 -0.10181886 -0.111391954
-0.07770664 -0.10549512 -0.056978006 -0.1077682 0.051395595 0.0045889816 0.008799109 0.073797494
-0.15671182 -0.06814313 -0.005970149 -0.16256437 0.09248798 -0.13063216 0.11772228 0.17223015
0.036091942 -0.084686786 0.12287419 -0.11407659 0.008244217 0.109186195 0.16325158 0.0126568135
-0.0131862 -0.015124854 -0.16881718 0.03097998 -0.13834591 0.01558774 -0.04133018 0.11071166
-0.06969191 0.12370908 -0.041388486 -0.033602133 -0.15852068 0.15126725 0.015041068 -0.15667847
0.009816163 0.07132781 -0.03675384 0.14212178 0.08513319 -0.022371357 0.1740471 0.122813605
-0.021371543 -0.015025161 0.05349472 -0.06069971 0.107176535 -0.16753773 -0.0932931 0.0798078

fc2.weight f4 [256, 260]
00000000: 97b4 adbe 2c34 6d3a 5df1 1dbe eacd 84bd
00000010: 74b5 e7bd 0a3c f63c d8a6 7dbd da05 92bd
00000020: 4b99 903e 7a00 933e 48ea 5dbd 791d f53d
00000030: 01f3 513e 99db f83d 7b1b adbe 40b4 013f
00000040: cee3 fabd 989c c33d ed1c e8be a3b8 42bc
00000050: 1dfc 0d3e 87bd 9a3e f4de de3e df85 893d
00000060: dd37 88be 29b8 8b3e ac7c 2dbe 0bd2 f1be
00000070: 13cf 81bc b9f2 87bd a761 b73e 6002 ebbe
00000080: 2f82 5a3d bbb8 473d 730f 42bf eafa 03bf
00000090: 7c5a f4be 9d1c 3fbe 1923 77be 56f2 bcbd
000000a0: 1daa 2ebd 5f02 8f3c ab9f 42be 54f2 723e
000000b0: e40f 803d 2aec 893b a2e8 45be 3fa9 2ebe
000000c0: a204 6e3d 6419 42bf ef9d b13d c5dd cebe
000000d0: 44a2 a9be 5a9c 993d d520 28bd b6e3 d0bd
000000e0: 9dfe 05be 6087 f63e 1189 e03b 6d89 84bd
000000f0: 87a1 87be db8c 97be 6948 acbd 9892 2abd
00000100: 910d 06bf d76b aa3e 76d6 a03e a793 e13e
00000110: 7122 fbbd 2aec 653e d264 693d af88 15be
00000120: a99b 8e3e 1759 a83e d44c 383d c348 203e
00000130: 0536 f2bd 33b1 4ebe 1f24 f7bc 2ca4 6f3e
00000140: 8173 4a3d bc1e 41bf 2816 efbe 643d 91be
00000150: 6ae8 093e 2203 b73d 4596 a3be 1d6f b43b
00000160: b323 7dbe fe7d ae3c fa31 4ebe 9ea8 6e3e
00000170: f3ba 383d 77db 97be fc5e 343d cec2 8c3e
00000180: f3a4 8f3e 1977 bdbe 912f bfbd a230 8d3e
00000190: a0a7 ebbe 039b 3cbc 0bde f5be 0824 4ebe
000001a0: fc4b 85be 3daf 963e ec7e c03e f3bd 363d
000001b0: 0d74 a7be 0525 c2be 0508 c1be e58e 00bf
000001c0: 4c2f 69be a887 093e a0f7 50bf c537 a83e
000001d0: 219e 92bc 3de0 e5be 0a0d be3e 6ea6 b0bc
000001e0: b387 44be 5959 403d 2f3b e6bd 58fa 4cbe
000001f0: b29c d8bd e79a 0abf 89f6 e8be dada 80be
00000200: 5f5b 9fbd 394a 633e 0f43 0fbe ccbb 323e
00000210: e84b 15be 0221 033e 7759 603e f672 d93d
00000220: 07e7 b9bd a9c4 0a3e 85a2 46be 389f d6bd
00000230: cf52 903e 68aa 89bb 3a3d 6bbd 581e 823e
00000240: ba1f 5fbe 25cc 0fbc ccae bc3e 3e1a ebbe
00000250: c8f1 38bd 5fb3 7b3d 8a47 c1be 476b 0e3e
00000260: f95f 0fbe 7454 c1be 4a2b bdbd c663 f1be
00000270: d96e 2cbf dc64 f3bd 0be8 70bf 74b9 e5be
00000280: 93b5 d4be 90c0 53bf d4c5 0dbf f955 8bbc
00000290: f861 c3bc 477c 913e f291 d43d c7c4 debe
000002a0: 3856 1d3e 819f 9fbe c7bc 213e e963 47be
000002b0: 84ff f9be 0549 1ebf b755 2dbe fdb4 99bd
000002c0: 5337 613d 94a6 183d 878a dc3d e63f 393e
000002d0: a896 54be d06e 7fbe ac9b 02be f9cc a5bd
000002e0: 77c4 9fbe 809e 253e 5262 5c3e b3ef c8bd
000002f0: 1650 aabe 47be 53be ee89 b9be 8328 a8bd
00000300: 6364 683e 9f40 bc3d 9f14 cdbd e887 e1be
00000310: 245e 62bf dd48 24bf 8c72 c2be f087 edbe
00000320: 17c0 08bf 4b9f 873e e08a efbd 3cf1 b4be
00000330: 5893 8bbe 946f 61be 4c69 8ebe 3ca6 b2be
00000340: 7e3a 7e3e 80d7 90be 057a d5be e228 31be
00000350: 4907 15bf f6c3 933e 10d5 57bf a182 423e
00000360: e66e c23d bb80 1bbe 112a dc3e ccdb f3bd
00000370: 27ed 333d 6388 a3be 0101 123e b776 c73d
00000380: 5729 2abe c215 9dbe 7776 ee3e 41e6 b7bd
00000390: f023 11be a39a 24bf fb2e 84be dded 45bf
000003a0: 4326 453e 2dae 17be 63f8 53be 07bc 753e
000003b0: e35b dabe baf6 2e3e 090c a7be ec04 91be
000003c0: 0b5a 083e 9928 0ebf edb7 44be 98a6 363f
000003d0: 3c47 163e 8ddc 00bf 9262 9d3c 7729 babe
000003e0: a240 b7be 1534 303e 3c51 7abe d6f6 dabe
000003f0: 5561 573e 7b28 13bd 33d1 92bd abf5 cabe
-0.33926842 0.0009048607 -0.15424104 -0.064845875 -0.11313906 0.030057926 -0.061926693 -0.07130022
0.28241953 0.287113 -0.054178506 0.11968512 0.20502855 0.1215126 -0.33810028 0.50665665
-0.122504815 0.09551352 -0.4533457 -0.011884841 0.13865705 0.30222723 0.43529475 0.06714987
-0.2660512 0.2728894 -0.1694209 -0.47230563 -0.015845811 -0.066380925 0.3581669 -0.4590025
0.05334681 0.048760157 -0.75804824 -0.5155474 -0.47725284 -0.18663259 -0.24134482 -0.092259094
-0.0426427 0.017457185 -0.19006221 0.23725253 0.06253031 0.004209061 -0.19327024 -0.1705675
0.058109887 -0.75819993 0.086727016 -0.40403572 -0.3313161 0.07500525 -0.041046936 -0.101996824
-0.13085409 0.48150158 0.006852277 -0.064715244 -0.26490423 -0.29599652 -0.08412249 -0.04164371
-0.5236445 0.332854 0.3141362 0.44057962 -0.122624286 0.2245337 0.056980915 -0.14602922
0.27853134 0.3288047 0.044995144 0.15652756 -0.1182671 -0.20184784 -0.030168591 0.2340247
0.04942656 -0.7543752 -0.4669659 -0.2836715 0.13467565 0.089361444 -0.31950584 0.00550641
-0.2472065 0.021300312 -0.20136252 0.2330651 0.045100164 -0.29659626 0.044035897 0.27492374
0.28055534 -0.37004927 -0.093352444 0.27576166 -0.46026325 -0.011511567 -0.48020968 -0.20130932
-0.26034534 0.2943057 0.37596834 0.044614743 -0.32705727 -0.3791887 -0.3770143 -0.5021804
-0.22771949 0.13430655 -0.81627846 0.3285505 -0.017897667 -0.44897643 0.37119323 -0.021563735
-0.1919239 0.04696021 -0.11241757 -0.20017374 -0.10576762 -0.5414261 -0.4550059 -0.2516697
-0.077810995 0.22196282 -0.13990425 0.17454451 -0.14579737 0.1280556 0.21909128 0.1061763
-0.09077268 0.13551582 -0.19397934 -0.10479587 0.28188178 -0.004201222 -0.057431437 0.25413775
-0.21789446 -0.008776699 0.3685211 -0.4591846 -0.045152456 0.06145036 -0.37749892 0.1390811
-0.14001454 -0.37759745 -0.09236772 -0.47146434 -0.6735664 -0.11884472 -0.9410407 -0.44868052
-0.4154478 -0.827157 -0.55379987 -0.017008768 -0.023850426 0.2841513 0.10379399 -0.43509504
0.15364921 -0.3117638 0.15794669 -0.19471706 -0.48827755 -0.6183017 -0.16927229 -0.07505224
0.054984402 0.037268236 0.107686095 0.18090782 -0.20760596 -0.24944615 -0.12754697 -0.08095736
-0.31204578 0.16173744 0.21521881 -0.09811344 -0.33264226 -0.20678054 -0.36238045 -0.08210852
0.22694544 0.09192013 -0.10013699 -0.44049 -0.884249 -0.6417368 -0.37978017 -0.46392775
-0.53418106 0.26488718 -0.1169641 -0.35340297 -0.27260852 -0.2201522 -0.2781471 -0.34892452
0.24827 -0.28289413 -0.41694656 -0.17300752 -0.5821424 0.28860444 -0.8430948 0.18995143
0.094938084 -0.15185826 0.43000844 -0.11907157 0.043927338 -0.31939992 0.14258195 0.0973944
-0.16617332 -0.30680662 0.46574757 -0.08979464 -0.14173865 -0.64298457 -0.25817093 -0.77316076
0.19252877 -0.14812537 -0.20700221 0.23997508 -0.4264823 0.17086306 -0.3262637 -0.28324068
0.13315599 -0.555307 -0.19210787 0.7134795 0.14675611 -0.50336534 0.019212041 -0.3635976
-0.35791498 0.17207368 -0.24445051 -0.42766446 0.21033223 -0.035927277 -0.07168808 -0.39640555

fc2.bias f4 [256]
00000000: 4646 41be 35f1 bcbd be09 153d 3181 883e
00000010: f05a fc3e 27c9 a4bd 3c26 cfbe 1619 eabd
00000020: 33b3 ad3e ced3 b5bd 176b debd 79fe 223e
00000030: b298 1dbd 9653 d7be bdc2 8abe 0998 8d3e
00000040: 15b0 cc3e 38c1 9ebd 731d e63e a5ee 503e
00000050: 43b3 5bbd 27f1 843e 8fe2 543e 857d c03e
00000060: d96c debe f307 16be b6c2 813e 402d 7ebd
00000070: 21f5 843e 6fb5 26bd d48f 0abe 3f3e 41bd
00000080: 0372 353e 25c9 6bbe 6f00 a4bb 7a3b abbd
00000090: ebbb 8dbd 9895 07be 2318 19bd da19 40bd
000000a0: debc ccbe af6c abbd 8d70 c4bc 19ce c5bb
000000b0: 55f7 bc3e 2812 edbc 8e2c eb3e b8dc d6bc
000000c0: 9a88 413c 2f83 a1be 0d5c 99bd cb6f 84bd
000000d0: 60e7 88be 2e5c 2d3e 412e cebd 8075 07be
000000e0: 8fba f53e e32a 12be a365 2b3e 6282 433e
000000f0: 2b48 9fbd cfa1 32bf 8e64 56be dca9 b73b
00000100: 426f 6ebe 5a6e 03bf ebea 163f 6c75 e6be
00000110: 74d3 15bf 35b0 3abd 755f 11bf 97d7 85be
00000120: d8ee e7be c4e0 96bd 4513 ac3e 392a 73bc
00000130: 25ac f9be 305c 0e3f 4dbd 87be d7a7 173f
00000140: f353 0fbc a4f4 6abb 41b4 c1bd 2851 5dbe
00000150: 0196 a9be ff5a 48bd 97f0 07bc 906a 23be
00000160: 1301 ccbc ace8 b6bd 2309 023f ab64 a33e
00000170: c04e 3cbf 8556 96bc ae5b 55bd 93c0 09be
00000180: 9bbc 6a3d 2486 133e 7253 9dbc bf3c 2dbd
00000190: 23bb 0abe 62f5 8fbd 38fc 7ebd cc17 ebbe
000001a0: a7c0 bebe fc0b d0bd 097c 1e3f 4428 e5bd
000001b0: 52a6 003f 4fd8 343d 0fe8 bfbe 90ec 10be
000001c0: 09d6 31bd f8ba 513f aa45 09be 321b 253d
000001d0: bfc4 01be c7c6 5b3e c338 33be 2d5b 9fbe
000001e0: 59b6 5abd 5201 02bd 68b1 aabd a4c0 073f
000001f0: a87e acbd 08d8 633f 7df8 81be 44d8 8dbe
00000200: 8bd0 143e a88d 063b 02c5 ecbd 30d5 14be
00000210: a3fe a6bd da58 3e3f 0eb1 15bc c912 aabd
00000220: 9eb4 a6bd 2c4a 22be 5f31 cdbe f23e 33bd
00000230: f6c0 2bbf 0ab3 73bd 061d 3dbd c8de 12bf
00000240: 8a7d 993e e4a7 12bf e94e 90bd c5b0 ffbe
00000250: 65aa 243f 4890 5bbd 91fa a4bd 0ca1 35bf
00000260: 4b9f 28be 7001 2a3f 4ceb 3f3f 6de0 9bbd
00000270: 08d0 d2be 6a9c 72bc 4409 f4be 0d79 013f
00000280: b46a bd3d 2bdd 2abf 5957 0bbe d88b 9a3d
00000290: e5a3 15be 138c 0f3c dd56 fabd 3406 d2bd
000002a0: ebac 80bc 3a96 fa3e 7cb5 7f3e 2ed3 dfbd
000002b0: ea0f dcbe 5efd 2e3e 0ade 40bd 64d2 a2bd
000002c0: 0961 8e3c b353 3dbe 9cc5 193e dd3b 043f
000002d0: 5e8c a5bd 8c66 1fbe 5a9c 9dbd 660e 11bf
000002e0: 5289 8bbc 17ae 11bd f9d2 a2be 5ff4 edbd
000002f0: d2d9 d43b 0164 89bc 3d75 13be 9aee aa3e
00000300: a235 1b3d b73d a7bd fb9f 073f 9094 86bc
00000310: df19 71bd 19da ab3e 349e 913e b424 e8bd
00000320: 020a b1bd 9bd2 b4bd a74c 9abe df72 28bd
00000330: 3819 0ebf 30aa 62be 7840 dcbe 9e90 53be
00000340: 0968 f8bd 4a74 80bd 152c 82bd 5cda abbe
00000350: 3468 69bd aed7 c3bc ac99 c93e dbec 36be
00000360: 3dc2 b7bd 1c56 bdbd 74ca bcbd 7ac6 0f3d
00000370: efd3 c5be 590e 09be 0cce 693e ec93 e33e
00000380: 1e22 8fbe 3db2 58bd 3f9f f9be 0dc9 d83e
00000390: 86b1 dfbd e6ac 68bc be2b 8fbd 2e1a 96be
000003a0: 41d8 34bc 2c38 cfbd c957 6a3d a478 b0bd
000003b0: c0ac bebe 97af 0abd 8013 cebd 0527 013f
000003c0: b2ed 9ebe b4ee 63bd a6b2 96bc c278 95be
000003d0: e48b 10bd dc10 25bf e77e fdbd 4497 3c3f
000003e0: 6bd0 edbe 864f 0bbe 3059 fbbe e094 0fbd
000003f0: f69d de3e e104 1bbe 6c6c 50bb 907b f0be
-0.18874463 -0.09225694 0.036386244 0.26661065 0.4928813 -0.08046179 -0.40458858 -0.11430566
0.3392578 -0.08878289 -0.108602695 0.15917386 -0.0384757 -0.42055959 -0.271017 0.27655056
0.3997809 -0.07751697 0.44944343 0.20403536 -0.053637754 0.25965235 0.2078955 0.37595764
-0.4344242 -0.1465147 0.25343865 -0.062054873 0.2596827 -0.040700372 -0.13531429 -0.047178503
0.17719273 -0.2302595 -0.0050049345 -0.08360954 -0.06920608 -0.13240659 -0.037376534 -0.046899654
-0.39987844 -0.08370339 -0.02397945 -0.0060365316 0.3690745 -0.028939322 0.4593243 -0.026228294
0.0118123535 -0.31545398 -0.074882604 -0.06466635 -0.26739025 0.16929695 -0.10067416 -0.13228416
0.47993895 -0.14274172 0.1673799 0.19092706 -0.07777437 -0.6977815 -0.20936796 0.0056049656
-0.23284629 -0.5134026 0.58952206 -0.4501146 -0.58525777 -0.0455782 -0.5678628 -0.26141044
-0.4529941 -0.073670894 0.3360845 -0.01484161 -0.48764148 0.55609417 -0.26511613 0.5924048
-0.008748042 -0.0035851384 -0.09458209 -0.2161299 -0.33122256 -0.048914906 -0.008297107 -0.15958619
-0.024902856 -0.089310974 0.5079519 0.3191274 -0.7355766 -0.018351803 -0.052089386 -0.13452367
0.057308774 0.1440664 -0.019204829 -0.04229426 -0.1354795 -0.07029225 -0.062252253 -0.45916593
-0.37256357 -0.10158536 0.6190801 -0.11189321 0.50253785 0.0441516 -0.37481734 -0.14152741
-0.04341701 0.81925917 -0.13405481 0.04030914 -0.12672709 0.21462546 -0.17502122 -0.3112425
-0.053396557 -0.03173954 -0.08334619 0.5302832 -0.08422595 0.8900151 -0.25384894 -0.2770406
0.14532678 0.002053121 -0.11561014 -0.1453445 -0.08154037 0.74354327 -0.009136451 -0.08304364
-0.08139919 -0.15848607 -0.4007673 -0.0437612 -0.6709131 -0.059496917 -0.046170257 -0.5737119
0.2997859 -0.5728743 -0.07046301 -0.49939552 0.643225 -0.053604394 -0.08055604 -0.70948863
-0.16467015 0.66408443 0.7496841 -0.07611165 -0.4117434 -0.0148078 -0.4766332 0.50575334
0.09248868 -0.66743726 -0.13607539 0.07546204 -0.14613302 0.008761424 -0.12223599 -0.102550894
-0.015707454 0.4894274 0.24971575 -0.10928951 -0.4298089 0.1708884 -0.047086753 -0.07950285
0.017380254 -0.1848896 0.15016788 0.51653844 -0.080834135 -0.15566462 -0.07695837 -0.56662595
-0.017033253 -0.035566416 -0.31801584 -0.11618876 0.006495693 -0.016771318 -0.14400192 0.33385164
0.037892945 -0.08166068 0.52978486 -0.016428262 -0.058862563 0.33564833 0.28441012 -0.113351256
-0.08644487 -0.08829232 -0.30136606 -0.041125175 -0.5550723 -0.22135234 -0.43017936 -0.20660636
-0.12129218 -0.062721804 -0.06356064 -0.33565032 -0.05698414 -0.023906555 0.39375055 -0.1786379
-0.08972595 -0.0924494 -0.09218302 0.03510139 -0.38638255 -0.1338438 0.22832507 0.44448793
-0.27955717 -0.052904356 -0.48754308 0.4234089 -0.10922532 -0.014201378 -0.06990765 -0.2931685
-0.011037887 -0.10118136 0.057212625 -0.086167604 -0.37241173 -0.03385886 -0.10062313 0.50450164
-0.31040722 -0.055647567 -0.018395733 -0.29193693 -0.03528966 -0.6447885 -0.1237772 0.73668313
-0.46448073 -0.13604555 -0.49091482 -0.035054088 0.4347989 -0.1513858 -0.0031802906 -0.4696927

fc3.weight f4 [128, 256]
00000000: 2fec 02bd 986e abbb 4ec4 62bd baeb d6bc
00000010: 9e77 babd e252 de3c 47f9 9ebb e4a4 20bd
00000020: 31a0 c53c 31c1 4f3d 910f 20bc 9af9 7cbd
00000030: 5ed3 7abc bbcc 003d e48b 213d 8f85 68bd
00000040: 332f f03c 4bd3 a5bc dbfa 033c fd69 033d
00000050: a7b6 e83b 0307 523a 8a93 f2bc f1af 1f3d
00000060: ad2e 633d 63b2 713d 93c9 a93c 4e88 bbbc
00000070: 1e3b c8bb 5037 38bd 0147 e7bc 74ad 0cbb
00000080: bc23 39bc c088 5abd af1a 40bd 2caa 6ebd
00000090: 7a3c 64bd 73db 393d c976 f63c d09a 433d
000000a0: b5da bcbd 805f a93c e089 573c d367 ec3b
000000b0: b578 b1bd 2503 35bb 60f4 f6bc 3161 33bb
000000c0: 9605 9cbd ba3d 4f3c 076e 473d 43f2 a33b
000000d0: 89c2 9a3c fa40 15bd 5489 86bc dc7b 68bd
000000e0: e9fc 1fbd 151e 26bd 3cca f63c 23c9 953c
000000f0: fb0e 393d a284 59bd bef6 39bd 38e3 babc
00000100: 9813 12bd 6e75 a9bd 51ac feba 5917 7a3c
00000110: 34cb e239 94f9 083c 284e 84bd 9abe 75bd
00000120: 8e0e 193c 8d88 74bd 1499 063c 75ef 97bc
00000130: 1ef6 4bbd eaca 2bbc 5166 45bd 0a5b 7f3c
00000140: b035 84bd 1035 823d d7dd 1b3c cf82 ebba
00000150: 8137 07bd 5e76 43bc 2bda ddbc 42ec 2cbd
00000160: 3a7e c0bd 3276 5b3d 4ef4 aebd 70d8 94bc
00000170: 98c0 95bd f99c 75bd 8553 283d 8509 f9bc
00000180: fc5f 7dbd 39fa 5fbd 0fb4 ddbb 5f69 a03c
00000190: 7dfa c13c 4012 5abd 5b7a 80bd e6c9 36bc
000001a0: 60e9 69bb 4f6c b13a e6a4 c7bd 285f 24bd
000001b0: ad0b 8cbd 3023 6f3b be14 613c 6308 5c3c
000001c0: 11c6 1d3d 1006 f8bc d542 a5bd 7392 2e3d
000001d0: cfed e4bc 7754 473c 3333 23bd 391d 90bc
000001e0: 6d62 7d3d b94a 13bd 8032 95ba b802 b53c
000001f0: 9b8e 41bd 0c06 37bd 5d51 d83c 24d3 0e3b
00000200: 85dc 07bd 2357 80bd 5674 5ebd 2911 d0bc
00000210: 69fc 1b3d 2681 ebbc 9261 5cbd 2321 89bb
00000220: 430e 823c b5bc 01bd 4937 febc b5ec ecbc
00000230: faf3 90bd a762 01bc 827d 803c ec53 2bbd
00000240: ea8f 02bd 0cab 86bc 4be5 5d3d f633 813c
00000250: f7da 9ebd 2a68 10bc ff06 663d 6b03 97bd
00000260: a191 84bd 3044 60bb 0149 f4bb 4de0 3b3d
00000270: 228e acbd 5b4c 113b 8eed 4fbd 2895 d2bc
00000280: 35e7 003c aabe 213d d77e 34bd 4b78 4dbd
00000290: a504 4cbd 7340 7abd 7747 e4bc e67a c93c
000002a0: 8a47 94bb 7bdc 68bd c541 58bd 345f 2d3d
000002b0: 348c cdbd 20ca 79bc 2708 38bb b38e fc3c
000002c0: 03e3 133b ccb4 32bd e4e4 90bd 85bd bf3c
000002d0: 1cf5 55bc 6e88 c8bb 4e18 7abd 60c8 a7bd
000002e0: a454 efbc ceee 6a3d 611f 6fbd 56de 423c
000002f0: 0ef6 66bd 7871 403b 2a98 ea3c c1af 40bd
00000300: e8d1 fd3c 1523 36bd 94b2 63bd 80d7 dabd
00000310: 562d a73c b432 8dbd 09e7 62bd 0b18 9b3b
00000320: 5091 9d3c 23e0 be3c 71b7 c23c d01c a3bc
00000330: b7c9 b3bd 5ada 603c dbf1 38bd ad23 ed3c
00000340: 4e3b d4bc 18c4 38bd 06df 973c 87d8 9ebd
00000350: 121b c7bc f469 82bd 233d 9b3c 6c69 e0bc
00000360: ec75 433d 87cc d2bd efa7 8ebc ceab 46bd
00000370: 23dc ae3c 0a35 81bd 241e 67bd d8c5 d63c
00000380: 4133 8dbc 4bae 73bd 450f 1dbd efb7 33bd
00000390: 1275 f4bc dc99 4abd 28d9 c83b 7dc9 a03d
000003a0: 364c 623d 7392 5dbd 6074 073d 87a2 abbc
000003b0: 4892 ab3b 5d6b 893c a068 933c 4f1c 32bd
000003c0: 50e4 b4bd 790c 63bd 7117 923c 5a84 37bd
000003d0: 032b 1b3d 3287 60bd 5097 f13c 1b73 06bd
000003e0: b4ce 07bd 1e20 cfbc 5daf b9bc a15f 2cbd
000003f0: 8f99 96bd ae6d d43a fb8c a8bb 97d5 4f3c
-0.031963523 -0.0052316897 -0.055362992 -0.02623545 -0.091048464 0.027139131 -0.0048514935 -0.039219752
0.024124237 0.05072135 -0.009769336 -0.061761476 -0.015309183 0.031445246 0.03944005 -0.056767996
0.029319381 -0.020242354 0.008055414 0.0320835 0.007101852 0.0008011909 -0.029611368 0.03898615
0.055464435 0.059008013 0.020726 -0.022892144 -0.006110563 -0.044974625 -0.0282321 -0.002146569
-0.011300024 -0.05335307 -0.046900447 -0.058267757 -0.055721737 0.0453753 0.030085938 0.047755063
-0.092214026 0.02067542 0.013155431 0.0072145252 -0.08665601 -0.0027620282 -0.030145824 -0.0027371163
-0.07618253 0.012648994 0.048688915 0.005003245 0.01889159 -0.03643892 -0.016422905 -0.056758747
-0.039059553 -0.040556032 0.03012573 0.018284386 0.045180302 -0.053105004 -0.045401327 -0.022813424
-0.035663217 -0.08274351 -0.0019430016 0.015264356 0.00043257477 0.008360285 -0.064602196 -0.059996225
0.009341849 -0.059700537 0.008215208 -0.0185468 -0.049795263 -0.01048539 -0.04819328 0.01558567
-0.064555526 0.06357777 0.00951334 -0.0017968061 -0.033011917 -0.011930076 -0.02708157 -0.0422175
-0.09399076 0.053579517 -0.08542691 -0.018169612 -0.07312125 -0.059964154 0.041095275 -0.030400047
-0.061859116 -0.05468199 -0.0067658494 0.019581495 0.023679012 -0.05324006 -0.062733375 -0.011156535
-0.003569208 0.0013536307 -0.09748249 -0.04012981 -0.068381645 0.003648948 0.0137378555 0.013429734
0.03851897 -0.030276328 -0.08069388 0.042620134 -0.027945427 0.012166134 -0.03984375 -0.01759206
0.061861444 -0.035959933 -0.0011382848 0.022096023 -0.04725514 -0.0446835 0.026405985 0.002179333
-0.03316929 -0.0626662 -0.054310165 -0.025398808 0.038082514 -0.028748106 -0.053803988 -0.0041848584
0.015875941 -0.031674106 -0.031032221 -0.028921464 -0.07077785 -0.007897056 0.015684847 -0.04182808
-0.03187553 -0.016438983 0.05417375 0.015771847 -0.07756608 -0.008813897 0.056159016 -0.07373699
-0.06473089 -0.003422033 -0.007454992 0.045868207 -0.08425547 0.0022170756 -0.05076366 -0.025705889
0.007867624 0.039488472 -0.044066276 -0.05016355 -0.049809117 -0.06109662 -0.027866108 0.024594735
-0.0045251297 -0.05685089 -0.052797098 0.04232712 -0.10036507 -0.015245944 -0.002808103 0.030829763
0.002256573 -0.043629453 -0.070749074 0.0234058 -0.013058927 -0.0061197793 -0.061058335 -0.081925154
-0.029215164 0.05735665 -0.058379535 0.011893829 -0.056387 0.0029364508 0.02863701 -0.047042612
0.03098388 -0.04446705 -0.055590227 -0.106856346 0.02040736 -0.068944365 -0.055396114 0.0047330908
0.01923433 0.023300236 0.023769112 -0.0199112 -0.087787084 0.013723934 -0.045152526 0.028947676
-0.025907185 -0.045108885 0.018538963 -0.07756143 -0.0243049 -0.06367865 0.01895005 -0.027394019
0.04771988 -0.10292917 -0.017414061 -0.04850369 0.021345204 -0.063089445 -0.05642523 0.026217386
-0.017236354 -0.05949239 -0.03834464 -0.043876585 -0.02984098 -0.049463138 0.0061294027 0.07850931
0.05524846 -0.054094743 0.03306997 -0.020951523 0.005235944 0.016774828 0.017994225 -0.04348403
-0.0883261 -0.055431817 0.017833443 -0.044803955 0.037882816 -0.054816432 0.029491097 -0.032824617
-0.03315611 -0.02528387 -0.022666628 -0.042083386 -0.07353508 0.0016207004 -0.0051437593 0.012685201

fc3.bias f4 [128]
00000000: 5478 69be fb9d f8bd 46a5 65be 8028 88be
00000010: c1e6 16be d7e6 88be 01d0 18be b23c 30be
00000020: 761b e6bd d103 f6bd 2c46 18be 8f40 00be
00000030: 08fc 993d e88c ddbd 17af 083f 83e3 6dbe
00000040: 4576 813f 5fe3 b9bd 75e3 18be bad3 08be
00000050: a88c 29be ae34 0cbe 1511 6bbe abed 08be
00000060: f822 e3bd 9599 d8bd a915 53be 0512 2f3f
00000070: 3fec e5bd 074d b9bd 8116 1abe 9679 5ebe
00000080: e9fd 50be 0c58 36be a12f 21bd 1dce 8bbd
00000090: 9daf 56bd 44a8 c8bd b185 23be 5778 4e3f
000000a0: 67be 17be cd4f be3f 8db2 c73c 222e 51be
000000b0: 4734 fbbd 2399 19be c298 89be f651 e03a
000000c0: 3561 18be d922 21be b77e 34be 5d4b 89be
000000d0: 9c5f 90bc 7814 3fbe 028d 14be ffeb 59be
000000e0: e769 ffbd badf 58be 7519 0dbe d85c 4fbf
000000f0: cb9b b7be efd3 5cbe 706f c63f 14a7 adbd
00000100: 305d 1cbe 934e 1dbe 5a25 19be c0e7 56be
00000110: e543 3ebe e15c 11be 37fe b6bd 0350 12be
00000120: 6451 603f c5e8 0abe e7b0 2cbe d256 03be
00000130: 3b53 23be 1cb5 99bd 2b5d 28be 5fea 12be
00000140: da2c 4bbe ba67 38be 0054 5fbe 3eb9 debd
00000150: fd0b 29be ae28 3b3f 0850 1abe f0de 42be
00000160: ec1f 19be 6362 29be e450 1dbe d992 1fbe
00000170: 50eb a4be 999c 723f b3ad 79be a4d9 20be
00000180: 6b59 c4bd 0cae 20bf b4ba 31be bccc edbe
00000190: 3f90 36be 3273 e6bd 28e1 22be eb04 20be
000001a0: e6e7 14be ca47 87be 20bc 22be b742 1dbe
000001b0: db2b 3bbe e4ce 19be 51d0 55be 810c e9bd
000001c0: a509 3dbe 21d2 24be be46 92be a272 38be
000001d0: 38dd 21be 461f 93bd bd23 71be 2a26 41be
000001e0: 16e2 2ebe 7b0a 873d 768c 4fbe 4e79 38be
000001f0: 18be 01be f288 a6be 3de5 dabd 684f 61be
-0.22799808 -0.121395074 -0.22426328 -0.265934 -0.14736463 -0.26738617 -0.14923097 -0.17210653
-0.112357065 -0.12012447 -0.14870518 -0.12524627 0.07518774 -0.10817891 0.53392166 -0.2323132
1.0114218 -0.09076571 -0.14930518 -0.13362017 -0.16557562 -0.1369197 -0.22955735 -0.13371913
-0.11090654 -0.105761684 -0.20613731 0.6838687 -0.11226701 -0.09047895 -0.15047647 -0.21726069
-0.20409359 -0.17807025 -0.039352063 -0.06826422 -0.05241357 -0.09797719 -0.15968968 0.80652374
-0.14818726 1.4868103 0.024377132 -0.20427755 -0.122658305 -0.14999823 -0.26874357 0.001711427
-0.14880832 -0.1573595 -0.17626463 -0.2681531 -0.017623715 -0.18660152 -0.14506915 -0.21281432
-0.12471371 -0.21179095 -0.13779242 -0.81001043 -0.35861048 -0.21565221 1.5502758 -0.08479133
-0.15269923 -0.15362005 -0.14955655 -0.20986843 -0.18580587 -0.14195587 -0.089352064 -0.14288335
0.8762419 -0.13565357 -0.16864358 -0.12826088 -0.15949719 -0.07505247 -0.16441791 -0.14347218
-0.19841328 -0.18008319 -0.21809387 -0.10875176 -0.1650848 0.7310895 -0.15069592 -0.19030356
-0.14953583 -0.16541438 -0.15362889 -0.15583362 -0.3221078 0.947702 -0.24382667 -0.15708023
-0.095873676 -0.62765574 -0.17356378 -0.46445262 -0.17828463 -0.112524405 -0.15906203 -0.15626876
-0.14541587 -0.26421958 -0.15892076 -0.15357481 -0.18278448 -0.15020329 -0.20880248 -0.11379338
-0.1846071 -0.16095783 -0.28569597 -0.18012479 -0.15807045 -0.07183699 -0.2354879 -0.18862215
-0.17078432 0.06593796 -0.20268425 -0.18015024 -0.12670171 -0.32526356 -0.10688255 -0.22002947

fc4.weight f4 [1, 128]
00000000: c674 653b 9892 55bc 7f3b 7dbd 90f5 2cbd
00000010: 6cd6 c53b 9f5a fc3c cdca 8cbc 92af 81bc
00000020: c293 8c3c 956b 43bc abe3 8cbc a910 52bd
00000030: b9f3 363d eaa4 ef3c 345d 333d 4641 1ebc
00000040: fa32 993d 90c1 193d 7165 883c 29c7 b03c
00000050: 4108 e4bb 4d2a 7bb9 fe61 c0bb 8bc4 733c
00000060: 2dba 183c 520a babc 0024 c8bc 2610 993d
00000070: 3d09 c6bd d73d a83a 5d23 8d3c 8369 163b
00000080: 6cb4 cdb7 f790 82bc 44fd 053d 2519 593d
00000090: f70a 6c3c 19dd f0bc b5df 363c 9baa 7c3d
000000a0: 77a0 733d 5fa0 613e 4ab2 bc3c c35d 1e3c
000000b0: 6117 d8bb 626c aa3c 194b 3fbd 9c04 56bd
000000c0: 92e9 a5bc 990c 12bc 5232 2f3c a0f3 22bd
000000d0: ef2d d5bd 7997 d13c adc9 80bb 67fb 043d
000000e0: 1fcd 8c3b 769d 933c d0f9 d83b 555e b8bd
000000f0: 8fb2 23bd e834 67b8 8bb4 743e aa21 d1bc
00000100: e5fd e83b db12 0b3c 914a 01bb 50cd 993d
00000110: cf02 76bc 93c9 803c 1c68 b03c 66f3 95bc
00000120: bf38 4e3d d018 68bc 8c7d 14bc 6e68 ba3c
00000130: f4fe 433c 7fd2 0d3b ce0d c9bc ced4 19bc
00000140: 00fc 9eba d9a7 993d 3eb7 833c 8aa4 ea3b
00000150: ef82 b13c 3237 603d 828c acba 9942 ecbb
00000160: 42ae 6c3b 35cf 163c dab6 b339 20f4 b9ba
00000170: f939 9cbd c976 6e3d b12b dabc ced2 ea3b
00000180: 55f8 e4bb 28fa bcbd b565 18bc a95b 25bd
00000190: 4dc6 703c 48e3 bdba 57a5 c23c 7c64 58bd
000001a0: a61e a1bc 9442 11bd 237a 96bb 0042 423c
000001b0: e570 fd3b b4cf 2a3b 295a 83bb d704 77bc
000001c0: aa5e 58bc e039 c93b 0687 2bbc f87e 973b
000001d0: 7f5c 153c 9417 a0bd f2c3 03bd 0d04 debc
000001e0: 9eee bbbb b880 7ebd acdd ddbc b0d1 c13d
000001f0: b614 9dbc dda4 4bbd 5322 403d 48bd 223c
0.003501223 -0.013035439 -0.061824318 -0.042226374 0.006037524 0.03080493 -0.017186547 -0.015830789
0.0171603 -0.011927505 -0.017198404 -0.05128542 0.044666026 0.029253442 0.043790057 -0.009659117
0.07480426 0.03753811 0.016649934 0.021579342 -0.0069589918 -0.00023952984 -0.0058710566 0.014878402
0.0093217315 -0.02271 -0.024431229 0.07473783 -0.09669731 0.0012835813 0.017228777 0.0022951073
-2.452192e-05 -0.015938265 0.032712236 0.053002495 0.014406911 -0.029402303 0.011161734 0.06168614
0.059479203 0.22033833 0.023034234 0.009665909 -0.006594584 0.020803634 -0.046702478 -0.05225049
-0.020252977 -0.008914136 0.01069315 -0.03978312 -0.10409152 0.025584923 -0.0039302916 0.03246632
0.0042969133 0.01801942 0.006621577 -0.090023674 -0.03996521 -5.5123965e-05 0.23896997 -0.025528748
0.0071103447 0.008488382 -0.0019728283 0.075098634 -0.015015318 0.015721118 0.021534018 -0.018304538
0.050347086 -0.014166072 -0.009063136 0.022754874 0.011962641 0.0021640358 -0.024542715 -0.0093891155
-0.0012129545 0.075027175 0.016078588 0.007160728 0.02166888 0.05474014 -0.0013164433 -0.0072100875
0.0036114608 0.009204675 0.00034277776 -0.0014187135 -0.07628245 0.05821875 -0.026632162 0.007166243
-0.0069876113 -0.09227401 -0.009301593 -0.040370617 0.014695716 -0.0014487291 0.02376048 -0.052830204
-0.019667935 -0.035463884 -0.0045921966 0.011856556 0.0077344053 0.0026063742 -0.0040085507 -0.0150768375
-0.013206163 0.0061409324 -0.010469204 0.00462329 0.009116291 -0.07816997 -0.03216929 -0.027101541
-0.0057352325 -0.062134475 -0.02708324 0.09463823 -0.019174915 -0.049717773 0.046907734 0.0099328235

bn1.weight f4 [256]
00000000: 28c1 583f 8aaf 403f 0382 293f f0cc d63f
00000010: 2c72 113f b805 df3e 20f6 393f f0b6 953f
00000020: 748f 5f3f fb9c 2b3f 7210 703f da27 003f
00000030: a700 243f 376a 253f 65dc 213f 37ee 213f
00000040: 3201 b83e f909 b33f a662 293f 34e2 193f
00000050: 6b26 ec3e adea 113f 29ee 013f 6e8f 083f
00000060: 9816 5a3f 0b42 0d3f b3d7 da3e 0ec2 853f
00000070: 212c 753f 6192 4c3f 9235 063f 45b1 a83e
00000080: 46cd 003f 90bb d23e fe91 323f 395e ea3e
00000090: 87a4 7b3f ed9a 0f3f 6df4 173f 007a 083f
000000a0: 1387 5e3f a68f e73e be68 1f3f f797 a23f
000000b0: 350e 3b3f 45f5 2f3f 648d 323f 3e55 1e3f
000000c0: d758 193f dbd1 113f 513f 093f 6949 253f
000000d0: 7711 2c3f 2cdd 0a3f 5212 d53f 60b1 4f3f
000000e0: a3e6 3a3f 422b 5c3f aab0 ba3e 4a9d 853f
000000f0: eeb5 0d3f a165 0a3f 9f61 0d3f e522 083f
00000100: d174 803f 7501 953f 7505 cf3e d766 d23e
00000110: bc66 3f3f f15c ab3f 74d1 343f c7c3 2e3f
00000120: aa67 f43f 2a3c 1e3f 5683 053f b218 1c3f
00000130: 209e 1e3f 02e3 583f a794 563f 3da5 283f
00000140: f1a4 2a3f cd30 313f a03e 293f dc9f eb3e
00000150: 7a7a 423f 17c5 9b3e 5d4d 543f f1f0 2f3f
00000160: 502e f93e 225e 3e3f 88a5 3f3f 86ba bc3e
00000170: f22a 3b3f 9c24 3e3f b78d 303f 4cff b23f
00000180: 613a 0b3f 9bee 1d3f 9b0c 043f 7841 573f
00000190: 1135 d53e fd22 103f 5638 5f3f dfb7 1b3f
000001a0: 512b 013f c8da ef3e 2761 ed3e bd8b 113f
000001b0: acc2 1a3f 8013 2c3f e792 873e f92e 003f
000001c0: 03b7 733f f0f5 383f 32ae 463f d5af 1b3f
000001d0: baeb d53e cb38 9b3f 0662 663f edf3 003f
000001e0: f283 0c3f f030 093f 35f5 0a3f 0e84 cb3e
000001f0: cfc7 d53e a635 023f 0b00 ef3e 3ee0 163f
00000200: 3828 093f 40f0 213f 7cd5 333f 1f5b 043f
00000210: 78d7 f63e 1a69 293f 7d94 973f 2bbf c63f
00000220: 795e 353f 3cf0 133f f798 273f 95b5 2b3f
00000230: f3e0 4f3f e403 9b3f f6fa 373f 6126 2d3f
00000240: 56ec f63e 2c6f ec3e aad4 1c3f d253 fa3e
00000250: 6ead cc3e 20d9 5f3f 11ee c03e 87f5 173f
00000260: 6212 ec3e 367f 5f3f 7f7b 103f c632 223f
00000270: 1318 1c3f 0c87 3d3f 09fd c73e 9de3 563f
00000280: 3e24 553f e6ce 283f 9e81 0c3f f45d f03e
00000290: 5b62 4f3f 2a9b 273f 7f5d 283f a742 5f3f
000002a0: 1c5c cf3e a3ac 303f 3be3 073f 1c16 f33e
000002b0: 199d 3f3f bbec 573f cc08 7a3f ad8b 483f
000002c0: 140a 343f de9a 423f a0ac 233f 4c39 e53e
000002d0: 0825 053f 2ade 333f d832 063f 0b04 2b3f
000002e0: 65b0 473f 0ca7 0e3f 1fce fa3e 706e 063f
000002f0: 919c f23e 99c5 3f3f f1d9 2f3f 6b33 f23e
00000300: dab0 393f a7de 1e3f 6e5b 0f3f ce79 b03e
00000310: 203c 313f 278a 4a3f 316f 213f 2fc5 fa3e
00000320: e161 5d3f f698 293f 6cdc 383f ae42 153f
00000330: 0cdc 773f 2f38 db3e 2629 1a3f 0050 ff3e
00000340: 575e 203f aca3 3c3f be6b 093f 24cb 313f
00000350: 2e6b cf3e 7e70 f33e e3bb 333f c662 4f3f
00000360: 02d5 403f deeb 3b3f 93b6 383f d19c 343f
00000370: e909 173f 13a9 143f 7a82 003f ceaa 563f
00000380: 9538 ff3e d0a2 be3e a150 213f b5ef 013f
00000390: 8923 2f3f 2153 023f 18ea 0f3f 1066 0f3f
000003a0: 3548 173f 1042 133f fdeb 493f fc6e f93e
000003b0: 4e6d 0c3f 4d45 e73e 4c69 d23e 81ad b13f
000003c0: c58e 1d3f 3ada 1a3f a44e f23e 947b 023f
000003d0: 4daa 0c3f 9dca 513f 6e56 0f3f 7230 143f
000003e0: 19d6 103f b713 353f af9c 323f e90e 683f
000003f0: 0baa 1d3f a47f 243f c02c ff3e c710 3b3f
0.84669733 0.7526785 0.6621401 1.6781292 0.5681484 0.4355905 0.7264118 1.1696453
0.8732827 0.6703641 0.93775094 0.5006081 0.64063495 0.64615196 0.6322692 0.6325411
0.35938412 1.3987418 0.6616615 0.60110784 0.4612306 0.5699871 0.5075403 0.53343856
0.85190725 0.551789 0.4274269 1.0449846 0.9577046 0.79910856 0.5242549 0.32947746
0.5031322 0.41158724 0.69754016 0.4577501 0.98297924 0.56095773 0.5935734 0.5331116
0.86924857 0.45226783 0.622692 1.2702626 0.73068553 0.68733627 0.69746995 0.6184882
0.59901184 0.5696084 0.5361224 0.6456514 0.6721415 0.5424373 1.6646216 0.8113003
0.73008174 0.86003506 0.3646291 1.0438626 0.5535573 0.54061323 0.5522708 0.53178245
1.003565 1.164107 0.4043385 0.41094086 0.74766135 1.3387738 0.706321 0.6826748
1.9094136 0.61810553 0.5215353 0.6097518 0.6196003 0.84721386 0.83820575 0.65877134
0.6665793 0.6921509 0.66111183 0.460204 0.75968134 0.30423805 0.82930547 0.6872702
0.48668146 0.74362385 0.74861956 0.36861056 0.73112404 0.7427461 0.6896624 1.398416
0.54385954 0.6169221 0.51581734 0.8408427 0.4164205 0.5630339 0.87195337 0.6082744
0.5045672 0.46846604 0.46363184 0.5685385 0.60453296 0.67217255 0.26479265 0.50071675
0.9520113 0.7225027 0.7760955 0.60815173 0.41781408 1.2126707 0.8999332 0.503722
0.5488883 0.535903 0.54280406 0.39749187 0.41754004 0.5086311 0.4667972 0.58935916
0.53576994 0.6325722 0.70247626 0.5170154 0.48211265 0.66176 1.184219 1.552709
0.7084728 0.57788444 0.6546778 0.6707395 0.8120262 1.2110562 0.7186731 0.67636687
0.48227185 0.46178567 0.61262 0.48892075 0.39976066 0.8744068 0.3768163 0.5935902
0.46107775 0.87303483 0.5643844 0.63358724 0.60974234 0.7403419 0.39060238 0.8394106
0.83258426 0.659407 0.5488528 0.4694668 0.81009454 0.65471137 0.65767664 0.8721108
0.4049996 0.6901342 0.530811 0.47477806 0.74849087 0.843456 0.9766967 0.7833813
0.7032788 0.7601756 0.6393528 0.44770277 0.5200963 0.7026087 0.5242133 0.66803044
0.7800353 0.55723643 0.48985383 0.52512264 0.47385076 0.74910885 0.6869193 0.47304854
0.7253548 0.6205849 0.55998886 0.3446793 0.6923237 0.79117054 0.6306029 0.48978564
0.86477476 0.66249025 0.7221134 0.5830487 0.9682014 0.42816302 0.6021904 0.49865723
0.6264395 0.73687243 0.53680027 0.69450593 0.4051146 0.47546762 0.7020857 0.8101009
0.75325024 0.7340678 0.72153586 0.7055178 0.58999497 0.58070487 0.5019909 0.8385438
0.49847856 0.3723359 0.63013655 0.5075639 0.684136 0.50908095 0.56216574 0.5601511
0.59094554 0.5752268 0.78875715 0.48717487 0.54854286 0.4517006 0.4109596 1.3881074
0.61545974 0.6048924 0.47325623 0.50969815 0.5494736 0.8194979 0.55991256 0.5788642
0.5657669 0.7073321 0.6977033 0.9064775 0.6158759 0.64257264 0.4983883 0.73072475

bn1.bias f4 [256]
00000000: 8d3a ebbe f504 883e 3cce 60bf ad7a aebe
00000010: c601 07bf e82d 37bf 3754 02bf 288e 2cbe
00000020: bcde 0cbf ebca 41bf 195e 81be 54e6 19be
00000030: c54d 4cbf eb8a f3be 6e42 80be 227d 18bf
00000040: f6ab b5be fb80 abbe 1daa 1dbf ab57 d3be
00000050: 964b 8cbe fa9e ffbe 7fc1 b4be ff55 4b3d
00000060: 752a d2be 3725 69be 6421 e6be 2ec7 22bd
00000070: b892 70be 54f3 94be b8ce dfbe d455 16be
00000080: 6769 febe f88e c9be f9f5 9ebe 2778 2ebf
00000090: 74f8 02be 4b84 e9be 1762 29bf b19f 1fbf
000000a0: a728 39bf 1fc5 8fbe d0ed 3cbf 780f 79be
000000b0: 4498 653e f3de 01bf 0708 2cbf 3de0 e6be
000000c0: 931d 4abf 5e4f 3abf 89e1 f5be 128f 3fbf
000000d0: 5d48 36be 07e1 06bf efb4 11bf 822e 233e
000000e0: cfc1 78be 0898 9ebe a665 93be 4e9f 8fbe
000000f0: 6872 88bd 94c9 02bf 6740 06bf f7dd 24bf
00000100: 1e45 c1bd f989 59be 2494 fbbe 2216 2ebf
00000110: 094e 893d 28bb 1dbe eac6 54bf 25d4 a6be
00000120: 7f3b a9be 9a82 03be 5965 c7be 9177 fbbe
00000130: 97fe 50bf d96b ed3c af85 7cbe be17 18bf
00000140: cda2 e3be a8e3 07bf 013e 1ebf 1060 2dbf
00000150: f4bd 92be c8a6 5fbe 5b08 b5be 95de c83c
00000160: 9f81 37bf 152b adbe 92ee d33d 211f 45bf
00000170: 20c3 b5be edb1 e8bd ec92 7ebd ea3c aabe
00000180: 9b8b c3be d077 24bf b3ac 6dbf 2f94 d8be
00000190: e82a 29bf d88b cabe a4e7 d63d e263 31bf
000001a0: 3c34 25bf b346 1fbf b9a6 d8be 38c2 14bf
000001b0: 7806 17bf 2c2e 12bf ba25 f2bd a64d cdbe
000001c0: c232 ddbe 3c81 783d 40cf c6be 87a7 21bf
000001d0: aa83 2cbf 0722 0bbe 034f e0be bf4b 42bf
000001e0: d4df aabe b720 0fbf c87a 19bf 5bf1 26bf
000001f0: 1600 a8be 7e67 1fbf fe47 e3be db9e 15bf
00000200: a533 0bbf 24a5 bfbe f4af 2a3c 5da8 9cbe
00000210: 7dd1 37bf 7335 0cbf ba68 10bd cdd9 97be
00000220: d324 88bf 076f 05bf 28f7 55be 161d 63be
00000230: 1983 0fbf d818 c6be 46e0 b7be 59e5 6ebd
00000240: 3e65 dc3c 66da 2ebf 0366 30bf 7e66 f2be
00000250: a32d b4be 5105 45be 50dc ffbe 9fe8 47be
00000260: 3468 4fbe 8275 f9be 984f 41be a74a 57be
00000270: 2654 e4be d8d6 71bd f07a 45bf 274d 0abf
00000280: c9b8 09bf 3616 a3bd f4bd 2cbf 84c7 1fbf
00000290: e70a 5abd 4c1a d1be 10bf a7be e62c a4be
000002a0: 9076 61bf 2fd7 43bf 6444 febe 37d2 3dbf
000002b0: c4bb 1bbf 8969 dc3d 4752 d7be 1ed7 9ebe
000002c0: 7571 afbe 63aa 1abe 5dee 42bf 4bd6 39bf
000002d0: 3fbd d6be 78c1 45bf d1e1 f7be bd73 45bd
000002e0: 07fb 3ebf a9d2 e8be 3d52 0cbf 313a bbbe
000002f0: bdfb 22bf a852 88bc 2c57 27bf 0c80 04bf
00000300: 3ba4 31bf 3190 4cbe 1844 06bf 7451 30bf
00000310: ebd9 9cbe 6d74 99be 189e d4be e199 90be
00000320: 3ed0 77be 34d1 69be f3a8 8bbe 5e64 24bf
00000330: b649 18bf 9fdd 73bd 389f 82be 4f4f 35bf
00000340: 3975 63bf 82a1 2bbe ed93 87be b3b8 59bf
00000350: 44e3 17bf 8c40 0abf f089 9fbe 44a6 96be
00000360: d610 2fbf 4f3d 45bf 0cc7 09bf 94f7 a63e
00000370: d5bd 22bf 0d96 afbe ec9f fabe 85c2 a73d
00000380: a9e9 02be a870 93be 7031 03bf fa73 10bf
00000390: 0612 12bf 1ba2 5f3d 7a55 52bf 0745 01bf
000003a0: 5aac 2ebf f099 bcbe f9ad b63e 2252 2cbf
000003b0: f8d5 64bf d5b5 17bf 5d58 14be 37f6 35be
000003c0: b00f 4fbf 68e2 e0be f1e2 0dbe c6cd 89be
000003d0: c4fe 5cbf 3ea9 bbbd 3116 f3be 0e9d febe
000003e0: 5e8d 05bf 2cbf 1abf 451d 05bf c827 f9be
000003f0: 12c2 49bf 4f53 01bf dec3 ebbd 14d1 febe
-0.45943108 0.26566282 -0.8781469 -0.3407797 -0.5273708 -0.7155442 -0.5090975 -0.16851103
-0.55027366 -0.75700253 -0.25267103 -0.1502927 -0.79806167 -0.47566923 -0.25050682 -0.5956594
-0.35482758 -0.33496842 -0.615877 -0.41277823 -0.27401417 -0.49925977 -0.35303876 0.04964256
-0.41048017 -0.22768103 -0.4494735 -0.039740734 -0.23493469 -0.29091895 -0.437124 -0.14681178
-0.4968979 -0.3936689 -0.31047037 -0.6815209 -0.1279009 -0.45608744 -0.661653 -0.62353045
-0.72327656 -0.2808008 -0.73800373 -0.24322307 0.22421366 -0.5073082 -0.6719975 -0.45092955
-0.78951377 -0.72777355 -0.48023632 -0.7482768 -0.17801042 -0.52687114 -0.5691671 0.1593571
-0.24292682 -0.30975366 -0.2878849 -0.28051227 -0.06662446 -0.51088834 -0.5244202 -0.6440119
-0.09437011 -0.21244039 -0.4913646 -0.6800252 0.06704337 -0.15403426 -0.8311602 -0.32583728
-0.33053204 -0.1284279 -0.3894451 -0.4911466 -0.81638473 0.02898209 -0.24660371 -0.5941123
-0.44460145 -0.5308175 -0.6181336 -0.67724705 -0.28660548 -0.21840966 -0.35357937 0.024520198
-0.7168216 -0.3382193 0.10348238 -0.77000624 -0.3550043 -0.11362062 -0.062151834 -0.332496
-0.38192448 -0.6424532 -0.92841643 -0.42300555 -0.66081095 -0.39559817 0.10493401 -0.69293034
-0.6453283 -0.62217253 -0.423147 -0.58108854 -0.58994246 -0.571017 -0.11823602 -0.40098304
-0.43202788 0.060670123 -0.38829994 -0.6314625 -0.67388403 -0.13587199 -0.4381028 -0.7589683
-0.33373892 -0.55909294 -0.59952974 -0.6521203 -0.32812566 -0.6226729 -0.44390863 -0.5844552
-0.5437568 -0.3743068 0.010417927 -0.305972 -0.7180403 -0.5476906 -0.035256125 -0.29658356
-1.0636238 -0.5212254 -0.20895064 -0.22179064 -0.56059414 -0.3869083 -0.35913295 -0.05832419
0.026903745 -0.68302 -0.6890566 -0.4734382 -0.35191068 -0.1924031 -0.49972773 -0.19522332
-0.20254594 -0.48722464 -0.18878019 -0.21024571 -0.4459545 -0.05904278 -0.7714071 -0.54023975
-0.53797585 -0.07963221 -0.67477345 -0.6241381 -0.053233054 -0.40840375 -0.32762957 -0.32065505
-0.88071537 -0.7650022 -0.49661553 -0.7414889 -0.6083338 0.10762317 -0.4205496 -0.31023496
-0.34266248 -0.1510406 -0.76144964 -0.7259261 -0.41941258 -0.77248335 -0.48414472 -0.04820608
-0.7460179 -0.4547322 -0.54812986 -0.36567834 -0.6366537 -0.016640976 -0.6536739 -0.51757884
-0.6939122 -0.1997688 -0.5244765 -0.6887429 -0.30635008 -0.29971638 -0.41526866 -0.282424
-0.24200532 -0.22833711 -0.27277336 -0.6421565 -0.59487474 -0.059537526 -0.255121 -0.7082414
-0.8885074 -0.16760829 -0.26480046 -0.85047454 -0.59331155 -0.5400474 -0.31159925 -0.29423726
-0.68385065 -0.77046674 -0.53819346 0.32610762 -0.6357091 -0.34294167 -0.48950136 0.081913985
-0.12784447 -0.28796887 -0.5124731 -0.56426966 -0.5705875 0.054597955 -0.82161677 -0.5049595
-0.6823174 -0.36836195 0.35679606 -0.67312825 -0.8938899 -0.5926183 -0.14486833 -0.17769705
-0.8088331 -0.43922734 -0.13856103 -0.26914805 -0.8632624 -0.0916314 -0.47477868 -0.49729198
-0.52168834 -0.60447955 -0.51997787 -0.48663163 -0.7881175 -0.50517744 -0.11511968 -0.4976889
