checkpoint_actor.pth (torch, 316153 bytes, 14 tensors)

fc1.weight f4 [256, 33]
-0.10148787 0.041249204 0.0055806274 0.0039674584 0.0062116305 0.015279292 -0.014557098 0.027111543
0.07613055 0.027907964 0.0039025194 -0.007112763 -0.00942193 -0.04640951 -0.0700234 -0.033982057
0.025254937 -0.009952491 0.010204417 -0.011789471 -0.0381994 0.0130449645 -0.02917991 -0.06697447
0.0062642703 -0.030291354 0.06877965 -0.031396765 -0.036016107 -0.049047858 -0.03499152 -0.048786364
0.18221332 -0.013886682 -0.0828679 0.095115095 -0.0018210344 0.0011510405 0.017358255 -0.0076575307
0.009798864 -0.08414316 0.038796987 -0.029825145 -0.0024308872 -0.015828386 0.0044519417 0.08643482
-0.101502866 -0.01802405 0.0010313486 0.0044818586 0.004926021 -0.0146829905 0.021236487 0.017346673
-0.0055378634 0.031025447 -0.016165059 0.0009606342 0.020943101 0.0396458 0.012952 0.008047955
0.024882302 0.002876175 -0.03343368 -0.07014968 -0.026107451 0.009849377 -0.024488866 -0.012184321
0.008728642 0.013712235 0.035133366 0.03995333 0.011565992 -0.01573442 0.009281928 0.0017312706
0.041829243 -0.03326687 0.014813512 0.00081529346 0.019314494 -0.006990478 0.01796117 -0.0024482543
-0.023413802 -0.0048846807 0.0008461004 -0.013649256 0.04033801 -0.020219358 0.04264778 0.026496798
-0.059817735 -0.06033633 0.39140564 0.11750014 -0.08625689 -0.10683184 0.01455969 -0.026008718
0.026244553 -0.023973355 0.01785482 -0.15186322 0.013037766 0.032136943 0.011737757 -0.037511446
-0.010751949 0.11284955 0.06334203 -0.02060204 0.022063345 0.01467199 0.015895076 -0.031110274
0.013157392 0.027793571 -0.012741766 0.034237422 0.035593197 -0.007687961 -0.020455573 0.014306762
-0.062432177 -0.026165884 -0.00049315393 -0.03345517 -0.046582304 0.08356127 -0.02290451 -0.0031066532
0.0018533758 -0.0061921324 0.023834286 0.03359524 -3.1022944e-05 -0.02513654 -0.025963956 0.021393506
0.08995149 0.035650507 -0.076377645 0.012282873 0.019174388 -0.013070624 -0.018080937 -0.007261356
-0.035162214 -0.01229128 -0.02729982 -0.056951486 -0.07374079 -0.039570548 -0.039807614 0.06000418
-0.02230307 0.062124886 -0.011666184 0.05097796 -0.22735626 0.07279435 -0.055929832 0.008673596
0.0077790427 -0.014846473 -0.00790359 0.0027501541 0.028539635 -0.035917133 -0.12592152 -0.017472323
0.046571814 0.018180856 -0.04365928 -0.014648312 0.047837544 -0.008943028 -0.02233487 -0.0075174654
0.00043674588 0.01578035 0.043766394 -0.11152587 -0.045174316 -0.08589197 0.06520358 -0.020294068
-0.011917141 -0.06725498 0.05776629 -0.05741868 0.035265923 -0.089145854 -0.031676617 -0.1979828
-0.061946284 -0.004847119 -0.017985402 0.0018953099 -0.016168194 0.06302741 -0.036504548 0.05681911
-0.023556586 -0.0037968557 -0.022484366 0.034134004 0.11680618 0.024670526 0.0015189925 -0.00516213
0.00091329933 0.008312127 -0.056540646 0.025780668 0.028378017 -0.017960519 0.02355963 -0.003061478
-0.020157197 0.0012761828 0.016240533 0.010158613 -0.0020787758 0.029318638 0.048546594 -0.06437606
0.012240212 -0.14302988 0.023522407 -0.010894772 0.02870611 -0.012370556 -0.02686841 -0.03140802
-0.09066516 -0.00086557464 0.056347907 -0.029928429 0.01890791 -0.05603776 0.030704774 0.00031666656
-0.023720892 0.020156397 -0.0109966155 -0.014738777 -0.002011861 -0.012919207 -0.0288412 -0.015463138
00000000: dfd8 cfbd edf4 283d b2dd b63b 7401 823b
00000010: ef8a cb3b ff55 7a3c e580 6ebc 0719 de3c
00000020: 55ea 9b3d 3e9f e43c 69c1 7f3b 2e12 e9bb
00000030: 705e 1abc e617 3ebd 6e68 8fbd c530 0bbd
00000040: 71e3 ce3c c60f 23bc 6d30 273c a028 41bc
00000050: f976 1cbd 8cba 553c b50a efbc e929 89bd
00000060: 8244 cd3b 9325 f8bc 58dc 8c3d e599 00bd
00000070: a085 13bd 68e6 48bd 4553 0fbd 36d4 47bd
00000080: 2196 3a3e f784 63bc a5b6 a9bd b4cb c23d
00000090: c6af eeba 83de 963a e632 8e3c 06ec fabb
000000a0: 6a8b 203c 4053 acbd 97e9 1e3d dd53 f4bc
000000b0: 854f 1fbb 88aa 81bc 98e1 913b bd04 b13d
000000c0: bce0 cfbd 2ca7 93bc 512e 873a 8edc 923b
000000d0: 766a a13b ed90 70bc 24f8 ad3c 9c1a 8e3c
000000e0: f776 b5bb 1429 fe3c 966c 84bc 12d3 7b3a
000000f0: de90 ab3c a263 223d a034 543c 92db 033c
00000100: f8d5 cb3c 367e 3c3b c1f1 08bd a3aa 8fbd
00000110: 4bdf d5bc 485f 213c e09c c8bc bfa0 47bc
00000120: 9402 0f3c 48a9 603c 01e8 0f3d 1aa6 233d
00000130: 497f 3d3c 78e5 80bc 3a13 183c cdeb e23a
00000140: 2455 2b3d d742 08bd 5fb4 723c 6bb9 553a
00000150: 6e39 9e3c 6110 e5bb 4e23 933c e472 20bb
00000160: 4dce bfbc ac0f a0bb d6cc 5d3a 21a1 5fbc
00000170: 7839 253d 11a3 a5bc 70af 2e3d d00f d93c
00000180: 7103 75bd 3a23 77bd 5266 c83e eaa3 f03d
00000190: 74a7 b0bd a7ca dabd c48b 6e3c 3c10 d5bc
000001a0: d1fe d63c c563 c4bc 4544 923c 0882 1bbe
000001b0: 5b9c 553c 07a2 033d b94f 403c 9aa5 19bd
000001c0: f128 30bc aa1d e73d 77b9 813d 9cc5 a8bc
000001d0: 30be b43c c962 703c 6436 823c f9da febc
000001e0: 1a92 573c 58af e33c d7c2 50bc 8a3c 0c3d
000001f0: 2cca 113d 4beb fbbb 7292 a7bc e966 6a3c
00000200: e2b8 7fbd d659 d6bc 0047 01ba 4a08 09bd
00000210: 16cd 3ebd 2c22 ab3d 3da2 bbbc fe98 4bbb
00000220: f9ec f23a 5fe7 cabb 1f40 c33c 2a9b 093d
00000230: a21e 02b8 25eb cdbc 5db2 d4bc 6f41 af3c
00000240: 7d38 b83d 4406 123d e26b 9cbd 1a3e 493c
00000250: 9b13 9d3c 2c26 56bc 791e 94bc abf0 edbb
00000260: 4106 10bd 5d61 49bc dfa3 dfbc f645 69bd
00000270: 6905 97bd ba14 22bd 4f0d 23bd f1c6 753d
00000280: eeb4 b6bc aa76 7e3d 8623 3fbc 44ce 503d
00000290: 14d0 68be 3415 953d ae16 65bd b31b 0e3c
000002a0: 57e7 fe3b 9f3e 73bc 0f7e 01bc ee3b 343b
000002b0: f4cb e93c d81d 13bd 92f1 00be 1e22 8fbc
000002c0: 16c2 3e3d 05f0 943c 13d4 32bd 79ff 6fbc
000002d0: 4df1 433d c785 12bc 9ef7 b6bc 1255 f6bb
000002e0: 0afb e439 cb45 813c 6444 333d ad67 e4bd
000002f0: b408 39bd 21e8 afbd 7489 853d bf3f a6bc
00000300: 1d40 43bc fbbc 89bd 589c 6c3d da2f 6bbd
00000310: 0073 103d 1a92 b6bd 57bf 01bd 01bc 4abe
00000320: 63bb 7dbd 95d4 9ebb 1f56 93bc 0c6c f83a
00000330: 2973 84bc 8414 813d cb85 15bd 28bb 683d
00000340: bef9 c0bc abd4 78bb 2231 b8bc 19d0 0b3d
00000350: 1438 ef3d d819 ca3c ee18 c73a 1627 a9bb
00000360: 7b6a 6f3a 962f 083c 2a97 67bd fb31 d33c
00000370: 0479 e83c f021 93bc 2000 c13c 14a3 48bb
00000380: b520 a5bc 9745 a73a de0a 853c 5070 263c
00000390: 123c 08bb a42d f03c cbd8 463d 99d7 83bd
000003a0: 2c8b 483c 6d76 12be 10b2 c03c fc7f 32bc
000003b0: 1329 eb3c dfad 4abc 241b dcbc b2a5 00bd
000003c0: a8ae b9bd bbe7 62ba 10cd 663d 772c f5bc
000003d0: c3e4 9a3c da87 65bd 9488 fb3c 4406 a639
000003e0: 5152 c2bc 071f a53c 262b 34bc e97a 71bc
000003f0: 6dd9 03bb 15ab 53bc 6144 ecbc 1a59 7dbc

fc1.bias f4 [256]
-0.07634124 0.08240047 0.1520067 0.09405176 -0.036639776 -0.13666864 -0.14365278 -0.041734826
-0.054933365 -0.13206922 0.042982712 -0.066025145 0.050402146 -0.092638604 -0.015910033 -0.05242115
0.10688591 -0.1588777 -0.06842095 0.037219185 -0.048964962 -0.0030081104 0.11756281 0.025009004
0.02149791 0.050793648 -0.09355499 -0.069620796 0.08345888 0.025174879 0.11349585 -0.022081241
0.16346993 0.1038442 -0.04884333 -0.08907197 0.03511973 -0.14519624 -0.07974325 0.053210072
0.015097412 0.078834966 -0.072821245 0.14662284 -0.095677264 -0.08952076 0.11624542 -0.033438712
0.04980559 -0.03100015 -0.12309833 -0.007041093 0.079014294 0.11728804 0.13262947 -0.0060292305
0.12605682 0.049146716 0.0063675265 0.0032836827 -0.01665525 0.049607944 -0.009041768 0.11205192
-0.026567878 -0.09669809 0.050417546 -0.097396076 0.10803995 0.14217632 0.027920771 -0.03491158
-0.0074712094 0.08144558 -0.13292508 -0.04687134 -0.10624105 -0.15740038 -0.12459561 -0.11181017
0.13255398 0.10646361 -0.1178286 -0.13746218 0.1557664 0.04140066 0.08018255 0.027045524
-0.065079354 -0.09417842 0.09363288 -0.17175102 -0.14474504 0.05248257 -0.045836 0.033249166
0.09286456 -0.1001684 -0.097941265 -0.107063726 -0.15222055 -0.011942395 0.1480827 -0.01024005
0.095129676 -0.08661934 0.017283384 -0.1307003 -0.011536021 0.038222186 -0.07451973 0.15976731
0.049282197 0.08703278 0.17308041 0.07382975 -0.013706655 0.083146706 0.17156088 -0.16758531
-0.032974623 0.08446818 -0.04208819 -0.14163025 -0.10116196 -0.09015842 0.0720734 0.110832
-0.019766584 -0.14256243 0.024592647 0.048583012 -0.06579833 0.060108107 -0.07123404 0.05847369
0.12451991 0.08667889 -0.016510116 0.16713649 -0.01553262 -0.15558688 0.1251434 0.16180757
0.07965187 0.15263988 0.09398974 0.07118845 0.100775525 -0.13376158 -0.002075478 -0.074365474
0.04789073 -0.15403724 0.010538927 0.06788258 -0.064583614 -0.07049795 -0.11318091 0.047887363
-0.14612173 -0.03570534 0.009647155 0.049717084 -0.14963542 0.03517863 -0.06832277 -0.020208193
-0.12715015 -0.13698094 0.023843667 0.029576082 0.1495149 0.16390714 0.1271174 0.06737671
0.115742125 0.07396827 -0.16221303 0.12660147 0.0211833 -0.043463103 -0.051815998 0.13867222
0.12113846 -0.016174186 -0.06518481 -0.0935667 0.10053633 -0.105633035 -0.11551632 -0.10440323
0.050592445 0.13344963 0.03487703 0.06485656 -0.14060539 -0.1265421 -0.10193009 -0.11155912
-0.07750853 -0.10553286 -0.05700865 -0.10781398 0.05220278 0.0046477686 0.008756481 0.073759414
-0.15669969 -0.06832461 -0.0059337495 -0.16261049 0.092458956 -0.13067317 0.11750386 0.17218958
0.03605247 -0.08472085 0.12286657 -0.11424695 0.008484986 0.10917749 0.16296002 0.012794749
-0.013037599 -0.015219992 -0.16893582 0.031198144 -0.13814682 0.015766436 -0.041404024 0.11065711
-0.069741495 0.12376457 -0.041483764 -0.033710565 -0.15845403 0.15120271 0.015011943 -0.15701102
0.009990383 0.07137976 -0.03674702 0.14212517 0.08534508 -0.022279058 0.17404358 0.12239335
-0.021419477 -0.015054673 0.053469945 -0.060666084 0.1071685 -0.16763015 -0.09313971 0.07975467
00000000: cc58 9cbd 94c1 a83d a5a7 1b3e 369e c03d
00000010: 9713 16bd ddf2 0bbe b719 13be 23f2 2abd
00000020: cf01 61bd 273d 07be a40e 303d 3138 87bd
00000030: 7b72 4e3d 4fb9 bdbd c255 82bc 8fb7 56bd
00000040: 00e7 da3d d6b0 22be 4820 8cbd 2573 183d
00000050: 7c8f 48bd b823 45bb c5c4 f03d afdf cc3c
00000060: 631c b03c 000d 503d c299 bfbd 5995 8ebd
00000070: 7dec aa3d 8c3b ce3c 8370 e83d b8e3 b4bc
00000080: a964 273e 45ac d43d f20f 48bd 5d6b b6bd
00000090: b5d9 0f3d 53ae 14be 6e50 a3bd cef2 593d
000000a0: 235b 773c 3a74 a13d 4e23 95bd 4c24 163e
000000b0: 71f2 c3bd a956 b7bd 1412 ee3d 08f7 08bd
000000c0: f200 4c3d 07f4 fdbc fa1a fcbd f8b8 e6bb
000000d0: 3fd2 a13d b634 f03d 05d0 073e da90 c5bb
000000e0: 0a15 013e 114e 493d afa6 d03b 0e33 573b
000000f0: 9770 88bc b331 4b3d ec23 14bc 7a7b e53d
00000100: e1a4 d9bc a609 c6bd a182 4e3d 9877 c7bd
00000110: 0d44 dd3d ab96 113e 1aba e43c 72ff 0ebd
00000120: 0cd1 f4bb f1cc a63d 831d 08be 2afc 3fbd
00000130: e894 d9bd 912d 21be fc2b ffbd bbfc e4bd
00000140: 3bbc 073e 9809 da3d 1f50 f1bd e3c2 0cbe
00000150: 3a81 1f3e bd93 293d c036 a43d 938e dd3c
00000160: 5348 85bd 9ee0 c0bd 98c2 bf3d 80df 2fbe
00000170: 0b38 14be f7f7 563d 88be 3bbd 4730 083d
00000180: c62f be3d 1725 cdbd 6e95 c8bd 3a44 dbbd
00000190: b4df 1bbe 09aa 43bc fea2 173e e2c5 27bc
000001a0: 59d3 c23d 7b65 b1bd e295 8d3c 4dd6 05be
000001b0: 9401 3dbc de8e 1c3d cd9d 98bd 0b9a 233e
000001c0: 21dc 493d 3e3e b23d fe3b 313e 0d34 973d
000001d0: e191 60bc d248 aa3d a8ad 2f3e 7c9b 2bbe
000001e0: 6610 07bd a7fd ac3d aa64 2cbd 8507 11be
000001f0: 002e cfbd faa4 b8bd 389b 933d e3fb e23d
00000200: 88ed a1bc e3fb 11be 8576 c93c fbfe 463d
00000210: 46c1 86bd eb33 763d 27e3 91bd 1c82 6f3d
00000220: 4b04 ff3d b484 b13d 3940 87bc d425 2b3e
00000230: 887c 7ebc 2b52 1fbe 9725 003e e2b0 253e
00000240: 8520 a33d a14d 1c3e b17d c03d 40cb 913d
00000250: 6663 ce3d ccf8 08be be04 08bb ed4c 98bd
00000260: 1229 443d f0bb 1dbe 77ab 2c3c 0606 8b3d
00000270: 6a44 84bd 3b61 90bd 65cb e7bd 8a25 443d
00000280: efa0 15be c33f 12bd 1a0f 1e3c 24a4 4b3d
00000290: 073a 19be 7817 103d cfec 8bbd a78b a5bc
000002a0: a633 02be bb44 0cbe cb53 c33c 8a49 f23c
000002b0: 6f1a 193e 46d7 273e 102b 023e cdfc 893d
000002c0: 350a ed3d ad7c 973d 2c1b 26be d1a3 013e
000002d0: 9a88 ad3c 5e06 32bd 033d 54bd 1700 0e3e
000002e0: 7117 f83d ba7f 84bc 9d7f 85bd e69f bfbd
000002f0: fee5 cd3d 2256 d8bd d293 ecbd 5cd1 d5bd
00000300: 063a 4f3d 05a7 083e 37db 0e3d 84d3 843d
00000310: dcfa 0fbe 4194 01be b9c0 d0bd 1c79 e4bd
00000320: cbbc 9ebd 9d21 d8bd e781 69bd 93cd dcbd
00000330: 95d2 553d 4f4c 983b 5877 0f3c 2d0f 973d
00000340: e275 20be c6ed 8bbd e66f c2bb 5d83 26be
00000350: 1f5b bd3d 30cf 05be dda5 f03d 7752 303e
00000360: c1ab 133d 2082 adbd 78a1 fb3d 4efa e9bd
00000370: 9c04 0b3c 7398 df3d fede 263e 11a1 513c
00000380: a79b 55bc 465d 79bc 83fd 2cbe 4093 ff3c
00000390: 5c76 0dbe 9d28 813c 4497 29bd 32a0 e23d
000003a0: a1d4 8ebd 4778 fd3d e1ea 29bd 1714 0abd
000003b0: c641 22be e2d4 1a3e a7f4 753c 7fc7 20be
000003c0: b4ae 233c 8d2f 923d 0b84 16bd 4389 113e
000003d0: 67c9 ae3d 9282 b6bc 7b38 323e 5da9 fa3d
000003e0: e677 afbc e0a7 76bc 4d03 5b3d 007d 78bd
000003f0: 297b db3d 3da7 2bbe 08c0 bebd 6b56 a33d

bn1.weight f4 [256]
0.9750357 1.0033108 1.0646096 0.9889963 0.9688842 0.9297522 1.0919526 1.0086949
1.0019912 0.9795877 0.9758073 1.0043952 0.9763684 0.99624795 1.0104069 0.9963987
0.9652576 1.0548 1.0927776 0.97865754 1.0137763 0.97964406 1.0419474 0.9957339
0.9959915 0.9852079 1.0410216 0.97093266 0.9721956 0.98552394 0.97363925 1.0892402
1.0006104 0.9471548 0.96343046 0.96979207 0.93685967 1.0210358 1.0395224 0.956772
0.971108 1.0172974 0.91781265 1.0785182 1.020246 1.1511161 1.0674107 1.035844
1.0578262 1.0342767 0.9124244 0.92330766 0.99710006 0.98199254 1.0228409 0.97367966
0.9642443 0.93876773 0.98459727 0.996281 0.9717513 0.95337653 0.9587803 0.9678353
0.9389463 1.0478903 1.1002955 1.0254738 1.0083864 0.98678553 1.0405095 0.96907437
1.1811104 0.97355485 0.9939465 1.0353914 1.1119063 0.95692116 0.9958289 1.0823884
1.008125 0.97311294 1.0731548 1.0198967 0.9765024 1.0418015 0.98011404 1.0215477
0.9167678 1.0012331 0.9732542 1.0742668 1.0560565 1.007227 0.9980468 1.0333065
1.0366771 0.9803134 1.0042319 0.96047544 1.0354782 1.0113494 1.009154 1.0707947
1.1179705 1.0908972 0.9631173 1.0323638 0.93462306 0.9658708 0.96703875 0.93474597
0.9838882 0.94167036 0.99525124 1.0044651 1.015133 0.93785745 0.9067352 1.0294485
0.97729754 0.91964555 0.9277434 0.95027494 1.0423086 1.0812311 1.0085076 0.93210334
1.0569524 1.0313991 1.0406297 0.90021586 1.0508416 0.944475 1.0361866 0.98201686
1.0426568 1.061497 0.9943854 0.9529453 1.0843025 1.1309048 0.9308777 0.94010717
1.0448226 0.9348217 1.0066903 1.0169567 0.9946461 1.0110717 0.9159838 0.93292165
1.0312452 1.0429153 0.99265766 0.9724812 0.95387745 1.0679255 1.0756491 0.9741552
0.9993905 0.97356033 1.0001676 0.9685191 1.0721109 0.9979457 0.9835641 0.93903196
1.0043759 1.0658791 0.95998406 0.9689672 1.0417999 0.95965964 0.95037794 0.9948484
1.0131985 0.9953551 1.0048598 0.9790779 0.9400934 0.9552444 1.0267386 1.0333805
0.9824375 0.8998214 0.9719252 0.8999363 1.103209 1.0078489 1.003404 0.950397
0.97419655 0.9825841 0.9687099 0.9972295 0.9635347 0.98149896 0.9289492 0.93996704
1.0270033 0.9935606 0.9826986 0.95933485 1.0803225 0.9481717 0.9427888 1.0642467
1.0310912 0.9532549 0.9661602 0.96252793 0.98006684 0.98775154 0.9957124 1.0607468
0.983834 0.99420017 1.0178386 1.0159818 0.9738276 1.0289917 1.0057693 0.9315914
1.0490986 1.0090867 1.0544034 1.1896155 0.95429486 0.99109113 0.9384838 1.0173917
0.9344106 1.0047174 0.94471306 1.0028913 0.9894495 0.9946574 0.89300126 0.97828263
1.0305136 0.9713292 0.9559429 0.93961495 1.0470381 0.9822913 0.9986658 1.0647739
0.93186045 0.9697404 1.0036615 1.0039015 1.0451632 0.9670756 1.0029811 0.9725698
00000000: f19b 793f 7d6c 803f 2145 883f dd2e 7d3f
00000010: cc08 783f 3d04 6e3f 1ac5 8b3f ea1c 813f
00000020: 3f41 803f 42c6 7a3f 82ce 793f 0690 803f
00000030: 48f3 793f 1b0a 7f3f 0355 813f fc13 7f3f
00000040: 1f1b 773f b003 873f 23e0 8b3f 4d89 7a3f
00000050: 6cc3 813f f4c9 7a3f 885e 853f 6be8 7e3f
00000060: 4df9 7e3f 9636 7c3f 3240 853f 0b8f 783f
00000070: d0e1 783f 4c4b 7c3f 6c40 793f 396c 8b3f
00000080: 0014 803f bd78 723f 61a3 763f 4b44 783f
00000090: 09d6 6f3f 4db1 823f 120f 853f 03ef 743f
000000a0: 899a 783f cd36 823f c5f5 6a3f e20c 8a3f
000000b0: 6c97 823f c657 933f eaa0 883f 8996 843f
000000c0: d966 873f 2e63 843f a594 693f e45d 6c3f
000000d0: f341 7f3f dd63 7b3f 73ec 823f 1243 793f
000000e0: b7d8 763f 1553 703f 910e 7c3f 460c 7f3f
000000f0: b1c4 783f 7c10 743f a072 753f 0ec4 773f
00000100: c95e 703f 4521 863f 7cd6 8c3f ba42 833f
00000110: ce12 813f fa9d 7c3f 6a2f 853f 4215 783f
00000120: a02e 973f e43a 793f 4773 7e3f b587 843f
00000130: f252 8e3f c9f8 743f a5ee 7e3f b48b 8a3f
00000140: 3d0a 813f ee1d 793f 235d 893f fa8b 823f
00000150: 10fc 793f c059 853f c1e8 7a3f 13c2 823f
00000160: 4bb1 6a3f 6828 803f 3027 793f 9381 893f
00000170: dc2c 873f d0ec 803f ff7f 7f3f 6343 843f
00000180: d6b1 843f d2f5 7a3f ac8a 803f b8e1 753f
00000190: 8d8a 843f e673 813f f52b 813f cd0f 893f
000001a0: a819 8f3f 85a2 8b3f db8e 763f 7f24 843f
000001b0: 7543 6f3f 4f43 773f da8f 773f 834b 6f3f
000001c0: 19e0 7b3f 4f11 713f c9c8 7e3f 5092 803f
000001d0: e1ef 813f 6d17 703f cc1f 683f f8c4 833f
000001e0: 2c30 7a3f e46d 6b3f 9780 6d3f 3845 733f
000001f0: 5e6a 853f c865 8a3f c716 813f 539e 6e3f
00000200: 374a 873f e304 843f 5b33 853f 8c74 663f
00000210: fa81 863f 1dc9 713f c3a1 843f 7565 7b3f
00000220: c775 853f 22df 873f 0b90 7e3f 39f4 733f
00000230: 6dca 8a3f 7dc1 903f 004e 6e3f ddaa 703f
00000240: bfbc 853f 7a50 6f3f 3adb 803f a32b 823f
00000250: 20a1 7e3f cc6a 813f ea7d 6a3f f4d3 6e3f
00000260: d8ff 833f 407e 853f d01e 7e3f 87f4 783f
00000270: 5031 743f c8b1 883f dfae 893f 3c62 793f
00000280: 0ed8 7f3f 403b 793f 7e05 803f def0 773f
00000290: ee3a 893f 5f79 7f3f dbca 7b3f 6664 703f
000002a0: 648f 803f ba6e 883f 84c1 753f 3c0e 783f
000002b0: b359 853f 41ac 753f f84b 733f 62ae 7e3f
000002c0: 7db0 813f 98cf 7e3f 3f9f 803f d9a4 7a3f
000002d0: f6a9 703f e68a 743f 2c6c 833f d045 843f
000002e0: 0681 7b3f b25a 663f 17d0 783f 3a62 663f
000002f0: f435 8d3f 3101 813f 8b6f 803f 384d 733f
00000300: f264 793f a28a 7b3f 5ffd 773f 6f4a 7f3f
00000310: 36aa 763f 8443 7b3f 9dcf 6d3f aea1 703f
00000320: d874 833f fd59 7e3f 2392 7b3f f896 753f
00000330: 0248 8a3f 61bb 723f 9b5a 713f 3c39 883f
00000340: ccfa 833f 8308 743f 4656 773f 3b68 763f
00000350: a9e5 7a3f 49dd 7c3f 02e7 7e3f 8dc6 873f
00000360: 8cdc 7b3f e783 7e3f 8948 823f b10b 823f
00000370: c44c 793f 00b6 833f 0cbd 803f c67c 6e3f
00000380: dd48 863f c129 813f b1f6 863f 5245 983f
00000390: ab4c 743f 26b8 7d3f 7940 703f e439 823f
000003a0: 8835 6f3f 949a 803f b7d8 713f be5e 803f
000003b0: 904c 7d3f dea1 7e3f bb9b 643f bb70 7a3f
000003c0: dfe7 833f 08a9 783f adb8 743f 9b8a 703f
000003d0: 5805 863f 7177 7b3f 90a8 7f3f 834a 883f
000003e0: 688e 6e3f e840 783f fb77 803f d87f 803f
000003f0: e8c7 853f 4492 773f af61 803f 56fa 783f

bn1.bias f4 [256]
-0.11082334 -0.12849393 -0.10254546 -0.06149486 -0.11710483 -0.05969415 -0.071824364 -0.07207957
0.014959175 -0.122546956 -0.039584793 -0.09508261 -0.1334135 0.0438245 -0.110998005 0.16261265
-0.07545908 -5.1940646e-05 -0.12583484 -0.024208441 0.08451099 -0.03685876 -0.12310897 -0.037131168
-0.076109044 -0.08519443 -0.11412255 -0.07093675 -0.027994659 -0.101142 0.035900258 -0.07351833
-0.12124592 -0.046204403 -0.18921687 -0.082833 -0.1457386 -0.09893289 -0.1148346 -0.084758274
-0.018054115 -0.21137367 -0.2099705 -0.113851674 -0.07454193 -0.047468092 -0.19707423 -0.007705872
-0.024611073 -0.04211881 -0.070420995 -0.03630548 -0.0204467 -0.050766464 -0.05493368 -0.04204127
-0.0997711 0.047829572 -0.050388336 0.016251761 -0.10120414 -0.015306275 -0.12754889 -0.08969507
-0.03210007 -0.12064586 -0.014298838 -0.037594113 -0.086147055 0.025533132 -0.05736734 -0.1017796
-0.13175869 -0.12016687 -0.17553808 0.051756967 -0.09953586 -0.2373644 -0.14236185 -0.011879106
-0.105247624 -0.1248845 -0.09706983 -0.03242518 -0.12559898 -0.042406145 0.09027396 0.0008600411
-0.16673099 -0.09125617 -0.10831098 -0.10589743 -0.024469292 -0.18084686 -0.10120012 -0.071817435
-0.029037546 -0.15237802 0.04921462 -0.109171234 -0.11481232 -0.0006122675 -0.041436728 -0.08290985
-0.11622573 -0.07746 -0.16121998 -0.16409317 0.02123276 -0.16169173 -0.06857364 -0.100623265
-0.09630922 -0.05913268 -0.109839424 0.10370628 0.036525775 0.02069577 -0.025687177 -0.12712343
-0.14153188 -0.12709041 -0.07663718 -0.081037074 -0.06896482 -0.007749659 -0.094530195 -0.100526445
0.17593957 -0.16921102 -0.1272712 -0.062382676 -0.044328634 -0.19174962 -0.035357203 0.08714979
0.05041957 -0.13299087 -0.14703643 -0.1072099 -0.053434208 -0.07122483 0.038963165 -0.08350282
0.07582716 -0.05517724 -0.08656454 0.005588353 -0.11179195 -0.08697193 -0.12138725 -0.105411604
-0.051130023 -0.01873533 -0.17062725 -0.08950996 0.038258776 -0.27898797 -0.25152647 0.008822931
-0.06452982 -0.120825104 0.02699003 -0.08472967 -0.050714247 0.033252742 0.0069021704 -0.07453999
-0.13277094 -0.103056535 -0.15283501 -0.17079137 -0.064786196 -0.064045615 -0.036488827 -0.03286763
-0.11716371 -0.17314379 -0.106965 -0.1933097 -0.107066035 0.08659819 -0.057286453 -0.1222173
-0.16261707 -0.09980863 -0.040719025 -0.11755399 -0.037451982 -0.20141426 0.00085669494 -0.01294057
-0.021370653 -0.23620926 0.0138700195 -0.010755666 -0.14026618 -0.028643453 0.06440736 -0.07406009
-0.108761795 -0.04473577 -0.10552066 -0.027029388 -0.054750234 -0.21467936 -0.050751906 -0.023264978
-0.18273687 -0.15643539 -0.10458362 -0.05528396 0.026141582 0.031624943 -0.033265635 -0.025978243
-0.054591842 -0.121525615 -0.04022099 -0.028770318 -0.027526882 -0.121303305 -0.01406073 -0.012573849
-0.068858005 -0.1531051 0.034122083 -0.16059493 -0.06324672 -0.18670513 -0.09499928 -0.020681344
0.122244835 -0.010000683 -0.11903986 0.01503724 -0.005727135 -0.021751674 -0.10437354 -0.085552566
-0.097972006 -0.1080816 -0.077114515 0.08861031 0.017670467 -0.05674912 -0.12511663 -0.1429665
-0.061673913 -0.09616587 0.0582565 -0.034524295 -0.027851362 -0.057404704 -0.14972444 -0.06526091
00000000: 59f7 e2bd ea93 03be 5b03 d2bd 09e2 7bbd
00000010: a8d4 efbd da81 74bd a718 93bd 749e 93bd
00000020: 5417 753c e6f9 fabd aa23 22bd acba c2bd
00000030: 8c9d 08be 5281 333d ec52 e3bd ee83 263e
00000040: 4a8a 9abd d8da 59b8 d9da 00be c850 c6bc
00000050: 1914 ad3d 36f9 16bd 8e20 fcbd da16 18bd
00000060: 0fdf 9bbd 6b7a aebd 15b9 e9bd 4947 91bd
00000070: 0e55 e5bc 8923 cfbd 260c 133d c790 96bd
00000080: c84f f8bd d440 3dbd 11c2 41be 59a4 a9bd
00000090: 803c 15be 549d cabd 672e ebbd bf95 adbd
000000a0: 39e6 93bc 5772 58be 8202 57be 112b e9bd
000000b0: 70a9 98bd e76d 42bd d4cd 49be 8a81 fcbb
000000c0: 299d c9bc c684 2cbd e238 90bd 0eb5 14bd
000000d0: d67f a7bc 7ff0 4fbd 2302 61bd 7733 2cbd
000000e0: ca54 ccbd f1e8 433d 0064 4ebd 6a22 853c
000000f0: 1e44 cfbd 2cc7 7abc 2d9c 02be 0db2 b7bd
00000100: 5d7b 03bd 2d15 f7bd ac45 6abc 49fc 19bd
00000110: de6d b0bd dc2a d13c 04fa 6abd d371 d0bd
00000120: c0eb 06be 0c1a f6bd 41c0 33be 1dff 533d
00000130: 75d9 cbbd a70f 73be 4ec7 11be 95a0 42bc
00000140: 118c d7bd 72c3 ffbd 8ccc c6bd 44d0 04bd
00000150: 059d 00be 11b2 2dbd 8ee1 b83d 6274 613a
00000160: 87bb 2abe 84e4 babd 26d2 ddbd c0e0 d8bd
00000170: d373 c8bc eb2f 39be 0242 cfbd 0515 93bd
00000180: 26e0 edbc fc08 1cbe 4595 493d 2b95 dfbd
00000190: b922 ebbd 9480 20ba 8fb9 29bd a4cc a9bd
000001a0: c107 eebd 59a3 9ebd da16 25be 0a08 28be
000001b0: 53f0 ad3c 8492 25be 5670 8cbd 9213 cebd
000001c0: c53d c5bd 1c35 72bd 7ef3 e0bd f563 d43d
000001d0: 0d9c 153d 2d8a a93c ea6d d2bc a52c 02be
000001e0: bced 10be fd23 02be f4f3 9cbd c4f6 a5bd
000001f0: 6d3d 8dbd daf0 fdbb 0c99 c1bd cfe0 cdbd
00000200: 8129 343e a745 2dbe 6253 02be fa84 7fbd
00000210: f191 35bd 035a 44be b7d2 10bd 977b b23d
00000220: c084 4e3d c22e 08be b890 16be dd90 dbbd
00000230: d4dd 5abd 53de 91bd d797 1f3d 8703 abbd
00000240: 454b 9b3d 8801 62bd c048 b1bd 811e b73b
00000250: 2ef3 e4bd 571e b2bd e199 f8bd 0ae2 d7bd
00000260: b76d 51bd d67a 99bc e9b8 2ebe ff50 b7bd
00000270: 3cb5 1c3d 83d7 8ebe 14c8 80be 0e8e 103c
00000280: 3628 84bd 2773 f7bd 321a dd3c c086 adbd
00000290: beb9 4fbd 0734 083d 9a2b e23b 6ca8 98bd
000002a0: 1bf5 07be 4e0f d3bd c880 1cbe efe3 2ebe
000002b0: a0ae 84bd 592a 83bd 4f75 15bd 35a0 06bd
000002c0: 87f3 efbd 9b4c 31be 7710 dbbd faf2 45be
000002d0: 7045 dbbd 645a b13d 33a5 6abd 104d fabd
000002e0: 1785 26be 7868 ccbd fec8 26bd 25c0 f0bd
000002f0: 4067 19bd 8a3f 4ebe d393 603a af04 54bc
00000300: 8211 afbc d7e0 71be 143f 633c 8838 30bc
00000310: f0a1 0fbe ada5 eabc 02e8 833d d1ac 97bd
00000320: 81be debd db3c 37bd 371b d8bd bc6c ddbc
00000330: c841 60bd e8d4 5bbe 3be1 4fbd 3296 bebc
00000340: 601f 3bbe 9930 20be f02f d6bd 6f71 62bd
00000350: df26 d63c 2889 013d 8c41 08bd 53d0 d4bc
00000360: b29b 5fbd 6ce2 f8bd c4be 24bd bbaf ebbc
00000370: 0e80 e1bc de6d f8bd fa5e 66bc 8c02 4ebc
00000380: 6d05 8dbd 95c7 1cbe 99c3 0b3d ff72 24be
00000390: 7f87 81bd a12f 3fbe fc8e c2bd ec6b a9bc
000003a0: 805b fa3d e8d9 23bc 2ccb f3bd c25e 763c
000003b0: b1aa bbbb 9130 b2bc cbc1 d5bd 2f36 afbd
000003c0: 8ca5 c8bd e359 ddbd 37ee 9dbd 5279 b53d
000003d0: a8c1 903c c471 68bd 931e 00be cf65 12be
000003e0: c99d 7cbd 9df2 c4bd 5e9e 6e3d 5969 0dbd
000003f0: 8a28 e4bc 3221 6bbd 5d51 19be 83a7 85bd

bn1.running_mean f4 [256]
-0.06109278 0.03941306 0.13263015 0.026901927 -0.10616575 -0.01257151 0.0037203538 0.078296944
-0.17709865 -0.36527106 0.82763314 -0.17083268 0.04971384 -0.60500866 0.119476534 0.16029285
0.108284876 -0.1438769 -0.07390767 0.029005703 0.10709061 0.23656209 0.026455425 -0.1711982
-0.3989434 0.1712891 0.060612682 0.2683255 0.12742597 -0.1961011 0.34912455 -0.058511477
0.279918 0.23918772 -0.45372328 -0.15536499 -0.30798835 -0.14267553 -0.18641756 0.33712998
0.27999255 -0.21073684 -0.037129845 -0.025211463 -0.07686728 0.0024928844 -0.037029568 -0.029621445
-0.10198202 0.09835543 -0.07129831 0.43126148 0.3298632 -0.1645752 0.051102906 0.22604507
0.2211039 0.51681954 0.124799594 0.22485887 -0.118627675 -0.34670526 0.08350159 0.27874696
0.33479658 -0.16395824 0.07833405 -0.38685572 0.22793756 0.3085829 0.050242994 0.156606
0.04490435 -0.03746337 -0.4553745 0.03741342 0.06658385 -0.52883977 -0.619295 -0.23310092
0.0648617 0.12610133 -0.26918986 -0.03396866 0.09392995 0.3404269 -0.050134804 0.14301628
-0.24364664 -0.22561282 0.2036406 -0.33805653 -0.03703968 -0.14512996 -0.2678372 0.23225945
-0.09599391 -0.34497383 0.38798612 -0.026126739 -0.23818307 0.16091457 0.122427694 -0.16825113
0.13571122 -0.058575064 0.008380223 -0.20960903 -0.2873712 0.12538345 -0.14360799 -0.06695548
0.33431387 0.41640115 0.5453086 0.1940913 -0.41971448 0.035120785 0.021306751 -0.13608481
-0.2794931 -0.17176403 -0.2588462 -0.3392818 -0.13279171 -0.06955563 -0.19730584 0.1394631
0.037909184 -0.38519034 0.045937628 0.06658548 -0.02904069 0.26757243 0.15947233 0.33807793
0.02560253 0.09752466 -0.361833 0.5039122 -0.060409624 -0.22864576 -0.20383807 0.35810027
0.22277212 0.18996738 -0.18507385 0.41235286 0.33791906 0.019131878 -0.096248165 -0.08848762
0.11539929 0.030042736 -0.40639913 0.015374936 0.3035764 -0.25310627 -0.41176188 0.46980518
0.30123007 -0.072013006 0.070743024 0.070809305 0.04186264 0.21808667 0.14575428 0.17516328
0.15815479 -0.19935544 0.10533374 0.18945724 0.19638698 0.3250872 0.26262784 0.08971557
-0.10265286 0.12017793 -0.37375954 0.4886109 -0.39026788 -0.3372866 0.19102545 0.107389934
0.06405878 -0.351486 -0.10091271 0.0033352117 0.030125542 -0.46735162 -0.27301773 0.04604012
-0.021409336 -0.084904715 -0.013068535 0.014799288 -0.4649252 0.060504645 -0.49731284 0.16166161
0.034344446 0.12839393 -0.019574188 -0.13153222 -0.24736622 -0.39507985 0.12695482 0.21954176
-0.00644427 0.25985786 -0.3755583 -0.28332454 0.6344746 -0.16655053 0.081192836 -0.01480422
-0.07343042 -0.4382816 0.51393926 0.10410247 0.4876377 0.17497595 0.13275686 0.067321904
0.068916015 0.14453362 -0.25941277 -0.006929552 0.06135512 0.30969563 0.09223533 0.19849841
-0.09347762 0.48937756 0.00024226024 -0.17161581 0.1928531 0.2628276 0.6081106 -0.2357464
0.1477911 -0.014017552 -0.4132044 0.14420728 0.0022843024 0.11920175 -0.3834255 0.09873666
-0.18239057 0.24972256 0.32413843 0.22051817 0.23219359 0.046084337 -0.16104478 0.030827317
00000000: 6c3c 7abd 976f 213d 33d0 073e 6e61 dc3c
00000010: 6e6d d9bd bcf8 4dbc 2ed1 733b 265a a03d
00000020: 5959 35be cf04 bbbe c4df 533f c3ee 2ebe
00000030: bda0 4b3d d9e1 1abf 1db0 f43d cf23 243e
00000040: 76c4 dd3d 7754 13be e85c 97bd 5e9d ed3c
00000050: 5252 db3d 553d 723e 0cb9 d83c 954e 2fbe
00000060: 4f42 ccbe 6966 2f3e 0145 783d f661 893e
00000070: f47b 023e bace 48be 74c0 b23e bba9 6fbd
00000080: 6951 8f3e a0ed 743e 6b4e e8be 0018 1fbe
00000090: a6b0 9dbe 8919 12be 3fe4 3ebe 4d9c ac3e
000000a0: 2f5b 8f3e 66cb 57be 7715 18bd 4588 cebc
000000b0: 986c 9dbd a95f 233b 51ac 17bd aca8 f2bc
000000c0: f3db d0bd 926e c93d d904 92bd 4ece dc3e
000000d0: d4e3 a83e 6786 28be 4851 513d 5c78 673e
000000e0: 1069 623e 494e 043f ee96 ff3d 6741 663e
000000f0: 11f3 f2bd 5a83 b1be e202 ab3d ecb7 8e3e
00000100: 756a ab3e abe4 27be 9a6d a03d f411 c6be
00000110: 7768 693e 94fe 9d3e 99cb 4d3d 535d 203e
00000120: a0ed 373d 3173 19bd d926 e9be d03e 193d
00000130: 1d5d 883d 0b62 07bf 1e8a 1ebf 02b2 6ebe
00000140: 36d6 843d b520 013e 41d3 89be b922 0bbd
00000150: 585e c03d 6f4c ae3e 275a 4dbd dc72 123e
00000160: 817e 79be 0c07 67be 2987 503e bf15 adbe
00000170: ebb6 17bd f39c 14be f521 89be 6cd5 6d3e
00000180: 7598 c4bd 69a0 b0be 1ea6 c63e be07 d6bc
00000190: 43e6 73be cac6 243e 5fbb fa3d 064a 2cbe
000001a0: e2f7 0a3e 68ec 6fbd 344d 093c c0a3 56be
000001b0: 5122 93be 8564 003e f90d 13be f41f 89bd
000001c0: 302b ab3e 8832 d53e 5899 0b3f dfbf 463e
000001d0: d1e4 d6be d0da 0f3d 7f8b ae3c d159 0bbe
000001e0: b819 8fbe e9e2 2fbe 7d87 84be 58b6 adbe
000001f0: 8dfa 07be 2f73 8ebd 8b0a 4abe 6acf 0e3e
00000200: a946 1b3d ab37 c5be 1829 3c3d f85d 883d
00000210: bee6 edbc 41ff 883e b74c 233e 8d18 ad3e
00000220: 66bc d13c 02bb c73d 2d42 b9be 6400 013f
00000230: 1570 77bd 1d22 6abe edba 50be eb58 b73e
00000240: 601e 643e cf86 423e 0084 3dbe ea1f d33e
00000250: ba03 ad3e 75ba 9c3c c21d c5bd ff38 b5bd
00000260: 7756 ec3d 2f1c f63c 8c13 d0be 28e7 7b3c
00000270: 5e6e 9b3e 2597 81be 74d2 d2be 4e8a f03e
00000280: d43a 9a3e 8e7b 93bd b8e1 903d 7804 913d
00000290: 2978 2b3d 1d52 5f3e 9c40 153e 015e 333e
000002a0: 54f3 213e d523 4cbe 37b9 d73d 1401 423e
000002b0: ab19 493e d471 a63e 2877 863e ccbc b73d
000002c0: aa3b d2bd d91f f63d 695d bfbe 352b fa3e
000002d0: 31d1 c7be d4b0 acbe 2d9c 433e 41ef db3d
000002e0: 4031 833d f9f5 b3be 53ab cebd 9193 5a3b
000002f0: d7c9 f63c b648 efbe fbc8 8bbe 9194 3c3d
00000300: a262 afbc 86e2 adbd 691d 56bc b678 723c
00000310: ad0a eebe b8d3 773d ca9f febe 9f8a 253e
00000320: c3ac 0c3d b379 033e 0c5a a0bc 62b0 06be
00000330: 924d 7dbe e847 cabe 7200 023e 8ecf 603e
00000340: 742a d3bb 170c 853e 2d49 c0be ea0f 91be
00000350: ed6c 223f 398c 2abe 6e48 a63d 668d 72bc
00000360: b062 96bd 7266 e0be 8691 033f ad33 d53d
00000370: a6ab f93e e52c 333e 6af1 073e 11e0 893d
00000380: d723 8d3d 9f00 143e c0d1 84be 4c11 e3bb
00000390: 824f 7b3d 6d90 9e3e e0e5 bc3d 2b43 4b3e
000003a0: 3271 bfbd b28f fa3e 3d07 7e39 0ebc 2fbe
000003b0: 487b 453e 5791 863e 23ad 1b3f 8167 71be
000003c0: 8d56 173e e0a9 65bc 878f d3be 13ab 133e
000003d0: 3cb4 153b 0c20 f43d 5950 c4be 7236 ca3d
000003e0: 98c4 3abe 45b7 7f3e 79f5 a53e 84cf 613e
000003f0: 28c4 6d3e eec2 3c3d ece8 24be 9289 fc3c

bn1.running_var f4 [256]
0.23002009 0.028498854 0.097503155 0.108202964 0.16123745 0.19860534 0.06526531 0.20670807
0.5556112 0.113711715 0.26632354 0.3438602 0.6457047 0.37316856 0.5056193 0.07523574
0.10260521 0.04002355 0.1575497 0.08339509 0.046022926 0.14223258 0.2706978 0.26752993
0.08373202 0.24080254 0.21373394 0.15844831 0.048652474 0.4411693 0.6232136 0.12319235
0.55129653 0.40806857 0.25534546 0.44507572 0.20837253 0.12413503 0.11096366 0.29393038
0.17601646 0.2967188 0.34577024 0.13579974 0.40743846 0.0485012 0.3107447 0.10092
0.075235285 0.26649025 0.2351998 0.41437444 0.19586246 0.147783 0.058773845 0.1324686
0.36057547 0.22436006 0.29076254 0.1845041 0.09436183 0.29492334 0.13421793 0.84008354
0.2565701 0.09468261 0.052572124 0.095814995 0.22879969 0.2349345 0.21947187 0.9386707
0.024625802 0.6895878 0.06688354 0.5504825 0.054754697 0.32393783 0.56444174 0.11452395
0.11102433 0.6993457 0.13050105 0.17904142 0.13662903 0.3109031 0.14829719 0.19066685
0.37147745 0.1529489 0.17234324 0.051855803 0.17127511 0.19333783 0.24691604 0.2973223
0.14154497 0.12916604 0.09403986 0.5040738 0.47362116 0.22895549 0.06282398 0.06236269
0.10344092 0.13916181 0.16115418 0.3216193 0.13990887 0.13656282 0.31801307 0.6877917
0.5216929 0.3377096 0.4466442 0.028223032 0.7158873 0.1634062 0.24913055 0.32124236
0.11788652 0.6832412 0.19953343 0.15650886 0.20211336 0.1807363 0.2521112 0.288701
0.2750602 0.086924836 0.106944874 0.2261142 0.10401231 0.20807146 0.52342474 0.16925901
0.084018186 0.104132585 0.22735521 0.25133875 0.27533868 0.14100778 0.23629087 0.39209417
0.04770758 0.27164373 0.43681207 0.2668227 0.5189309 0.31890818 0.12997358 0.60126364
0.09352036 0.10577931 0.13350575 0.27655113 0.16232936 0.19995023 0.037154637 0.5147995
0.3390395 0.32851538 0.39600378 0.17352466 0.09044852 0.06453734 0.18888061 0.2424568
0.26392594 0.09618155 0.21204877 0.45090765 0.14413574 0.19448686 0.5355592 0.15005948
0.04547825 0.28975436 0.37954774 0.16758493 0.29326972 0.11170963 0.17413132 0.11770083
0.07476587 0.17252046 0.09839648 0.20802733 0.15150265 0.07021206 0.27252358 0.37225378
0.06124087 0.23273766 0.13284302 0.39195985 0.45688894 0.22498526 0.16370133 0.3088061
0.20070548 0.20967288 0.52485937 0.18376324 0.0414115 0.19791082 0.579049 0.049165487
0.11698844 0.22203764 0.43311775 0.27423143 0.167972 0.08890161 0.32964304 0.4808912
0.16445266 0.18302818 0.21726678 0.22759853 0.13155967 0.47091043 0.114881486 0.30112615
0.16426226 0.19316888 0.09467221 0.13694955 0.5177919 0.32515788 0.1780137 0.78142357
0.29509485 0.60617703 0.30419204 0.12713547 0.21100937 0.23891573 0.19131292 0.1371709
0.06624691 0.49895853 0.2890238 0.1431959 0.10851789 0.40338382 0.30998638 0.072334744
0.28460515 0.48696202 0.095103204 0.21414538 0.21857198 0.37408215 0.108819105 0.29876852
00000000: 638a 6b3e 6e76 e93c bcaf c73d 8499 dd3d
00000010: 6e1b 253e 335f 4b3e d2a9 853d 48ab 533e
00000020: 893c 0e3f b0e1 e83d 8f5b 883e 720e b03e
00000030: e74c 253f f30f bf3e 4470 013f 3215 9a3d
00000040: ae22 d23d bcef 233d b554 213e 0ccb aa3d
00000050: 8982 3c3d 6ba5 113e e798 8a3e aff9 883e
00000060: b17b ab3d f194 763e 12dd 5a3e 4640 223e
00000070: d147 473d f1e0 e13e ed8a 1f3f 454c fc3d
00000080: c521 0d3f 5dee d03e a4bc 823e f7e0 e33e
00000090: 9c5f 553e 823a fe3d ea40 e33d 0b7e 963e
000000a0: a93d 343e 87eb 973e cc08 b13e 160f 0b3e
000000b0: c69b d03e 32a9 463d ee19 9f3e 25af ce3d
000000c0: f514 9a3d 6971 883e 37d8 703e e328 d43e
000000d0: 2b90 483e 6d54 173e d8bc 703d d9a5 073e
000000e0: 599d b83e a5be 653e d4de 943e a5ee 3c3e
000000f0: c640 c13d 3100 973e 6d70 093e b70f 573f
00000100: 285d 833e f5e8 c13d de55 573d a73a c43d
00000110: 774a 6a3e ab92 703e 3cbd 603e b94c 703f
00000120: 0dbc c93c d388 303f 3dfa 883d 6cec 0c3f
00000130: 7646 603d 2edb a53e 417f 103f 888b ea3d
00000140: b960 e33d 5208 333f 11a2 053e a256 373e
00000150: 7be8 0b3e b12e 9f3e 38db 173e 2c3e 433e
00000160: 4b32 be3e a39e 1c3e bf7a 303e c066 543d
00000170: be62 2f3e 5afa 453e 8fd7 7c3e a13a 983e
00000180: 2af1 103e 1a44 043e f897 c03d fb0a 013f
00000190: 797e f23e 4f73 6a3e dca9 803d 0570 7f3d
000001a0: d5d8 d33d 6f80 0e3e 9a05 253e 49ab a43e
000001b0: 4544 0f3e 20d7 0b3e 9cd2 a23e 1e13 303f
000001c0: aa8d 053f 46e8 ac3e 8cae e43e fd33 e73c
000001d0: 6444 373f f453 273e 141c 7f3e e179 a43e
000001e0: 7d6e f13d e5e8 2e3f 7e52 4c3e dc43 203e
000001f0: cef6 4e3e f012 393e b814 813e 9ed0 933e
00000200: b1d4 8c3e a605 b23d ea05 db3d 7b8a 673e
00000210: 6804 d53d af10 553e 2aff 053f 3c52 2d3e
00000220: ba11 ac3d 7743 d53d cecf 683e 79af 803e
00000230: 31f9 8c3e 5864 103e 3cf6 713e 91c0 c83e
00000240: 0669 433d e314 8b3e d5a5 df3e fc9c 883e
00000250: a8d8 043f ef47 a33e cb17 053e 6aec 193f
00000260: 9a87 bf3d d3a2 d83d bbb5 083e 1c98 8d3e
00000270: ab39 263e c1bf 4c3e 762f 183d e6c9 033f
00000280: 9696 ad3e 2b33 a83e 02c1 ca3e 73b0 313e
00000290: 133d b93d 272c 843d eb69 413e 9846 783e
000002a0: 4d21 873e d5fa c43d 5023 593e 5edd e63e
000002b0: 5298 133e 9027 473e 681a 093f 31a9 193e
000002c0: 6747 3a3d af5a 943e 1554 c23e 629b 2b3e
000002d0: 7327 963e 05c8 e43d 7b4f 323e 220d f13d
000002e0: d91e 993d 34a9 303e 1884 c93d 1e05 553e
000002f0: 8323 1b3e 57cb 8f3d 3688 8b3e 0c98 be3e
00000300: b5d7 7a3d c852 6e3e 0008 083e f6ae c83e
00000310: 59ed e93e 8962 663e 52a1 273e d51b 9e3e
00000320: bd85 4d3e 7db4 563e 2f5d 063f 6e2c 3c3e
00000330: 1b9f 293d 22a9 4a3e 8e3c 143f c061 493d
00000340: a397 ef3d d65d 633e 9cc1 dd3e 1068 8c3e
00000350: da00 2c3e 0c12 b63d f9c6 a83e 5f37 f63e
00000360: 4766 283e bd6b 3b3e 2f7b 5e3e 970f 693e
00000370: 94b7 063e 2c1b f13e fc46 eb3d 352d 9a3e
00000380: 5e34 283e 10ce 453e 81e3 c13d 813c 0c3e
00000390: 038e 043f 187b a63e 3949 363e 600b 483f
000003a0: ac16 973e 6b2e 1b3f 0fbf 9b3e cd2f 023e
000003b0: d712 583e 53a6 743e 89e7 433e 8776 0c3e
000003c0: 76ac 873d 7e77 ff3e edfa 933e f2a1 123e
000003d0: a13e de3d 5388 ce3e 89b6 9e3e 3d24 943d
000003e0: c4b7 913e 1653 f93e 78c5 c23d ed48 5b3e
000003f0: 55d1 5f3e b287 bf3e 8ddc de3d 30f8 983e

fc2.weight f4 [256, 256]
0.057457443 -0.029972503 0.033137634 0.028720083 -0.017747702 -0.0101102665 0.02364849 0.057271626
-0.039497036 -0.048039727 0.03169985 -0.0057981727 -0.07125101 0.0018325566 -0.048610352 -0.06606966
0.005441274 0.031806212 -0.13704897 0.06826248 -0.12052965 0.02287196 -0.035275497 0.016055835
-0.020181112 -0.09708266 0.053965945 0.0028980302 -0.088191815 0.0788039 0.010860148 -0.02147349
-0.0482993 -0.05039749 -0.067352675 0.0614269 -0.002994896 0.054435838 0.043772385 -0.03890192
-0.08965584 -0.034981444 -0.010999525 -0.016161438 0.062840104 0.0030849006 0.022720234 0.015027058
0.084656954 -0.014090353 -0.024903273 0.029226597 -0.041479286 -0.02514505 -0.01704792 -0.04507697
-0.041732717 0.07070422 -0.1002207 -0.033382244 -0.029911513 -0.0065591694 -0.031401265 0.029394928
0.068445005 0.0063528772 0.014871193 0.02200046 0.062305085 -0.018393615 -0.11670241 0.06650694
-0.012016763 0.0209117 -0.0021185789 0.015864152 -0.019808706 -0.11275238 -0.06585727 0.10853729
-0.01086553 0.08663757 -0.013193183 -0.033562344 -0.01084864 0.05526412 0.0075844326 -0.0404699
0.020696692 0.008694601 0.017429296 -0.0043146918 0.07065576 0.06277212 -0.010593417 -0.010395287
0.006162338 -0.049903456 -0.02212592 -0.021929087 0.0063337106 -0.0020838128 -0.07817618 0.018099325
-0.057600856 0.069505624 -0.028342914 -0.024662167 -0.035328522 0.014515163 -0.03422932 -0.04994022
-0.02683757 0.05536296 -0.035841744 0.0238974 0.019896971 0.07351825 0.0063331593 0.009891002
-0.030706163 -0.038997654 0.02664811 0.0032855633 0.021377385 0.045347486 -0.00373846 -0.04439452
-0.13875228 0.006733061 -0.13126187 0.033216212 -0.049942665 -0.050270457 0.026417635 0.07004994
-0.033798836 -0.031575896 0.026847303 0.044850726 0.022730457 0.054845665 0.062155586 -0.022756077
-0.045321785 -0.008316455 -0.15084378 0.009285052 -0.020601688 -0.009111429 0.056713473 0.0009750189
0.017327301 -0.0031436654 -0.10766618 0.026777325 -0.024176007 0.069965236 -0.10062064 -0.06354821
-0.051853996 -0.009697788 -0.08210862 0.05942783 0.06513886 0.0006819728 0.06759346 -0.028808305
0.06114019 0.013107224 0.039760735 -0.08593758 -0.009132446 -0.008832414 -0.030585296 0.013081079
-0.0444179 -0.06062831 0.05148822 -0.0023025363 -0.08304132 0.06871316 0.03870746 -0.084728405
0.03063753 0.06873084 -0.017175142 0.028443858 0.065729246 -0.022742702 -0.04603701 -0.034303572
0.05977637 0.005527456 0.000308448 -0.053809855 0.004067147 -0.0070598093 -0.021966774 0.017445445
0.0048554274 0.05217396 -0.01099999 -0.040356565 -0.048034243 -0.005689726 0.04189367 -0.011000815
0.0889145 0.05032375 -0.003464834 -0.02104369 0.039677523 -0.019450577 0.034250543 -0.020141585
0.005198477 -0.064465575 0.015423154 0.0075314757 -0.00026337628 0.09351347 -0.059986323 -0.053432677
0.026073802 0.06704991 -0.045579333 -0.013548139 0.0037058215 0.07576543 0.034438714 -0.020704076
0.010811519 0.0797474 -0.0051953257 0.01215963 0.048615083 -0.038412005 0.016365917 0.030093469
0.034294106 0.07709305 0.064225055 0.011863448 0.09042846 0.03772566 0.011146753 -0.05132791
-0.050033607 -0.12583955 0.009285496 0.025670344 -0.06710932 -0.07464597 0.07848491 0.08929903
00000000: 7f58 6b3d e588 f5bc 54bb 073d 6146 eb3c
00000010: a163 91bc 88a5 25bc 7aba c13c a795 6a3d
00000020: a5c7 21bd 4ec5 44bd b4d7 013d 99fe bdbb
00000030: 0dec 91bd 6532 f03a a61b 47bd 884f 87bd
00000040: b74c b23b 3b47 023d 9156 0cbe 33cd 8b3d
00000050: 40d8 f6bd fa5d bb3c 0a7d 10bd 8787 833c
00000060: dc52 a5bc 46d3 c6bd 650b 5d3d e1ec 3d3b
00000070: e99d b4bd f063 a13d c3ee 313c 2ce9 afbc
00000080: 7dd5 45bd 996d 4ebd 33f0 89bd c69a 7b3d
00000090: 0446 44bb 1df8 5e3d ac4a 333d 9f57 1fbd
000000a0: 7b9d b7bd b448 0fbd 5a37 34bc fe64 84bc
000000b0: 50b2 803d 0b2c 4a3b c91f ba3c 0d34 763c
000000c0: a060 ad3d 39db 66bc f301 ccbc 9e6c ef3c
000000d0: 2fe6 29bd fefc cdbc 14a8 8bbc a1a2 38bd
000000e0: edef 2abd 60cd 903d 8340 cdbd d2bb 08bd
000000f0: fd08 f5bc 4dee d6bb 9d9e 00bd a2cd f03c
00000100: e52c 8c3d cc2b d03b 4ea6 733c 4f3a b43c
00000110: 9e33 7f3d 35ae 96bc ac01 efbd ca34 883d
00000120: f5e1 44bc 034f ab3c dbd7 0abb 8af5 813c
00000130: de45 a2bc b8ea e6bd 2de0 86bd cc48 de3d
00000140: 5605 32bc 0a6f b13d 3828 58bc ab78 09bd
00000150: 7fbe 31bc a15c 623d d586 f83b c4c3 25bd
00000160: 1c8c a93c cd73 0e3c e2c7 8e3c 4262 8dbb
00000170: f8b3 903d ab8e 803d 0390 2dbc fe50 2abc
00000180: 70ed c93b 9167 4cbd 6b41 b5bc a1a4 b3bc
00000190: 048b cf3b 9490 08bb d51a a0bd 0945 943c
000001a0: e0ee 6bbd f758 8e3d 662f e8bc 5008 cabc
000001b0: a4b4 10bd 02d1 6d3c 0b34 0cbd 1e8e 4cbd
000001c0: 77da dbbc 45c4 623d cbce 12bd 7bc4 c33c
000001d0: f9fe a23c bc90 963d 6486 cf3b df0d 223c
000001e0: 7e8b fbbc 01bc 1fbd 234d da3c 9b52 573b
000001f0: a01f af3c 49be 393d f300 75bb 07d7 35bd
00000200: 1415 0ebe 02a1 dc3b 8369 06be b90d 083d
00000210: ae90 4cbd 65e8 4dbd cc69 d83c 5876 8f3d
00000220: a670 0abd ba55 01bd e0ee db3c 65b5 373d
00000230: 3935 ba3c d9a5 603d db96 7e3d f46a babc
00000240: 56a3 39bd be41 08bc cb76 1abe 5520 183c
00000250: dfc4 a8bc 1a48 15bc 634c 683d 6998 7f3a
00000260: fcf1 8d3c f405 4ebb 1680 dcbd 1f5c db3c
00000270: c30c c6bc ef49 8f3d 3212 cebd 9025 82bd
00000280: db64 54bd 79e3 1ebc 9028 a8bd 996a 733d
00000290: 8667 853d 6bc6 323a 716e 8a3d 65ff ebbc
000002a0: 236e 7a3d afbf 563c 27dc 223d 0b00 b0bd
000002b0: 41a0 15bc d4b5 10bc 048e fabc 0652 563c
000002c0: 8bef 35bd 6455 78bd 50e5 523d 26e6 16bb
000002d0: 9111 aabd 7cb9 8c3d b78b 1e3d 1686 adbd
000002e0: 8ffb fa3c c1c2 8c3d e2b2 8cbc 1803 e93c
000002f0: 0e9d 863d e74e babc 4e91 3cbd e781 0cbd
00000300: 11d8 743d a91f b53b 31b7 a139 b967 5cbd
00000310: b445 853b f955 e7bb aaf3 b3bc c0e9 8e3c
00000320: 471a 9f3b 5db4 553d 4d39 34bc ed4c 25bd
00000330: 8ebf 44bd e270 babb b298 2b3d c33c 34bc
00000340: ce18 b63d 4720 4e3d 4512 63bb d163 acbc
00000350: e684 223d d156 9fbc 4c4a 0c3d f7ff a4bc
00000360: fc57 aa3b 8706 84bd 66b1 7c3c 99ca f63b
00000370: c415 8ab9 fd83 bf3d 38b4 75bd 39dc 5abd
00000380: ba98 d53c 7751 893d 65b1 3abd 03f9 5dbc
00000390: 5edd 723b e82a 9b3d 9c0f 0d3d 989b a9bc
000003a0: cc22 313c 9b52 a33d 8d3d aabb 2f39 473c
000003b0: 9c20 473d e855 1dbd d111 863c 9486 f63c
000003c0: fa77 0c3d f6e2 9d3d 6d88 833d e85e 423c
000003d0: 8e32 b93d 3986 1a3d dfa0 363c 373d 52bd
000003e0: 0af0 4cbd 15dc 00be 3122 183c 9d4a d23c
000003f0: 9c70 89bd fcdf 98bd b2bc a03d 69e2 b63d

fc2.bias f4 [256]
0.018032726 -0.012005979 0.05637473 -0.057467937 0.012128547 -0.05697441 -0.0033918337 -0.03859444
0.026897069 -0.009149325 0.04511964 -0.032719713 0.038392417 0.016334161 -0.025446221 0.009634753
0.036268782 -0.013544035 0.036511894 -0.01080372 0.039226033 0.054893043 0.0121722035 0.04521592
0.030833174 0.0016888467 0.055727124 -0.048624 0.019624112 -0.016099159 -0.04401495 -0.0382717
-0.050783392 -0.004058486 -0.0476624 -0.021145087 -0.055233657 0.0068279724 -0.028787242 -0.041039255
-0.031505313 -0.023667017 -0.037968937 -0.03904232 -0.03911585 0.05552845 0.0151635 0.02862464
-0.05956037 0.01917244 -0.013460836 -0.03426977 -0.008349865 0.029305462 0.0031096493 0.05806733
-0.057433084 -0.04889926 0.008881608 -0.02085146 0.006244561 -0.06200895 -0.032952502 -0.0011943844
0.040621635 -0.05841282 0.017680718 -0.0091698645 0.0383513 0.007863127 0.0413887 0.03625173
0.025989596 0.007015072 0.045399804 -0.062213287 -0.061862808 -0.010756327 -0.038989898 0.059108254
-0.015570591 0.0053737336 -0.023760354 -0.0015666969 0.029361224 -0.04227304 0.047743 0.042777188
-0.0031920178 -0.06136622 0.030012574 -0.00079196884 -0.045408063 0.044845346 -0.018889451 0.017723875
-0.052265007 0.05035837 0.05553992 0.027257035 -0.023310348 -0.035358347 -0.015572852 0.02507408
-0.023606377 -0.010240802 0.0464407 0.030072002 -0.05366587 0.024434453 -0.027715877 0.014822106
0.038033657 -0.019150132 0.005820571 0.038645364 0.006568744 0.051082596 -0.049158942 -0.060979616
-0.027623707 -0.030860499 0.061520908 0.014779273 -0.003503307 0.019719068 0.030716006 0.039319985
0.00081514026 -0.06017191 0.05171315 0.027425952 -0.055718802 0.059243828 0.032427408 -0.010149851
-0.036740307 -0.007961773 -0.058640726 0.0070920372 0.04746723 0.011445475 0.021726016 0.010533251
-0.0055793524 -0.022877477 -0.05837622 0.021826902 0.04683858 -0.005934488 0.03616631 -0.02168984
-0.015579051 0.062242493 -0.026741318 -0.03999604 0.05551696 0.04652714 -0.055016078 -0.04648227
0.047034975 0.0043205884 0.043306842 -0.055424344 -0.028848715 -0.04882769 0.04145855 0.050051086
0.023248613 0.036158394 0.023643456 0.045745093 -0.038840245 0.04636618 0.013015141 -0.061409697
0.011608254 -0.054299206 -0.052184157 -0.012334066 -0.031783763 -0.046314165 0.029894087 0.008832316
-0.0035234545 -0.0394333 0.040323548 -0.05070114 0.03819991 -0.057315003 -0.056979507 0.0005337437
-0.013209624 0.004855236 0.046325207 0.003665424 -0.010726292 -0.062048215 -0.030129744 -0.03534276
-0.017475609 -0.043525968 0.04141372 0.034268104 -0.062531106 0.05657019 0.00380898 -0.052316472
-0.023249261 -0.047736146 0.022073956 0.058395687 0.043661054 -0.005961312 -0.061187763 -0.04823523
-0.0359015 0.0497452 0.028047912 -0.009713429 0.022814816 -0.06158687 -0.033550803 -0.041067567
-0.061262447 0.035496898 -0.057442848 0.056864567 -0.058811948 0.05776022 0.010516736 0.0315916
0.022695683 -0.027337566 0.0076305713 -0.0056088436 -0.009264825 -0.05257126 -0.010252366 0.004280387
-0.0048475354 -0.019743545 -0.05068551 -0.060907625 0.033114616 -0.004050518 0.038362287 -0.058403358
0.028535064 0.04207827 0.060794972 0.020678787 0.027415533 -0.05279834 0.05470915 0.041032128
00000000: 5eb9 933c bab4 44bc 30e9 663d 8063 6bbd
00000010: d0b6 463c 005e 69bd 8749 5ebb 3415 1ebd
00000020: 3e57 dc3c 0de7 15bc 5fcf 383d 1b05 06bd
00000030: 5e41 1d3d 38cf 853c 9874 d0bc 15db 1d3c
00000040: 938e 143d cde7 5dbc 7f8d 153d 1602 31bc
00000050: 7aab 203d 87d7 603d ec6d 473c 5434 393d
00000060: da95 fc3c 4b5c dd3a 2042 643d f629 47bd
00000070: bfc2 a03c 62e2 83bc 0549 34bd c9c2 1cbd
00000080: 3f02 50bd 0cfd 84bb a639 43bd 7638 adbc
00000090: b03c 62bd 2fbd df3b 39d3 ebbc c718 28bd
000000a0: b70b 01bd 55e1 c1bc 5185 1bbd d7ea 1fbd
000000b0: f137 20bd cd71 633d 5470 783c 397e ea3c
000000c0: 93f5 73bd 850f 9d3c d78a 5cbc 755e 0cbd
000000d0: dfcd 08bc 0212 f03c 42cb 4b3b 02d8 6d3d
000000e0: f43e 6bbd 974a 48bd 2a84 113c aed0 aabc
000000f0: 2d9f cc3b 19fd 7dbd 34f9 06bd e48c 9cba
00000100: df62 263d 4842 6fbd 27d7 903c 333d 16bc
00000110: 4116 1d3d 58d4 003c 3387 293d b27c 143d
00000120: 22e8 d43c b0de e53b 25f5 393d 5cd3 7ebd
00000130: db63 7dbd 4e3b 30bc dfb3 1fbd 7f1b 723d
00000140: cb1b 7fbc 2516 b03b 13a5 c2bc a059 cdba
00000150: f386 f03c 7f26 2dbd 2a8e 433d 2237 2f3d
00000160: 2c31 51bb 255b 7bbd eedc f53c 219c 4fba
00000170: cefd 39bd c1af 373d 0dbe 9abc a931 913c
00000180: d513 56bd 9444 4e3d d47d 633d 254a df3c
00000190: 58f5 bebc ead3 10bd 4725 7fbc 2868 cd3c
000001a0: 2962 c1bc 09c9 27bc 9a38 3e3d 8f59 f63c
000001b0: bed0 5bbd c32a c83c 680c e3bc 6bd8 723c
000001c0: 2ec9 1b3d bde0 9cbc 7dba be3b 9a4a 1e3d
000001d0: 9e3e d73b fc3b 513d e35a 49bd c3c5 79bd
000001e0: 1d4b e2bc 28cf fcbc 59fd 7b3d c424 723c
000001f0: bd97 65bb e289 a13c 22a0 fb3c fe0d 213d
00000200: 23af 553a d276 76bd 2bd1 533d 64ac e03c
00000210: 6639 64bd a8a9 723d 9ad2 043d 904b 26bc
00000220: 017d 16bd 1972 02bc 4231 70bd 5264 e83b
00000230: 006d 423d cd85 3b3c c2fa b13c a893 2c3c
00000240: 00d3 b6bb 8c69 bbbc e71b 6fbd 55ce b23c
00000250: d0d9 3f3d 1876 c2bb 2023 143d e4ae b1bc
00000260: 473f 7fbc fcf1 7e3d 9c10 dbbc e3d2 23bd
00000270: c065 633d 3e93 3e3d 8a58 61bd 3164 3ebd
00000280: bfa7 403d b993 8d3b 8462 313d a304 63bd
00000290: 2454 ecbc 8bff 47bd 71d0 293d 5e02 4d3d
000002a0: e073 be3c d31a 143d ecaf c13c 355f 3b3d
000002b0: f316 1fbd 77ea 3d3d 753d 553c bc88 7bbd
000002c0: 8c30 3e3c d868 5ebd 0ebf 55bd d314 4abc
000002d0: b12f 02bd ecb3 3dbd 72e4 f43c 6bb5 103c
000002e0: c2e9 66bb d084 21bd 4e2a 253d 00ac 4fbd
000002f0: 8277 1c3d 23c3 6abd 5863 69bd efea 0b3a
00000300: 2e6d 58bc ac18 9f3b 80bf 3d3d 9c37 703b
00000310: 54bd 2fbc 4526 7ebd a7d2 f6bc 92c3 10bd
00000320: 0229 8fbc 4948 32bd 6fa1 293d b65c 0c3d
00000330: 4f10 80bd 25b6 673d 15a0 793b cc49 56bd
00000340: 3c75 bebc fa86 43bd 71d4 b43c 5130 6f3d
00000350: efd5 323d 1c57 c3bb 05a0 7abd 4e92 45bd
00000360: 740d 13bd 9fc1 4b3d bcc4 e53c 1325 1fbc
00000370: 23e6 ba3c 8442 7cbd 916c 09bd 7736 28bd
00000380: 55ee 7abd 3265 113d 3149 6bbd d2ea 683d
00000390: cce4 70bd fb95 6c3d 634e 2c3c 3266 013d
000003a0: 4cec b93c 08f3 dfbc df09 fa3b 64ca b7bb
000003b0: 7ecb 17bc f654 57bd 8af9 27bc 7d42 8c3b
000003c0: 13d8 9ebb 37bd a1bc 9c9b 4fbd 467a 79bd
000003d0: 31a3 073d 35ba 84bb c621 1d3d 5c38 6fbd
000003e0: 5ec2 e93c 445a 2c3d 2604 793d 8f66 a93c
000003f0: 8a96 e03c 1243 58bd b416 603d 4e11 283d
