checkpoint_critic.pth (torch, 443322 bytes, 11 tensors)

fcs1.weight f4 [256, 33]
0	0x3f460ba0	0.7736149
1	0x3e66f564	0.22554547
2	0x3f0468e7	0.5172257
3	0xbda5e970	-0.08101165
4	0x3c382eee	0.011241658
5	0xbe036ff2	-0.12835672
6	0xbce2ee36	-0.027701478
7	0x3e5a421a	0.21314278
8	0xbf28155d	-0.656576
9	0xbee9bf74	-0.4565388
10	0x3ecb1a1a	0.3966835
11	0xbd1809f1	-0.037118856
12	0x3f0296e1	0.5101147
13	0x3e2cfa05	0.1689225
14	0xbeb354f3	-0.3502575
15	0x3ea4d5a8	0.32194257
16	0x3ed5ad2f	0.4173369
17	0x3d14c89c	0.03632413
18	0x3e74421f	0.23853348
19	0x3e9455a8	0.289716
20	0x3e3aaa9c	0.18229145
21	0x3ea73460	0.32657146
22	0x3d302040	0.042999506
23	0x3da3723f	0.07980775
24	0xbd877774	-0.06614581
25	0xbdaf2cbd	-0.08553455
26	0x3de00ac3	0.10939553
27	0x3d5bb0d6	0.05363544
28	0xbe84d3ac	-0.25942743
29	0x3bb71590	0.0055872872
30	0x3d2695ea	0.040670313
31	0xbd3d0d68	-0.046155363
32	0x3eb9b6db	0.3627232
33	0x3e60fb42	0.21970847
34	0x3e3430e8	0.17596781
35	0xbe1c254d	-0.15248604
36	0xbe34d200	-0.17658234
37	0xbd74c45f	-0.059757587
38	0xbda2ffbc	-0.07958934
39	0x3d063cee	0.03277295
40	0x3e0e84e3	0.1391788
41	0x3fbb3c6f	1.4627818
42	0x3e04c509	0.12965788
43	0x3dbaf8b8	0.091294706
44	0xbeb70688	-0.3574717
45	0xbc92b2c0	-0.0179075
46	0x3e512ad3	0.20426492
47	0xbdbcfe84	-0.092282325
48	0xbe80102f	-0.25012347
49	0xbe387c85	-0.1801625
50	0xbedc9c81	-0.43088153
51	0x3e74aec3	0.23894791
52	0x3d44684f	0.04795104
53	0x3e9395a6	0.2882511
54	0x3dddbc88	0.10826975
55	0xbd945976	-0.07243626
56	0x3f11bf8f	0.5693292
57	0x3e2289ce	0.15872881
58	0x3d9cbd87	0.07653337
59	0x3e7bcc17	0.24589573
60	0xbd16e66c	-0.03684084
61	0x3dd1373d	0.10215614
62	0x3d47acbc	0.048748717
63	0x386ed24f	5.6939487e-05
64	0xbcc41420	-0.023935378
65	0x3faee7e2	1.3664515
66	0x3f1ed3d8	0.62042
67	0x3e1ca4ab	0.15297191
68	0xbda39dac	-0.07989058
69	0x3c1730f8	0.009227984
70	0x3c8ba1dc	0.017044954
71	0x3e6ef234	0.2333458
72	0x3e209e81	0.15685464
73	0x3e0834e1	0.13301422
74	0x3f7ad904	0.9798739
75	0xbeca6bec	-0.39535463
76	0xbc91320e	-0.017724063
77	0x3e423994	0.18967277
78	0x3eefb618	0.46818614
79	0x3ee75497	0.45181724
80	0x3eea8f56	0.45812482
81	0x3e7ca9b0	0.24674106
82	0xbe61a543	-0.22035699
83	0xbe08e253	-0.13367586
84	0xbd1e14fb	-0.038594227
85	0x3e8f4766	0.2798416
86	0xbeb4aaea	-0.35286647
87	0x3eadd591	0.33952
88	0xbded3291	-0.115819104
89	0xbe8e3c57	-0.2778041
90	0x3e903199	0.2816284
91	0xbe32dbd7	-0.17466675
92	0xbe5c23ec	-0.21498078
93	0x3beb192a	0.0071746306
94	0x3d12b2ef	0.035815176
95	0xbcb369a8	-0.021900967
96	0xbd5ae89b	-0.053444486
97	0x3d395aea	0.045252718
98	0xbe1413d3	-0.14460687
99	0x3ee1e5d3	0.44120654
100	0xbe722fd8	-0.23651063
101	0x3de8bc1f	0.11364006
102	0x3ba9bf02	0.0051802406
103	0xbcd7786e	-0.026302543
104	0x3da2a133	0.079409026
105	0x3d432a54	0.04764779
106	0xbc65edd9	-0.014033758
107	0x3d8f6bb5	0.07002965
108	0x3e747b42	0.23875144
109	0xbd61e186	-0.055146717
110	0xbd2c72f1	-0.042101804
111	0xbbbc1b6a	-0.0057405727
112	0xbf38510a	-0.71998656
113	0x3e4aadb2	0.19792822
114	0xbd867b83	-0.06566527
115	0xbda62f30	-0.08114469
116	0x3b8116aa	0.0039394693
117	0xbda8b003	-0.082366966
118	0x3c158b5e	0.009127466
119	0xbce5675f	-0.028003393
120	0xbc8bc030	-0.017059416
121	0xbcdaf1a8	-0.026726559
122	0xbe1bcd1d	-0.15214963
123	0x3d3ada27	0.045618203
124	0x3c447765	0.0119913565
125	0x3edcdb1d	0.4313592
126	0x3d5ad1b3	0.05342264
127	0x3d6c476f	0.057685312
128	0x3cd370a4	0.025810547
129	0x3cc8a3ef	0.024492232
130	0xbd3545bc	-0.044255957
131	0xbe48e05d	-0.19616838
132	0x3e99adb7	0.30015346
133	0xbe238984	-0.15970427
134	0xbea72ad2	-0.32649857
135	0x3e731c3c	0.2374124
136	0xbeca8db1	-0.39561227
137	0x3e39af3e	0.18133256
138	0xbcbb5362	-0.022866908
139	0xbcfda7a5	-0.030963728
140	0x3e6e5833	0.23275833
141	0x3ebd65aa	0.36991626
142	0x3cf68ff8	0.030097947
143	0xbd9923af	-0.07477509
144	0xbca22bdb	-0.019796303
145	0x3ecb4373	0.39699897
146	0x3e81836e	0.25295585
147	0x3d0eb40b	0.03483967
148	0xbe8301a8	-0.255872
149	0x3d9eab1f	0.077474825
150	0xbe00930c	-0.12556094
151	0xbd30ce9e	-0.043165796
152	0x3e59107a	0.21197692
153	0x3e80a940	0.25129128
154	0x3d095c07	0.03353503
155	0x3e3abf13	0.18236952
156	0x3df19863	0.117966436
157	0x3f040ed8	0.5158515
158	0xbe15e030	-0.14636302
159	0xbc9c0911	-0.019047292
160	0x3ed30837	0.41217205
161	0xbd1a0ac6	-0.03760793
162	0x39e22962	0.00043136912
163	0x3ac4af00	0.0015005767
164	0x3fd0247a	1.6261132
165	0x3ec8dd21	0.39231208
166	0x3cdbe98b	0.02684476
167	0xbeb14ecd	-0.34630433
168	0xbd858ac9	-0.06520612
169	0xbe09560c	-0.1341173
170	0x3c8131b3	0.015770769
171	0x3e762919	0.24039115
172	0x3e80fb6f	0.2519183
173	0xbe380c72	-0.17973498
174	0x3eb617e0	0.3556509
175	0x3e29439d	0.16529699
176	0xbd56c888	-0.052437335
177	0xbd67ec31	-0.056621734
178	0xbe9400a6	-0.28906745
179	0xbd0ca452	-0.034336396
180	0xbe6b4cda	-0.22978535
181	0xbafc8818	-0.0019266633
182	0x3f002e64	0.50070786
183	0x3d8619b4	0.06547871
184	0xbda046c4	-0.078259975
185	0x3d9872f1	0.07443798
186	0xbcb64785	-0.0222509
187	0x3d41b9ad	0.047296215
188	0xbcaeb728	-0.02132757
189	0xbe10bcd5	-0.14134534
190	0xbdfc06bc	-0.12305972
191	0x3f2f71ca	0.68533003
192	0x3d548608	0.051885635
193	0x3d933c63	0.07189252
194	0x3a8aa7c0	0.0010578558
195	0x3ce5b5ad	0.028040731
196	0x3cfffa20	0.031247199
197	0xbfd3d848	-1.6550379
198	0xbe03c4e6	-0.1286808
199	0x3bfa7ae3	0.007644044
200	0xbe7a067c	-0.24416536
201	0x3bae3cbd	0.005317299
202	0xbd2054a2	-0.039143212
203	0xbe88440a	-0.2661441
204	0xbd4176d7	-0.047232475
205	0xbe88cd61	-0.26719192
206	0xbe9019d1	-0.28144696
207	0x3d57d7ac	0.052695915
208	0x3e94ff04	0.2910081
209	0x3ed16200	0.4089508
210	0x3d421ba0	0.047389627
211	0xbd4cecf3	-0.05003066
212	0xbe3af903	-0.18259053
213	0x3ee3abd4	0.44467032
214	0x3dfa07a7	0.12208491
215	0x3c6b7156	0.014370283
216	0x3d26283c	0.040565714
217	0xbe0b865a	-0.1362547
218	0xbea400c9	-0.3203185
219	0x3cd3858f	0.025820522
220	0xbdff1468	-0.12455064
221	0x3ef47224	0.47743332
222	0xbeb11c02	-0.3459168
223	0x3e96fe45	0.29490867
224	0x3dbf5a1c	0.09343359
225	0x39aba5ce	0.00032739196
226	0x3e501529	0.20320572
227	0xbbc677a0	-0.006056741
228	0xbbb68a08	-0.005570654
229	0xbadd9c00	-0.0016907454
230	0x3fae4990	1.36162
231	0xbf46c76a	-0.7764803
232	0xbf0201e5	-0.5078414
233	0xbf0403f6	-0.51568544
234	0x3c7e7e08	0.015532978
235	0xbe37f38f	-0.17964004
236	0xbdfdd57b	-0.12394234
237	0xbc63f96f	-0.01391445
238	0x3e472ef9	0.19451512
239	0x3ef3d632	0.47624356
240	0xbede56d2	-0.43425614
241	0xbed58e2a	-0.41710025
242	0xbe3f8eed	-0.18706866
243	0xbc6f226d	-0.01459561
244	0x3eb46583	0.35233697
245	0xbe7fc56e	-0.24977657
246	0x3ea702e4	0.32619393
247	0xbd76cd76	-0.060254537
248	0x3d12e322	0.035861142
249	0x3d5e1b21	0.05422509
250	0x3b18fd91	0.0023344497
251	0xbdb2a2a7	-0.0872243
252	0xbe117c52	-0.1420758
253	0x3e5667fd	0.20938106
254	0x3e8ec33e	0.27883333
255	0xbe406cff	-0.18791579

fcs1.bias f4 [256]
0	0xbd9c066d	-0.07618413
1	0x3da85ff2	0.08221425
2	0x3e1baa83	0.15201764
3	0x3dc1c5fb	0.0946159
4	0xbd169567	-0.036763575
5	0xbe0bfdc0	-0.13671017
6	0xbe132ab6	-0.14371762
7	0xbd2ad60a	-0.04170803
8	0xbd6068b1	-0.05478734
9	0xbe073042	-0.13202003
10	0x3d302d85	0.04301216
11	0xbd87236d	-0.06598554
12	0x3d4ebe3a	0.050474383
13	0xbdbd3aae	-0.09239708
14	0xbc808a66	-0.015690994
15	0xbd567ff4	-0.05236812
16	0x3ddae299	0.10687751
17	0xbe22c24b	-0.1589443
18	0xbd8caab7	-0.06868499
19	0x3d185d2b	0.037198227
20	0xbd49198b	-0.049096625
21	0xbb3be609	-0.0028671047
22	0x3df0f5a0	0.11765599
23	0x3cccf289	0.025017994
24	0x3cb2cbf7	0.021825774
25	0x3d4fe20c	0.050752684
26	0xbdc008cb	-0.09376677
27	0xbd8d3679	-0.068951555
28	0x3daaabee	0.08333574
29	0x3ccef51e	0.025263365
30	0x3de85347	0.11344009
31	0xbcb672e8	-0.022271588
32	0x3e277b0d	0.16355534
33	0x3dd50ace	0.104024515
34	0xbd47ebce	-0.048808865
35	0xbdb631bb	-0.08896204
36	0x3d0fca1c	0.035104856
37	0xbe14b71f	-0.1452298
38	0xbda32631	-0.07966269
39	0x3d5a5e32	0.053312488
40	0x3c78b967	0.015180922
41	0x3da17e65	0.07885436
42	0xbd95231b	-0.072820865
43	0x3e160a98	0.14652479
44	0xbdc4089b	-0.09571954
45	0xbdb6aac8	-0.08919293
46	0x3dee80c7	0.11645656
47	0xbd09e8f1	-0.033669416
48	0x3d4ab8dd	0.049492706
49	0xbcfce53b	-0.030871024
50	0xbdfbe36b	-0.12299236
51	0xbbe57bd0	-0.007003285
52	0x3da1e83f	0.079056256
53	0x3df04a0e	0.11732875
54	0x3e07898f	0.13236068
55	0xbbc9a0c6	-0.006153199
56	0x3e0116e9	0.12606396
57	0x3d48fb5d	0.049067844
58	0x3bcf4ec3	0.006326528
59	0x3b431dc2	0.0029772376
60	0xbc88ad72	-0.016684268
61	0x3d4ba71f	0.049719926
62	0xbc16bb90	-0.009199992
63	0x3de5b5ef	0.11216342
64	0xbcd9149a	-0.026499081
65	0xbdc60406	-0.09668736
66	0x3d4f4b47	0.0506089
67	0xbdc7ad1e	-0.09749816
68	0x3ddd55c6	0.108073756
69	0x3e116de7	0.1420208
70	0x3ce67c1e	0.028135356
71	0xbd0f4e6e	-0.034986906
72	0xbbfe73c8	-0.007765267
73	0x3da739d6	0.08165328
74	0xbe08073d	-0.13284011
75	0xbd3d30ed	-0.046189237
76	0xbdd947e5	-0.10609416
77	0xbe2182ab	-0.15772502
78	0xbdff2a5e	-0.12459253
79	0xbde5194e	-0.11186467
80	0x3e07b887	0.13253985
81	0x3dd9fac0	0.1064353
82	0xbdf2142a	-0.11820252
83	0xbe0c9f35	-0.13732608
84	0x3e1fc6de	0.15603206
85	0x3d28c815	0.041206438
86	0x3da4026c	0.080082744
87	0x3cdf1429	0.027231293
88	0xbd84deaa	-0.06487782
89	0xbdc0b9bf	-0.09410428
90	0x3dc00fac	0.09377989
91	0xbe301101	-0.17193986
92	0xbe144906	-0.14480981
93	0x3d57bf85	0.05267288
94	0xbd3aeddc	-0.045636997
95	0x3d082359	0.033236835
96	0x3dbe505f	0.09292673
97	0xbdccb79b	-0.099959575
98	0xbdc8240e	-0.09772502
99	0xbddb3bbe	-0.10704754
100	0xbe1bf6be	-0.15230843
101	0xbc411cfb	-0.011786695
102	0x3e176d6e	0.14787838
103	0xbc2e5116	-0.01063945
104	0x3dc3a437	0.09552806
105	0xbdb1549a	-0.086587146
106	0x3c8d901d	0.017280633
107	0xbe05cac8	-0.13065636
108	0xbc3c3421	-0.011487038
109	0x3d1ccaea	0.03827945
110	0xbd97ce08	-0.07412344
111	0x3e23bf09	0.15990843
112	0x3d4987cd	0.049201775
113	0x3db242e5	0.08704165
114	0x3e316a47	0.17325698
115	0x3d973ca0	0.0738461
116	0xbc5ec3c5	-0.01359648
117	0x3da9f26a	0.0829819
118	0x3e2f96fb	0.17147438
119	0xbe2b97b7	-0.16757093
120	0xbd063ed2	-0.032774754
121	0x3dad0797	0.08448713
122	0xbd2cc8de	-0.04218375
123	0xbe110440	-0.14161777
124	0xbdceeb22	-0.10103442
125	0xbdb9aa15	-0.09065644
126	0x3d9404b7	0.07227462
127	0x3de332f2	0.110937014
128	0xbca25692	-0.01981667
129	0xbe11b885	-0.14230545
130	0x3cca6fa7	0.024711443
131	0x3d4745ad	0.048650432
132	0xbd86a786	-0.06574921
133	0x3d75ea3a	0.06003783
134	0xbd91d42b	-0.07120546
135	0x3d6fde89	0.058561835
136	0x3dff4c60	0.12465739
137	0x3db21b6e	0.08696638
138	0xbc8622fa	-0.0163741
139	0x3e2b2994	0.1671508
140	0xbc7afde5	-0.015319322
141	0xbe1f07a9	-0.15530266
142	0x3dfff39c	0.12497637
143	0x3e25b501	0.16182329
144	0x3da23d07	0.07921796
145	0x3e1c49e9	0.1526257
146	0x3dc08772	0.09400834
147	0x3d92e953	0.07173409
148	0x3dce72e0	0.100805044
149	0xbe08d435	-0.133622
150	0xbb12942f	-0.0022366156
151	0xbd99178d	-0.07475195
152	0x3d4317c2	0.04763008
153	0xbe1dd5ce	-0.15413591
154	0x3c281da7	0.010260976
155	0x3d8a46f6	0.06751816
156	0xbd84d0fd	-0.06485174
157	0xbd8fbc9f	-0.070183985
158	0xbde735dc	-0.1128957
159	0x3d43ef56	0.04783567
160	0xbe159047	-0.14605819
161	0xbd11f77e	-0.035636418
162	0x3c1d501e	0.009601621
163	0x3d4b9b28	0.049708515
164	0xbe191804	-0.14950567
165	0x3d1027ab	0.03519408
166	0xbd8bf7aa	-0.068343475
167	0xbca6022c	-0.020264708
168	0xbe02199d	-0.12705083
169	0xbe0c0f31	-0.1367767
170	0x3cc6d4c1	0.02427137
171	0x3cf244ff	0.029573916
172	0x3e196cfb	0.14982979
173	0x3e27bc86	0.1638051
174	0x3e024df5	0.12725051
175	0x3d8a4a5f	0.067524664
176	0x3dec5f31	0.11541594
177	0x3d981125	0.07425145
178	0xbe25e470	-0.16200423
179	0x3e01c23e	0.12671754
180	0x3cad4777	0.021152241
181	0xbd31ccfc	-0.04340838
182	0xbd541cb2	-0.05178518
183	0x3e0e15e2	0.13875535
184	0x3df8b49b	0.12143823
185	0xbc839e03	-0.016066557
186	0xbd852bb4	-0.06502476
187	0xbdbf9c30	-0.09355962
188	0x3dcdcc56	0.100487396
189	0xbdd85d8c	-0.10564718
190	0xbdec42ee	-0.11536203
191	0xbdd619f8	-0.10454172
192	0x3d4ef7bd	0.05052923
193	0x3e08b81c	0.13351482
194	0x3d0ee3dd	0.034885276
195	0x3d84affa	0.06478877
196	0xbe0ff590	-0.14058518
197	0xbe01ab2a	-0.1266295
198	0xbdd0b9c0	-0.10191679
199	0xbde41ba1	-0.11138082
200	0xbd9f4604	-0.07777026
201	0xbdd835d4	-0.10557142
202	0xbd692ba5	-0.05692639
203	0xbddcc23c	-0.10779235
204	0x3d540ee4	0.051772013
205	0x3b978cfa	0.00462496
206	0x3c12ad87	0.008952505
207	0x3d983199	0.07431335
208	0xbe208597	-0.1567596
209	0xbd8b7818	-0.068100154
210	0xbbc52460	-0.006016299
211	0xbe2693fe	-0.16267392
212	0x3dbd83b5	0.09253637
213	0xbe05d8f6	-0.13071045
214	0x3df13d2e	0.11779247
215	0x3e3088af	0.1723964
216	0x3d133841	0.03594232
217	0xbdad7692	-0.08469881
218	0x3dfb9ff7	0.1228637
219	0xbde9c18b	-0.114138685
220	0x3c07651f	0.008263855
221	0x3ddf8ae0	0.1091516
222	0x3e27298f	0.16324447
223	0x3c52d62e	0.012868447
224	0xbc58a29a	-0.013222361
225	0xbc794df8	-0.015216343
226	0xbe2d028d	-0.16895504
227	0x3cfda3a6	0.030961823
228	0xbe0d923f	-0.1382532
229	0x3c7f093f	0.015566169
230	0xbd293d22	-0.041318066
231	0x3de2bd5f	0.11071276
232	0xbd8ed13d	-0.06973503
233	0x3dfd7456	0.12375705
234	0xbd29a8b9	-0.041420672
235	0xbd0a1b16	-0.033717237
236	0xbe225727	-0.15853558
237	0x3e1adb8e	0.15122816
238	0x3c75fdfd	0.015014169
239	0xbe2089dc	-0.15677589
240	0x3c200aa7	0.009768165
241	0x3d920e82	0.071316734
242	0xbd16c931	-0.036812965
243	0x3e11696e	0.14200374
244	0x3dae59dd	0.08513234
245	0xbcb6fda6	-0.022337746
246	0x3e32824d	0.17432518
247	0x3dfb908f	0.12283432
248	0xbcaf0a54	-0.02136723
249	0xbc78236d	-0.015145165
250	0x3d5ac9df	0.053415176
251	0xbd7860c1	-0.060639147
252	0x3ddb8e84	0.10720542
253	0xbe2b7d89	-0.16747107
254	0xbdbf01d3	-0.0932652
255	0x3da35319	0.07974834

bn1.weight f4 [256]
0	0x3f0fe8df	0.5621471
1	0x3f2bb628	0.67074823
2	0x3f0b6549	0.54451424
3	0x3f253b8f	0.64544004
4	0x3f290aca	0.6603209
5	0x3f56040f	0.8359994
6	0x3f1b6077	0.6069407
7	0x3ee0acad	0.4388174
8	0x3f0c24a0	0.54743385
9	0x3f122a3d	0.570957
10	0x3efa2f4d	0.48864213
11	0x3f7bcbaf	0.9835767
12	0x3f1ebcc4	0.62006783
13	0x3f1138a3	0.56727046
14	0x3f092d7b	0.5358502
15	0x3f3ff803	0.7498781
16	0x3f3ee256	0.7456411
17	0x3f335ce9	0.70063645
18	0x3f21abcf	0.63152784
19	0x3f1e3fe8	0.61816263
20	0x3f25fe6e	0.64841354
21	0x3f81c34e	1.0137727
22	0x3f00d8ce	0.5033082
23	0x3f0a6032	0.5405303
24	0x3f3c0d1a	0.7345749
25	0x3ef9bc05	0.4877626
26	0x3f0ccfd0	0.55004597
27	0x3f965436	1.1744449
28	0x3f2c5ef7	0.67332405
29	0x3ee9f84c	0.45697248
30	0x3f53d54d	0.82747346
31	0x3f3a67c3	0.7281458
32	0x3f37a1d1	0.7173129
33	0x3f0f3f6f	0.55956167
34	0x3f3d698c	0.73989177
35	0x3f0a4f96	0.5402769
36	0x3f21608a	0.6303793
37	0x3eda17ad	0.42596188
38	0x3f0d9ab4	0.55314183
39	0x3f0f3d72	0.55953133
40	0x3f1a2aa2	0.602213
41	0x3f018bea	0.50604117
42	0x3eadd521	0.33951667
43	0x3f34d4e3	0.7063734
44	0x3f166f60	0.58763695
45	0x3f2d3047	0.6765179
46	0x3ebe2593	0.37138042
47	0x3f0f97ae	0.5609082
48	0x3f71079d	0.9415224
49	0x3f200c4f	0.6251878
50	0x3f118f52	0.56859314
51	0x3f070a2b	0.5274989
52	0x3f3df40f	0.7420053
53	0x3f2ed885	0.6829913
54	0x3fb01f4c	1.3759551
55	0x3f35ab26	0.70964277
56	0x3f2569f4	0.64614797
57	0x3ec93c54	0.3930384
58	0x3f2b3e8f	0.6689233
59	0x3f8dea78	1.1087179
60	0x3f412ae6	0.7545608
61	0x3edc81a1	0.4306765
62	0x3f2061da	0.6264931
63	0x3f965a9f	1.1746405
64	0x3f0a3fac	0.54003406
65	0x3f0360ec	0.51319766
66	0x3ee5c130	0.44873953
67	0x3f386c48	0.72040224
68	0x3f18ac7d	0.59638196
69	0x3f2ac1de	0.6670207
70	0x3f7f3a03	0.99697894
71	0x3f459593	0.7718136
72	0x3ed7abaa	0.42123157
73	0x3f32ec8c	0.6989219
74	0x3efaaef9	0.4896162
75	0x3f9316f4	1.149138
76	0x3f0e69bf	0.55630106
77	0x3f3ba5e7	0.7330002
78	0x3f59362f	0.848483
79	0x3f14b08d	0.58081895
80	0x3f11bc01	0.56927496
81	0x3f0e1651	0.555028
82	0x3f6e6935	0.93129283
83	0x3f502ce3	0.8131849
84	0x3ebc56b1	0.3678489
85	0x3f6bc649	0.92099434
86	0x3f261e62	0.6489011
87	0x3f74d4dd	0.95637304
88	0x3f90a028	1.1298876
89	0x3f4e1c9e	0.80512416
90	0x3f7ff4f3	0.9998314
91	0x3f558689	0.8340841
92	0x3f04e3b5	0.51909953
93	0x3f1ad2e0	0.6047802
94	0x3efec5fc	0.49760425
95	0x3f02657f	0.5093612
96	0x3f0885fe	0.53329456
97	0x3f02dc0a	0.51117
98	0x3f5ddfce	0.86669624
99	0x3ee393ab	0.444486
100	0x3f0ae949	0.54262215
101	0x3f029993	0.51015586
102	0x3ef12732	0.47100216
103	0x3f042228	0.5161462
104	0x3f08220a	0.5317694
105	0x3f189118	0.59596395
106	0x3ee4d10e	0.44690746
107	0x3f4f0672	0.8086921
108	0x3f0f0403	0.55865496
109	0x3f01d168	0.50710154
110	0x3f4ef768	0.8084626
111	0x3ee12eaf	0.4398093
112	0x3f5e14dc	0.8675058
113	0x3f39214f	0.7231645
114	0x3f13a6bd	0.576763
115	0x3e8072ce	0.2508759
116	0x3f232d88	0.6374135
117	0x3f6dab68	0.9283967
118	0x3f25aa40	0.64712906
119	0x3f027968	0.509665
120	0x3f311277	0.691688
121	0x3f08dd63	0.5346281
122	0x3edcb0e4	0.43103707
123	0x3f122a9c	0.57096267
124	0x3f0475e6	0.517424
125	0x3f21e4c8	0.6323972
126	0x3f27c860	0.65540123
127	0x3f195745	0.5989879
128	0x3efb966d	0.49138203
129	0x3f6e7fae	0.93163574
130	0x3f2f7205	0.68533355
131	0x3ef31d7e	0.47483438
132	0x3ef5789c	0.4794358
133	0x3f1657f1	0.5872794
134	0x3f1d18a4	0.61365724
135	0x3f02bca7	0.5106911
136	0x3f531ff3	0.82470626
137	0x3f5bf381	0.8591843
138	0x3f2967bb	0.66173905
139	0x3ef1fbb9	0.47262362
140	0x3f75d518	0.9602828
141	0x3ef9b45b	0.48770413
142	0x3f8ad64f	1.0846652
143	0x3f17ef8e	0.59349906
144	0x3f3b3b6c	0.73137546
145	0x3efb25a8	0.49052167
146	0x3f0eff39	0.5585819
147	0x3f3f4d8b	0.74727696
148	0x3f251d35	0.6449769
149	0x3f39bafd	0.72550946
150	0x3f32d46e	0.6985539
151	0x3f368107	0.7129063
152	0x3f806227	1.0029954
153	0x3f25b3c2	0.64727414
154	0x3efdb8e4	0.49555123
155	0x3f445cea	0.76704276
156	0x3ed9ee3f	0.4256458
157	0x3f30e976	0.69106233
158	0x3f3c21f4	0.7348931
159	0x3f3c691c	0.73597884
160	0x3f1cb499	0.6121307
161	0x3f2e5b3a	0.6810795
162	0x3f09c370	0.5381384
163	0x3ef78ecc	0.48351133
164	0x3ed668fe	0.41876978
165	0x3efbfade	0.49214834
166	0x3f0db781	0.5535813
167	0x3eed71c8	0.4637587
168	0x3f2cd73e	0.67515934
169	0x3efdb8b8	0.49554992
170	0x3f9c665f	1.2218741
171	0x3f045329	0.5168939
172	0x3f946ce9	1.1595737
173	0x3f0bed4b	0.54658955
174	0x3f06786e	0.5252751
175	0x3f2f3649	0.6844221
176	0x3f446899	0.76722103
177	0x3f1f199c	0.6214845
178	0x3f406c5e	0.75165355
179	0x3ec1e631	0.37870935
180	0x3f4aad0d	0.79170305
181	0x3f439487	0.7639851
182	0x3f1bd091	0.6086512
183	0x3f24e3d5	0.64410144
184	0x3f2205f5	0.6329034
185	0x3f1be4c0	0.6089592
186	0x3f168065	0.58789665
187	0x3ef2d793	0.47430095
188	0x3f319610	0.693696
189	0x3e8f6e3f	0.280138
190	0x3f2197c0	0.6312218
191	0x3f3e9d97	0.74459213
192	0x3f0c5cc6	0.5482906
193	0x3f8b0e1e	1.0863683
194	0x3f3e9514	0.74446225
195	0x3f51f0e9	0.82008225
196	0x3f30b80f	0.6903085
197	0x3f1a5f4a	0.6030165
198	0x3f0e1808	0.5550542
199	0x3f21e0cc	0.6323364
200	0x3f145957	0.5794882
201	0x3f042533	0.5161926
202	0x3f0ac0ce	0.54200447
203	0x3f0c720d	0.5486153
204	0x3f00bdcb	0.502896
205	0x3efe98ba	0.49725896
206	0x3f2e1f62	0.68016636
207	0x3f98b77a	1.1930993
208	0x3ef02e59	0.4691036
209	0x3ec0d6af	0.3766379
210	0x3f4a1c4a	0.78949416
211	0x3f2a87af	0.66613287
212	0x3f1f5a36	0.62247026
213	0x3f46f424	0.7771628
214	0x3f1934bc	0.5984609
215	0x3f54239c	0.82866836
216	0x3f2049a4	0.62612367
217	0x3f3abdb5	0.7294572
218	0x3efbe36c	0.49196947
219	0x3f31d4f7	0.69465584
220	0x3f2036a9	0.62583405
221	0x3f024fd6	0.5090307
222	0x3f2cab3e	0.67448795
223	0x3f39982e	0.7249783
224	0x3ec146a3	0.37749204
225	0x3f252930	0.6451597
226	0x3f43ce98	0.7648711
227	0x3f13b364	0.57695603
228	0x3fa945a9	1.3224384
229	0x3f19928b	0.5998923
230	0x3f57d42c	0.84308124
231	0x3ee4636e	0.4460711
232	0x3f17cdb3	0.5929825
233	0x3f1ed15c	0.6203821
234	0x3ee95ceb	0.45578703
235	0x3ee035c7	0.4379103
236	0x3f6ee848	0.93323183
237	0x3f0fd0dd	0.56178075
238	0x3f17924b	0.592076
239	0x3f48ef2c	0.7848995
240	0x3ef06118	0.46949077
241	0x3f104a7a	0.5636364
242	0x3f2020fb	0.62550324
243	0x3efa41bf	0.48878285
244	0x3f1e9df9	0.619598
245	0x3f164706	0.58702123
246	0x3f93a24a	1.1533902
247	0x3f06446f	0.5244817
248	0x3f29b68e	0.6629418
249	0x3f1b75a5	0.60726386
250	0x3f284e20	0.6574421
251	0x3f1fe2ef	0.6245565
252	0x3f03ee6c	0.5153568
253	0x3eddda4d	0.43330613
254	0x3f012da0	0.50460243
255	0x3f17ea60	0.59342

bn1.bias f4 [256]
0	0xbee2615b	-0.442149
1	0xbf09e27f	-0.5386123
2	0xbf53fc01	-0.828064
3	0xbe76083e	-0.24026582
4	0xbee00737	-0.43755504
5	0xbea5a54c	-0.32352674
6	0xbf03255f	-0.512289
7	0x3e21a398	0.15785062
8	0xbe3d28e0	-0.18472624
9	0xbf37d74f	-0.7181291
10	0xbec78bbc	-0.38973796
11	0xbf1b41ed	-0.6064747
12	0xbea093be	-0.31362718
13	0xbf19566d	-0.598975
14	0xbf279d39	-0.6547428
15	0xbf301eb1	-0.6879683
16	0xbebcfe5c	-0.3691281
17	0xbea10729	-0.31450775
18	0xbf158612	-0.584077
19	0xbee3d469	-0.44497994
20	0xbf34732f	-0.70488256
21	0xbe781467	-0.24226533
22	0xbecc8bcc	-0.39950407
23	0xbf100f58	-0.5627341
24	0xbc962aaa	-0.01833089
25	0xbed0f339	-0.40810564
26	0xbf1a668e	-0.60312736
27	0xbe350558	-0.1767782
28	0xbf4d946b	-0.8030459
29	0xbeed46de	-0.4634313
30	0xbeb2ccba	-0.3492182
31	0xbf151834	-0.58240056
32	0xbee8bbf3	-0.45455894
33	0xbd4714e1	-0.048603896
34	0xbf462b60	-0.77409935
35	0xbe570413	-0.20997648
36	0xbec13855	-0.3773829
37	0xbd670ffc	-0.05641173
38	0xbeb72448	-0.35769868
39	0xbe95e1ba	-0.29273778
40	0xbf580d63	-0.84395427
41	0xbeea9b65	-0.45821682
42	0x3d88ccbc	0.06679675
43	0xbf0c2139	-0.54738194
44	0xbf50ef7f	-0.8161544
45	0xbee44387	-0.4458277
46	0xbeec5124	-0.46155655
47	0xbf1ae954	-0.6051228
48	0xbe96e1e0	-0.29469204
49	0xbf260801	-0.64855963
50	0xbea73376	-0.3265645
51	0xbf6786c7	-0.9044003
52	0xbe25e559	-0.1620077
53	0xbf3abf0e	-0.72947776
54	0xbee00841	-0.43756297
55	0xbf158eea	-0.58421195
56	0xbefae028	-0.48999143
57	0xbf1ec333	-0.620166
58	0xbe6ae8d8	-0.22940385
59	0xbf15dd16	-0.58540475
60	0xbd43162f	-0.047628578
61	0xbe927eba	-0.2861231
62	0xbe07a2ec	-0.13245744
63	0xbee3f2d1	-0.44521192
64	0xbf24d1aa	-0.6438242
65	0xbb532286	-0.0032216622
66	0xbeab4d86	-0.33457583
67	0xbedae1b6	-0.4275033
68	0xbed64980	-0.4185295
69	0xbcf403a5	-0.029786894
70	0xbe8f7e2a	-0.28025943
71	0xbf45d2ab	-0.7727458
72	0x3d8e8e4b	0.06960734
73	0xbede26fb	-0.43389115
74	0xbe120f44	-0.14263636
75	0xbe83ac67	-0.2571747
76	0xbed827f7	-0.4221799
77	0xbe238805	-0.15969856
78	0xbea1956b	-0.3155931
79	0xbf0fbf64	-0.56151414
80	0xbf3c2aa4	-0.73502564
81	0xbf3c7843	-0.73621005
82	0xbf1b30f0	-0.6062155
83	0xbee664b1	-0.44998696
84	0xbe737222	-0.23774007
85	0xbe42b377	-0.19013773
86	0xbf022eea	-0.50852835
87	0xbe9e00da	-0.30860025
88	0xbf01fafe	-0.5077361
89	0xbec4d05f	-0.38440225
90	0xbe740ca1	-0.23832943
91	0xbec44732	-0.38335568
92	0xbf1c34ea	-0.6101824
93	0xbf064bda	-0.5245949
94	0xbd95ada2	-0.073085085
95	0xbeb3befa	-0.3510664
96	0xbf4aa9a0	-0.7916508
97	0xbf21161b	-0.62924355
98	0xbefd574f	-0.49480674
99	0xbf1e8ba2	-0.6193181
100	0xbf7c91e0	-0.9866009
101	0xbef75ad3	-0.4831148
102	0xbf12c189	-0.5732656
103	0xbf113267	-0.5671753
104	0xbed3378d	-0.4125332
105	0x3c26d839	0.010183387
106	0xbed97071	-0.42468598
107	0xbeaa2b35	-0.3323609
108	0xbeef0340	-0.46682167
109	0xbe73e611	-0.23818232
110	0xbf281bcd	-0.6566742
111	0xbed7444a	-0.42044288
112	0xbe43ae46	-0.19109449
113	0xbeb53f17	-0.35399696
114	0x3d9e52a6	0.07730608
115	0x3d5dec4e	0.054180436
116	0xbf4c22bb	-0.79740494
117	0x3df340fc	0.11877629
118	0xbdfd62f6	-0.12372391
119	0xbf45266f	-0.7701177
120	0xbef7d04c	-0.48401105
121	0xbf0a435c	-0.5400903
122	0xbf111e4b	-0.5668685
123	0xbf1a53e6	-0.6028427
124	0xbefdc8a5	-0.49567142
125	0xbf035a51	-0.51309687
126	0xbf28e617	-0.6597609
127	0xbf10503b	-0.5637242
128	0xbef59c76	-0.47970933
129	0xbe5fb50c	-0.21846408
130	0xbeebe5a5	-0.46073642
131	0xbf07c135	-0.53029186
132	0xbe8a3acc	-0.26997983
133	0xbf198c09	-0.599793
134	0xbf43b7c1	-0.7645226
135	0xbf3b77a2	-0.7322942
136	0x3decf320	0.1156981
137	0x3c80675e	0.01567429
138	0xbb9ceeca	-0.004789208
139	0xbf213506	-0.6297153
140	0xbee55398	-0.4479034
141	0xbf297306	-0.66191137
142	0xbe91320d	-0.28358498
143	0xbf0075b9	-0.5017963
144	0xbe76dada	-0.24106923
145	0xbf2a40ef	-0.6650533
146	0xbf0dd0da	-0.5539681
147	0xbe80b0f1	-0.25134996
148	0xbf0a98ad	-0.54139215
149	0xbf1d5a9a	-0.6146637
150	0xbeae804e	-0.34082264
151	0xbd12bd6c	-0.035825178
152	0x3c95880f	0.018253354
153	0xbd33b6ea	-0.043875612
154	0xbf2529a4	-0.64516664
155	0xbeebd7c2	-0.46063048
156	0xbecaa344	-0.39577687
157	0xbf45c6e6	-0.7725662
158	0xbf05c892	-0.5225917
159	0xbf251500	-0.6448517
160	0xbf21eceb	-0.63252133
161	0xbf2c1cd1	-0.6723147
162	0xbdbe0e33	-0.09280052
163	0xbeb2fda2	-0.3495913
164	0xbe63623e	-0.22205445
165	0x3e0f41a4	0.13989884
166	0xbee57a60	-0.44819927
167	0xbf0fd3e4	-0.56182694
168	0xbecfc50c	-0.40580022
169	0xbec6133e	-0.38686556
170	0xbecc5275	-0.3990666
171	0xbf49ef4a	-0.7888075
172	0xbe8c1bbc	-0.2736491
173	0xbf289602	-0.65853894
174	0xbf030c02	-0.511902
175	0xbeb0b184	-0.34510434
176	0xbe86cb3b	-0.26326928
177	0xbe29296d	-0.16519709
178	0xbeff748e	-0.49893612
179	0xbe5665a6	-0.20937213
180	0xbe9059d0	-0.28193521
181	0xbe918560	-0.2842207
182	0xbf18cc54	-0.5968678
183	0xbef5589d	-0.4791917
184	0xbf0514a8	-0.51984644
185	0xbf3934d7	-0.7234625
186	0xbf4c9588	-0.79915667
187	0xbf0aa394	-0.5415585
188	0xbf13f504	-0.5779574
189	0x3e227456	0.15864691
190	0xbf0ec7ae	-0.5577344
191	0xbedda6c1	-0.43291286
192	0xbf420677	-0.75791115
193	0xbe60963a	-0.21932307
194	0xbe5d31a0	-0.21600962
195	0xbee4baf3	-0.4467388
196	0xbf23b9dd	-0.6395548
197	0xbe4df3c0	-0.20112514
198	0xbf5486da	-0.8301827
199	0xbeb79658	-0.3585689
200	0xbf0b84c7	-0.5449948
201	0xbea1575a	-0.31511956
202	0xbf2bf00b	-0.6716315
203	0xbf3288b7	-0.6973986
204	0xbee25300	-0.4420395
205	0xbec77741	-0.3895817
206	0xbd4c813c	-0.049927935
207	0xbef48b88	-0.47762704
208	0xbf44878b	-0.7676932
209	0x3c2b1d01	0.010443927
210	0x3e9ffa99	0.31245878
211	0xbf67509a	-0.90357363
212	0xbf2d921a	-0.6780106
213	0xbf16fe5e	-0.58981884
214	0xbef1cfd4	-0.47228873
215	0xbea24eb3	-0.31700668
216	0xbf084ce1	-0.5324231
217	0xbef93648	-0.48674226
218	0xbf0522d7	-0.52006286
219	0xbf0b540b	-0.54425114
220	0xbf161528	-0.5862603
221	0xbed0aaaa	-0.40755206
222	0xbed42b70	-0.4143939
223	0xbee7459b	-0.45170292
224	0xbf1a03c5	-0.60162
225	0xbef7856d	-0.48343983
226	0xbf02692e	-0.5094174
227	0xbf1276e0	-0.5721264
228	0xbe9e4816	-0.30914372
229	0xbf07f822	-0.53112996
230	0xbf140d68	-0.57832956
231	0xbeb8e015	-0.3610846
232	0xbec8f443	-0.39248857
233	0xbf297021	-0.6618672
234	0x3df2e4c9	0.118600436
235	0xbec68cfb	-0.38779435
236	0xbedf2efe	-0.4359054
237	0xbf5d35d9	-0.8641029
238	0xbf29e045	-0.66357833
239	0x3e12a8f4	0.14322263
240	0xbf46c5a9	-0.77645355
241	0xbf0de654	-0.5542958
242	0xbeec4cd6	-0.4615237
243	0xbf187e88	-0.5956807
244	0xbf08d76e	-0.5345372
245	0xbf28b818	-0.65905905
246	0x3e0b2889	0.13589682
247	0xbf058042	-0.5214883
248	0xbf05786f	-0.5213689
249	0xbf2e89d5	-0.68179065
250	0xbf179418	-0.5921035
251	0xbf295691	-0.66147715
252	0xbf41c238	-0.7568698
253	0xbf0cbb77	-0.5497355
254	0xbf4a33c2	-0.78985226
255	0xbf47a32e	-0.7798337

bn1.running_mean f4 [256]
0	0x3f503b63	0.81340617
1	0x3babac1a	0.005239022
2	0xbf840592	-1.03142
3	0xbe257e6f	-0.16161512
4	0x3d2c63ee	0.042087488
5	0xbe9134fd	-0.2836074
6	0x3dfc976c	0.12333569
7	0x3fd8a976	1.6926715
8	0x400f6ea2	2.2411275
9	0x400a3d68	2.159998
10	0xbfbaac7c	-1.4583888
11	0x3dbdcb07	0.0926724
12	0x3ec7b0a7	0.39001963
13	0xbfc6d814	-1.5534692
14	0xbf954cab	-1.1664022
15	0xbec8ec02	-0.3924256
16	0x3fad234c	1.3526397
17	0xbc6e09cb	-0.014528702
18	0xbf082341	-0.53178793
19	0x3eb34dfc	0.35020435
20	0xbed1e4cd	-0.40994874
21	0xbda235ca	-0.07920416
22	0xbeab581c	-0.3346566
23	0xc00a3669	-2.159571
24	0xbd995764	-0.074873716
25	0x3e050ac1	0.12992384
26	0xbf373ffe	-0.7158202
27	0x3ec1146a	0.37710887
28	0xbef534af	-0.47891757
29	0xc01a98c5	-2.4155743
30	0x3fed6192	1.8545401
31	0xbfad8fcc	-1.3559508
32	0x405a4fd0	3.4111214
33	0x402d1120	2.7041702
34	0xbf115dd2	-0.56783783
35	0x3fad73e5	1.3550993
36	0x3eff2895	0.4983565
37	0x3fc9a8e6	1.5754669
38	0xbe4e1172	-0.20123842
39	0x3edbbd63	0.42917928
40	0x3f295943	0.6615183
41	0xc0482b29	-3.1276343
42	0xbf90ef03	-1.132294
43	0xbefc9b0b	-0.49337038
44	0xc0231ec9	-2.548754
45	0xbe7b9a1c	-0.24570507
46	0x3f019d83	0.5063097
47	0xbf8d442d	-1.1036431
48	0x3e6d601c	0.23181194
49	0xbf3b4cc3	-0.73164004
50	0x3f2fc837	0.6866488
51	0xc04b0f28	-3.1728
52	0x3ea60766	0.3242752
53	0x3f960887	1.1721352
54	0x3e567cb4	0.20946008
55	0xbe55d847	-0.20883285
56	0x3fa6aabd	1.3020855
57	0x4041115e	3.016685
58	0x3f3f8275	0.74808437
59	0xbea41683	-0.32048425
60	0x3faa625d	1.3311268
61	0x3ea139d6	0.31489438
62	0xbf033b8a	-0.51262724
63	0x3eacfd2b	0.33786902
64	0xc001e149	-2.0293753
65	0x3fab9ca8	1.3407183
66	0xbfd2ed4a	-1.6478665
67	0xc077b1e2	-3.870232
68	0x3e22e901	0.15909196
69	0xbf09673c	-0.5367315
70	0xbcb11abb	-0.021619191
71	0x3daef205	0.08542255
72	0x3fa510ca	1.2895749
73	0xbf774c8a	-0.96601164
74	0xbf5a9399	-0.85381466
75	0x3e6c6cb0	0.23088336
76	0xbf8c358b	-1.095384
77	0xbdf64851	-0.12025512
78	0xbfc00cb0	-1.5003872
79	0x3e4de840	0.20108128
80	0x3e0968f0	0.13418937
81	0xbfcef1d0	-1.6167545
82	0xbf5e16a6	-0.8675331
83	0xbeb05743	-0.34441575
84	0xbf5143ce	-0.81744087
85	0xbbea31ca	-0.0071470486
86	0xbde884ce	-0.113534555
87	0x3e8de37f	0.27712628
88	0xbe811db3	-0.2521797
89	0x3e855c81	0.26047137
90	0x3f103d2d	0.56343347
91	0x3f249089	0.64283043
92	0xbfd05fdf	-1.6279258
93	0x3eddb389	0.43301037
94	0x3ed98741	0.42486003
95	0x3fb5b4fd	1.4195858
96	0x3fe00bd5	1.7503611
97	0xbfb69fc0	-1.4267502
98	0xbf73d503	-0.95246905
99	0xbf7cd868	-0.9876771
100	0xc08a0d51	-4.3141255
101	0xbfc42e13	-1.5326561
102	0xbf5f456f	-0.8721532
103	0x3e652aa2	0.22379544
104	0x3f84e86e	1.0383432
105	0x3fadbd04	1.3573308
106	0xbf1c8218	-0.6113601
107	0x3fb96422	1.4483683
108	0xc03f60ef	-2.9902914
109	0x3fc5ebed	1.5462624
110	0xbea98cfe	-0.3311538
111	0x3c9676fd	0.018367285
112	0x3f38ef14	0.72239804
113	0xbe3aa77d	-0.18227954
114	0x3f806ed7	1.0033826
115	0x3f2e1882	0.68006146
116	0x3f56a931	0.83851916
117	0x3f9a819d	1.2070805
118	0xbfb83a19	-1.439273
119	0xbf9913ec	-1.1959205
120	0x3e55c5fd	0.20876308
121	0xbf618418	-0.88092184
122	0xbf49c74a	-0.78819716
123	0xbfeb0d6e	-1.8363473
124	0x3f2e6cce	0.6813477
125	0xbfb97b50	-1.4490757
126	0x3fb8182f	1.438238
127	0xbd24d36d	-0.040240694
128	0x40228455	2.539327
129	0x3dd4a87b	0.103836976
130	0x40317e5e	2.7733378
131	0xc00c485f	-2.1919172
132	0xbd335e61	-0.04379118
133	0xbe2fac81	-0.17155649
134	0xbfd98de5	-1.6996428
135	0xbf3901ee	-0.7226857
136	0x3f803637	1.0016545
137	0x3f2aa88b	0.66663426
138	0xbea6d2c7	-0.32582685
139	0xbe8220a7	-0.25415537
140	0x3e811d72	0.25217777
141	0x3fada761	1.3566705
142	0xbddf3078	-0.108979166
143	0x3ed382a2	0.41310602
144	0xbf47c4d3	-0.78034705
145	0x3fb79b66	1.4344299
146	0x40019b32	2.0250974
147	0x3fa13f3b	1.2597421
148	0x402f782a	2.7417092
149	0x3eae64fd	0.34061423
150	0xbf70577b	-0.93883485
151	0x3e844a27	0.25837824
152	0xbc9da13d	-0.019241923
153	0xbee4810a	-0.446297
154	0x3eb3e295	0.35133806
155	0xbcc7c682	-0.024386648
156	0xbfbcd979	-1.4753867
157	0x3e8ef5a2	0.27921778
158	0xbd8a9477	-0.06766599
159	0xbf86b619	-1.0524322
160	0xbfa24b14	-1.2679162
161	0x3e429064	0.19000393
162	0x3fa1a102	1.2627261
163	0x3e077236	0.13227162
164	0x3ade55f5	0.0016962873
165	0x3f0d350a	0.55159056
166	0xbe0b9047	-0.13629256
167	0xc00384af	-2.0549734
168	0xbf835bec	-1.0262427
169	0xbfef447f	-1.8692778
170	0xbd45be5b	-0.04827724
171	0xbe70fde1	-0.23534347
172	0xbdf59a86	-0.11992364
173	0xbf5f1079	-0.8713451
174	0xbfa0bc14	-1.2557397
175	0x3fc30d1c	1.5238376
176	0xbd833716	-0.06406991
177	0x3ee9176a	0.45525676
178	0xbfbdef91	-1.4838735
179	0x3e04fadf	0.12986325
180	0x3eb9dfc8	0.36303544
181	0xbedb2687	-0.42802832
182	0xbf0cb6cf	-0.54966444
183	0x3f0adf2c	0.54246783
184	0x3fd635c3	1.6735157
185	0xbfac7f94	-1.3476434
186	0xbfbb35d1	-1.4625798
187	0x3f243c06	0.6415409
188	0x3ee12e81	0.43980792
189	0x3fb382b8	1.4024267
190	0x3e94ff7f	0.29101178
191	0xbfa8c175	-1.3184038
192	0x3eb35ee3	0.3503333
193	0x3e2c88d9	0.16849078
194	0x3eb246e9	0.34819725
195	0xbe88151c	-0.26578605
196	0x3e927968	0.2860825
197	0x3e8ae697	0.2712905
198	0x3f1e1dea	0.61764395
199	0xbf12485d	-0.5714167
200	0xbf63f5c3	-0.8904688
201	0xbfb8ac06	-1.4427497
202	0x3f063682	0.5242692
203	0xc0016adc	-2.0221472
204	0xbe157608	-0.14595807
205	0xbeebc652	-0.46049744
206	0x3fdd1d26	1.727452
207	0xbeddc610	-0.43315172
208	0xc000ae1c	-2.0106268
209	0x3f22bb43	0.6356699
210	0x3f6c3f6d	0.9228428
211	0xbfb4b316	-1.4117153
212	0xbf8492f0	-1.0357342
213	0xbf996aaa	-1.1985676
214	0xbe6d0d76	-0.23149666
215	0xbe61596f	-0.22006772
216	0xbeff67a3	-0.49883756
217	0xbdc23065	-0.09481887
218	0x3e1e6cbe	0.1547117
219	0x3f1440bb	0.5791127
220	0xbf1a895d	-0.6036585
221	0xbfed9b58	-1.8563032
222	0x3fc2a0cc	1.5205321
223	0xbf1eedbe	-0.62081516
224	0xbf3b51ea	-0.73171866
225	0xbf2ed061	-0.6828671
226	0xbeda0cea	-0.42587978
227	0xc010cb8b	-2.2624233
228	0xbed92b27	-0.42415735
229	0xbf7de68c	-0.9917991
230	0x3f0451b0	0.51687145
231	0x3f4efd04	0.8085482
232	0x3e81af64	0.25329125
233	0xbf96920b	-1.1763319
234	0xbe467feb	-0.19384734
235	0x3cf653e9	0.030069308
236	0xbe8de171	-0.2771106
237	0xbf9435df	-1.157894
238	0x3ff561ff	1.9170531
239	0x3f08dc02	0.53460705
240	0x3e38626a	0.18006292
241	0xc090bde8	-4.523182
242	0xbe5ce6f9	-0.21572484
243	0xbf1af302	-0.6052705
244	0xbfe6bfd1	-1.8027288
245	0xbfa37c80	-1.2772369
246	0x3e192ef5	0.14959319
247	0xc01147e5	-2.270013
248	0xbeb11ad6	-0.34590787
249	0xbfd2d9f7	-1.6472768
250	0x3e9c7eba	0.30565435
251	0xbff0a52b	-1.8800405
252	0xc02dbded	-2.7147171
253	0xbf8abd5d	-1.0839039
254	0xbf747969	-0.9549776
255	0xbfcafb76	-1.585799

bn1.running_var f4 [256]
0	0x4154b2c8	13.293648
1	0x4163f0d3	14.246295
2	0x41445607	12.271003
3	0x3f2bdefc	0.6713712
4	0x4148d381	12.551637
5	0x415a262c	13.634319
6	0x41607361	14.028169
7	0x4047f7f5	3.124509
8	0x41090ef2	8.566149
9	0x4091059d	4.531935
10	0x41075bb1	8.459886
11	0x40bca860	5.8955536
12	0x413b9dd9	11.726037
13	0x401ba2b4	2.4318056
14	0x40f7b894	7.7412815
15	0x415cd074	13.800892
16	0x4145698d	12.338269
17	0x3fedc34f	1.8575228
18	0x414bba8d	12.733045
19	0x40af4175	5.4767404
20	0x412df773	10.872912
21	0x406ad9f8	3.6695538
22	0x40146ce9	2.3191473
23	0x40fddd11	7.9332356
24	0x3fa2b6b4	1.2712007
25	0x413c2128	11.758095
26	0x413672c3	11.403018
27	0x40f9b5fd	7.8034654
28	0x40a323a9	5.098103
29	0x40e966f2	7.2938166
30	0x41f1c253	30.219885
31	0x418f96b7	17.948591
32	0x412271ac	10.152752
33	0x41435a8f	12.209609
34	0x41936774	18.425514
35	0x40ef65b1	7.4811635
36	0x41051faa	8.3202305
37	0x4138bd2e	11.546186
38	0x410d8ea7	8.847327
39	0x41230f4a	10.191233
40	0x4127949c	10.473782
41	0x4067c4a8	3.621378
42	0x41216121	10.086213
43	0x40b58ec6	5.6736784
44	0x40a8f6cd	5.280127
45	0x41cc787f	25.558836
46	0x4067e831	3.6235468
47	0x40e885a6	7.2663145
48	0x40951500	4.6588135
49	0x400b2ae4	2.1744928
50	0x40e66f5d	7.201094
51	0x411b4762	9.704927
52	0x410ed6fb	8.927485
53	0x412a93fb	10.661128
54	0x40972555	4.723307
55	0x41313861	11.076264
56	0x413d6a1c	11.838406
57	0x405754cb	3.3645504
58	0x40ce51be	6.4474783
59	0x40c64764	6.1962147
60	0x41f5921a	30.696339
61	0x3fcea9b3	1.6145538
62	0x41247a8a	10.279917
63	0x4085c573	4.1803527
64	0x40b2d993	5.5890594
65	0x417ab270	15.668564
66	0x40f88abe	7.7669363
67	0x4144287b	12.259883
68	0x41a65f90	20.796661
69	0x40c08984	6.0167866
70	0x40a09d03	5.0191665
71	0x41245a1e	10.272001
72	0x40aa36ab	5.3191733
73	0x40f4313a	7.631009
74	0x41148c3e	9.284239
75	0x40f17348	7.5453224
76	0x41b924ec	23.143028
77	0x411e81ee	9.906721
78	0x407efcae	3.9841723
79	0x41331f1b	11.195094
80	0x40daab78	6.8334312
81	0x40d291c3	6.580293
82	0x41362e46	11.386297
83	0x410f652a	8.962198
84	0x4035cce7	2.8406312
85	0x404d325d	3.206199
86	0x41244491	10.26674
87	0x411d3832	9.82622
88	0x40b93a54	5.78837
89	0x40007313	2.0070236
90	0x40e2f6fa	7.0926485
91	0x418208d1	16.254305
92	0x414230cb	12.136912
93	0x419b5d02	19.420414
94	0x40a35c7b	5.105039
95	0x4120050a	10.00123
96	0x409e3b7d	4.9447618
97	0x408c7f3f	4.390533
98	0x40b9aabe	5.8020926
99	0x40b06bd9	5.513165
100	0x40ba89a6	5.829303
101	0x418ca82e	17.582119
102	0x4109f0bf	8.621276
103	0x40bed243	5.9631667
104	0x408d3290	4.412422
105	0x41034f7c	8.206905
106	0x40bc4f61	5.88469
107	0x412ab410	10.668961
108	0x41317034	11.089893
109	0x40e5b5b9	7.178433
110	0x40acb8db	5.3975654
111	0x40865aae	4.1985693
112	0x40d86a11	6.7629476
113	0x3f2ca4dd	0.6743906
114	0x40b0b0cb	5.521581
115	0x40802c56	4.005412
116	0x4104bec0	8.29657
117	0x40ebd091	7.36921
118	0x42298c20	42.38684
119	0x41407549	12.028634
120	0x40ba3658	5.8191338
121	0x40f00524	7.5006275
122	0x40692449	3.6428397
123	0x40c120a2	6.0352335
124	0x40760957	3.84432
125	0x40a0b065	5.0215325
126	0x40d26b43	6.5755935
127	0x40eee8a2	7.4658976
128	0x40d2c572	6.586602
129	0x40b5d20a	5.6818895
130	0x41abdac7	21.481825
131	0x4172bd37	15.171195
132	0x417cd296	15.801413
133	0x4164837d	14.282102
134	0x41330a43	11.190005
135	0x4021718a	2.5225549
136	0x40507341	3.2570345
137	0x4227c479	41.941868
138	0x4030e4c7	2.7639635
139	0x40befdd3	5.9684844
140	0x40097370	2.1476707
141	0x40890903	4.28235
142	0x408e05fc	4.4382305
143	0x40ac8e86	5.392398
144	0x410e66d0	8.900101
145	0x40ec1536	7.377589
146	0x4193b6da	18.464283
147	0x3f8c1648	1.09443
148	0x417a24e9	15.634011
149	0x40e964bc	7.2935467
150	0x413eee12	11.933123
151	0x3f4cee71	0.8005133
152	0x413dbb02	11.858156
153	0x3fc3c4b2	1.5294402
154	0x411e38ae	9.888838
155	0x3f3b39d3	0.7313511
156	0x3fd32967	1.649701
157	0x41ba2210	23.266632
158	0x41626851	14.150468
159	0x408d54c1	4.416596
160	0x4155c110	13.359634
161	0x413eb87a	11.920038
162	0x411837ad	9.513593
163	0x41a10e67	20.132032
164	0x41028db4	8.1595955
165	0x4113591a	9.209253
166	0x41307a37	11.029838
167	0x410310a3	8.191562
168	0x41ad3d3c	21.6549
169	0x4137e028	11.492226
170	0x40976d9b	4.7321296
171	0x413c1a05	11.756352
172	0x40b78fed	5.736319
173	0x40d15c43	6.5425124
174	0x40a3f255	5.1233315
175	0x41c1e87e	24.238522
176	0x3f4e4198	0.8056884
177	0x41897192	17.180454
178	0x3ff264e0	1.8937035
179	0x40dcfe1d	6.9060197
180	0x414f13a8	12.942299
181	0x403f6c0e	2.9909701
182	0x40dfe514	6.9967136
183	0x40d08ba8	6.517048
184	0x4198b443	19.088018
185	0x40e0e8a9	7.028401
186	0x40860ab9	4.188809
187	0x40ed7daa	7.42159
188	0x3fab2c43	1.3372883
189	0x40d4afdc	6.646467
190	0x41e20603	28.252935
191	0x41f8a764	31.081734
192	0x410eb9c1	8.92035
193	0x408e904a	4.4551134
194	0x414176af	12.0914755
195	0x40b24ffc	5.5722637
196	0x41a97458	21.181808
197	0x407c0938	3.9380627
198	0x410ee3a8	8.93058
199	0x4212da96	36.713463
200	0x416d4786	14.829962
201	0x4053089e	3.297401
202	0x4095128f	4.6585155
203	0x41340655	11.251546
204	0x409902b4	4.78158
205	0x4081771c	4.0457897
206	0x41a26ba2	20.302555
207	0x4098d397	4.775829
208	0x40e6848f	7.2036815
209	0x4101bb4e	8.108229
210	0x41e2e960	28.363953
211	0x4129148c	10.567516
212	0x40feb2bb	7.9593177
213	0x3fc7bc43	1.5604328
214	0x412e50fa	10.89477
215	0x40236bcf	2.553455
216	0x40940175	4.625178
217	0x40ee0288	7.437809
218	0x409fb82d	4.9912324
219	0x4099883b	4.7978797
220	0x40f811e5	7.7521844
221	0x40d073cd	6.514136
222	0x41404b3c	12.018368
223	0x41bd5e27	23.670973
224	0x409a8405	4.8286157
225	0x41789393	15.536029
226	0x3f646e43	0.89230746
227	0x422a63eb	42.597576
228	0x40a97185	5.2951074
229	0x41848d37	16.568953
230	0x410bbf33	8.7341795
231	0x415e65ff	13.899901
232	0x4108d09b	8.550929
233	0x407b3d95	3.9256337
234	0x409c62ae	4.887046
235	0x406038b9	3.503462
236	0x40f36349	7.60587
237	0x41136650	9.212479
238	0x413a87f4	11.658192
239	0x408775a2	4.2331095
240	0x40848b2a	4.141988
241	0x41088a0c	8.533703
242	0x4184ac60	16.584167
243	0x409658c1	4.698334
244	0x410710a9	8.441567
245	0x41236c62	10.213961
246	0x40b57f47	5.671787
247	0x410bc5cf	8.735793
248	0x408fe479	4.4966397
249	0x405aee93	3.4208114
250	0x416dbbfe	14.858397
251	0x4181cc9d	16.224909
252	0x408d82cc	4.4222164
253	0x41a7ea09	20.989275
254	0x4124b93d	10.295224
255	0x4089b618	4.3034782

fc2.weight f4 [256, 260]
0	0xbc9597ae	-0.018260803
1	0x3d98f64a	0.07468851
2	0xbd92d4b6	-0.07169478
3	0xbd10271d	-0.03519355
4	0xbccec066	-0.025238227
5	0xbd20e715	-0.039282877
6	0xbd5e1626	-0.05422034
7	0xbc9e844d	-0.019350195
8	0xbbe49125	-0.0069753104
9	0xbd5d12a6	-0.053972863
10	0xbd817330	-0.063207984
11	0xbdc31cbf	-0.09526967
12	0x3c9bf149	0.019035952
13	0xbd370ed9	-0.044691894
14	0x3d9b07b1	0.075698264
15	0x3d7c7916	0.061638914
16	0xbc81f20e	-0.015862491
17	0xbde1c6d6	-0.11024253
18	0xbd6e17bc	-0.058128104
19	0xbc0c4646	-0.008561676
20	0x3d0987b4	0.033576682
21	0xba40afe0	-0.0007350426
22	0xbceb3070	-0.02870962
23	0x3d29a35b	0.041415554
24	0xbe0b250a	-0.13588348
25	0x3be29952	0.00691525
26	0xbd5739b5	-0.052545268
27	0x3c236877	0.009973637
28	0xbdf039c4	-0.11729768
29	0xbdcee693	-0.10102572
30	0x3da472a9	0.08029682
31	0xbb8d3678	-0.0043094717
32	0xbda37fc7	-0.07983356
33	0xbd279f51	-0.04092342
34	0xbcb2d7d0	-0.021831423
35	0xbe1f824f	-0.15577053
36	0x3cd7755d	0.02630108
37	0xbd3b41b9	-0.045716975
38	0xbd670123	-0.05639757
39	0xbaed818d	-0.0018120274
40	0x3c541093	0.012943405
41	0xbcab003c	-0.020874135
42	0xbde35ea1	-0.111020334
43	0xbd8c3c8a	-0.068474844
44	0xbc020feb	-0.007938365
45	0xbd03a303	-0.032137882
46	0xbd872cf0	-0.06600368
47	0xbd410d10	-0.047131598
48	0xbc18668b	-0.009301792
49	0xbd5e9a14	-0.05434616
50	0x3b06e4ad	0.0020583079
51	0xbd9e2fee	-0.077239856
52	0x3cf93690	0.030421525
53	0xbd6f19c9	-0.0583742
54	0x3d9cfbb2	0.076651946
55	0xbcb3c90f	-0.021946458
56	0xbdb43a7a	-0.08800216
57	0xbd1a2924	-0.03763689
58	0xbe06647f	-0.13124274
59	0xbc843d8e	-0.016142633
60	0xbda220b8	-0.07916397
61	0xbd4333b2	-0.047656722
62	0xbdd89b31	-0.105764754
63	0xbdccc17e	-0.09997843
64	0x3db739aa	0.089465454
65	0xbdcbd752	-0.099531785
66	0xbd94763e	-0.072491154
67	0xbd335ec5	-0.04379155
68	0xbdf0b440	-0.1175313
69	0x3cb0f12e	0.021599378
70	0xbd92c235	-0.07165948
71	0xbd28da7c	-0.041223988
72	0xbd023cc8	-0.031796247
73	0xbd6954d5	-0.056965668
74	0xbdb63a53	-0.08897843
75	0x3d2177d5	0.03942092
76	0xbe016f95	-0.12640221
77	0xbc34ee30	-0.011043116
78	0xbdb3266e	-0.08747564
79	0xbd0b9104	-0.034073845
80	0xbd93fe26	-0.07226209
81	0xbc856b11	-0.016286405
82	0xbd694751	-0.05695278
83	0xbd9d06c8	-0.07667309
84	0xbdd67216	-0.10470979
85	0x3cf5111e	0.029915389
86	0xbcd8e646	-0.02647699
87	0xbdd954c4	-0.10611871
88	0x3d253efe	0.040343277
89	0xbcf019cd	-0.029309178
90	0xbdbfccad	-0.09365211
91	0xbdf74cd3	-0.120752
92	0xbd426707	-0.047461536
93	0xbd3fa4ba	-0.046787955
94	0xbdb43733	-0.08799591
95	0xbd6f83df	-0.05847537
96	0x3dc44d19	0.09585018
97	0xbd3adec4	-0.045622602
98	0x3c5802e6	0.013184285
99	0xbd60cc57	-0.054882374
100	0x3ca1c2a0	0.019746125
101	0xbd5ed49f	-0.05440199
102	0xbd7102f7	-0.058840718
103	0x3d89eab8	0.06734222
104	0xbcebbd3d	-0.02877676
105	0xbdb2ae1b	-0.08724614
106	0x3cca5fb7	0.024703844
107	0xbd750b6a	-0.05982534
108	0xbdf220b5	-0.118226446
109	0xbb88ee78	-0.0041788183
110	0xbda9e009	-0.082946844
111	0xbc3e2371	-0.01160513
112	0xbe0357a5	-0.12826402
113	0xbbb9cf69	-0.005670477
114	0xbda9c3a7	-0.08289271
115	0xbd16370a	-0.036673583
116	0xbda03b72	-0.07823838
117	0xbda41dd0	-0.08013499
118	0xbdb7b7fb	-0.08970638
119	0x3d7eb964	0.06218852
120	0xbdd555b9	-0.10416741
121	0xbde60b46	-0.11232619
122	0xbc9151ff	-0.017739294
123	0xbd734e79	-0.05940101
124	0x3c2ce68e	0.010553015
125	0xbbf649af	-0.007516108
126	0xbd7605a1	-0.060063962
127	0xbd39409d	-0.045227636
128	0xbcd2d7d6	-0.025737684
129	0x3cbec0b3	0.023285246
130	0xbdf9f841	-0.12205554
131	0x3bd679fb	0.006545303
132	0xbd88f42c	-0.06687197
133	0x3d752855	0.059852917
134	0xbcaac7e3	-0.020847267
135	0xbda3fa1d	-0.0800669
136	0xbdd7db58	-0.105398834
137	0x39c76eec	0.0003803888
138	0xbd9bce4b	-0.07607707
139	0xbd0e5602	-0.034749992
140	0x3b89e755	0.004208485
141	0xbdc42a2d	-0.09578357
142	0xbdccd85e	-0.10002206
143	0xbda0c819	-0.078506656
144	0xbc4a6429	-0.012352982
145	0xbd27f8e0	-0.04100883
146	0x3cd1640a	0.025560398
147	0xbc30e70a	-0.0107972715
148	0xbc3e5072	-0.011615859
149	0xbc14c3cc	-0.009079885
150	0xbd94a37a	-0.07257743
151	0x3d2a1006	0.041519187
152	0xbda3d349	-0.07999284
153	0xbda36a29	-0.07979233
154	0xbd5694af	-0.05238789
155	0xbde8f163	-0.11374166
156	0xbd6c026e	-0.057619505
157	0x3c60b357	0.013714633
158	0xbd8f40aa	-0.069947556
159	0xbdb1724a	-0.08664377
160	0xbd487330	-0.048937976
161	0x3caca7dc	0.021076135
162	0x3cd48ac6	0.025945079
163	0xbd19f8b4	-0.037590697
164	0xbd71bb24	-0.05901636
165	0xbd444a7d	-0.0479226
166	0xbc63a6fc	-0.013894793
167	0xbd823ef9	-0.06359667
168	0xbd856404	-0.06513217
169	0xbd3ca15b	-0.046052318
170	0x3d7bf053	0.061508488
171	0xbde26a92	-0.11055483
172	0xbd7c5a7f	-0.06160974
173	0xbd818454	-0.06324068
174	0xbe1974e0	-0.1498599
175	0x3ccb6649	0.024829047
176	0xbd9c2a82	-0.07625295
177	0xbe074452	-0.13209656
178	0x3bef392d	0.007300517
179	0xbdb749da	-0.08949633
180	0xbdb5614e	-0.0885645
181	0xbd2b6081	-0.04184008
182	0x3d787c44	0.060665384
183	0xbd1d3f96	-0.03839072
184	0xbc85833e	-0.016297933
185	0xbdc71936	-0.097216055
186	0xbc8fc687	-0.01755072
187	0xbc231f97	-0.009956262
188	0xbdf7de35	-0.121029295
189	0xbc8f25c4	-0.017474063
190	0xbcba8be2	-0.02277178
191	0x3d1f0cdc	0.038830623
192	0xbd66ca36	-0.056345187
193	0xbd5a6772	-0.05332131
194	0xbdbf9d25	-0.09356145
195	0xbdc85a0d	-0.09782801
196	0x3d0156da	0.03157697
197	0xbe1b207d	-0.15149112
198	0xbdcc86f2	-0.09986676
199	0xbd943c11	-0.07238019
200	0xbddce523	-0.10785892
201	0x3d55a055	0.052154858
202	0x3bf4cd3e	0.007470756
203	0xbc0314cc	-0.008000564
204	0xbda7e214	-0.08197418
205	0xbce31d50	-0.027723938
206	0xbcd84683	-0.02640081
207	0xbde09fc7	-0.10967975
208	0xbcd6f487	-0.026239647
209	0xbc9f67d5	-0.01945869
210	0xbdd3fa87	-0.10350519
211	0xbb2b4684	-0.002613456
212	0xbd9cc659	-0.07655019
213	0xbcbdf8b9	-0.02318989
214	0xbdd3f1f4	-0.10348883
215	0xbb184e53	-0.0023240044
216	0xbd2c0ac1	-0.042002443
217	0xbc22ff9f	-0.00994864
218	0xbd20ea44	-0.039285913
219	0xbc0dab38	-0.008646779
220	0xbc66fdd9	-0.014098608
221	0xbd6b5f08	-0.057463676
222	0x3cba1e44	0.02271951
223	0x3d285285	0.04109432
224	0xbe02d102	-0.12775043
225	0xbd1e1263	-0.038591754
226	0xbd598034	-0.05310078
227	0x3d09541d	0.033527482
228	0xbdf92e54	-0.121670395
229	0xbe123331	-0.1427734
230	0x3c959589	0.01825978
231	0xbd8bfe3c	-0.06835601
232	0xba9a9ec0	-0.0011796579
233	0xbd801c8c	-0.06255445
234	0xbdae13cd	-0.084998704
235	0xbd9e9d29	-0.0774482
236	0xbd4e367e	-0.050344937
237	0xbdefbe15	-0.11706177
238	0xbd3e4264	-0.046450034
239	0xbd5a70f0	-0.05333036
240	0x3d530380	0.05151701
241	0xbd9a0ff6	-0.075225756
242	0xbe2f1480	-0.17097664
243	0xbdd057f1	-0.101730235
244	0xbd03a962	-0.032143958
245	0xbc22185e	-0.009893505
246	0xbe052bee	-0.13005039
247	0xbabad84b	-0.0014255134
248	0xbcaa1595	-0.020762244
249	0xbdd8c8c9	-0.10585172
250	0xbcede22f	-0.029038517
251	0x3baf1e0f	0.0053441594
252	0xbda17e4c	-0.07885417
253	0xbdbabf70	-0.09118545
254	0x3cc8f412	0.024530444
255	0xbe05e986	-0.13077363
