no_bn_checkpoint_critic.pth (torch, 437997 bytes, 7 tensors)

fcs1.weight f4 [256, 33]
00000000: 7a0d 97be b40e f23c 9770 13be ff7c 6a3c
00000010: 4070 0fbe e0f0 14bd 6243 1fbd f589 0fbe
00000020: 6142 9cbd e981 803f e913 383e b187 883e
00000030: d717 713e e041 ed3d e703 e5bc 6f0e 603e
00000040: d83d 533d 7b63 c43d cadc b6bd 4646 24be
00000050: d384 3a3e d704 933e 5a63 5cbe 18f8 2c3e
00000060: 6615 6ebe 7ad2 39be 571c 343e b6b5 093f
00000070: 4747 683d 8df7 7e3c eaef 8cbe a1a3 03be
00000080: 1e65 9ebf dc93 343d 6ebd 42bd f478 893e
00000090: 458c b2bc ba0c 073d 1d9f 3d3d 6dc2 a93e
000000a0: 7f53 21be 17fb fa3e b1e3 a7bd bfb3 08bf
000000b0: ead7 c3bd 82ec 61be 0c98 eb3b 5651 d03e
000000c0: 4376 0dbf 1a31 1ebd 5c37 3abe ce58 f03d
000000d0: 128e 763d 0b80 a6bd a51e bdbd d66c 9b3e
000000e0: 6061 cd3e e542 7fbd a848 f23d a1f6 2a3e
000000f0: 2aae b73e 9989 aa3c 2009 0b3e f822 ecbe
00000100: 1988 88bd 3a9f 063f 0c60 003f 2d9d d23e
00000110: 3b4f 93bd db27 f13b 06d5 af3e 82f5 d3be
00000120: 0ef1 40be 6111 02be 2b67 bdbc b619 4b3e
00000130: 571a 0d3e 43e6 0b3e 1437 4aba ca22 8abe
00000140: 6a87 b83d 4706 a6be 9abb b3be c152 babe
00000150: 9cbf b8be 49ba cc3d 4320 c23d 240d 57bd
00000160: 143e 4abc 4f8f da3d 5dbb 793e cf8b 9bbd
00000170: b50d 873e 0663 df3e 7a84 113e 9eda 79bd
00000180: 27af 10bf 9410 013e 4cb4 81bf 3c4f 5a3e
00000190: c3d9 373f 5b3e c23d a10f b2bc 029f 82be
000001a0: af2f 21be 9be7 b63e f359 843d 30dd 3e3b
000001b0: 7697 7c3d bc07 1f3e 2fef 18be e4aa 04bf
000001c0: 6169 f8be 2ca2 e83d 4dc4 343d b953 123d
000001d0: 1a4a 1bbe c414 28b9 8043 babd bdc2 0cbd
000001e0: 7b11 71be c0c4 99bc b79b 09be c5b0 eb3d
000001f0: c8bc 913b de95 b83e 5427 483f 624c 503d
00000200: 593a 933d 6e99 10bf 9d71 fcbd 8dfe d9be
00000210: 78c4 55be f9a7 20be a984 6b3c 5d11 ab3d
00000220: 4169 b2be 9e47 9e3e 0257 39be 6b96 663e
00000230: 6331 1d3f 4062 cabd e97d 9e3e 7780 103b
00000240: da7d 193e c37f 143d a572 213f 4005 ad3e
00000250: 1bce 6f3e b795 d6be 5310 973e 366a 593e
00000260: db5f 2e3e 6856 203e 71e3 c8bd 76c2 233e
00000270: 46ba 6ebe 8a6d 8b3e 80ff 223e e56f 103f
00000280: ce16 4e3b b485 d6bd 27b6 1dbf f0f3 883b
00000290: 506b f2bd f22b 1a3e b514 613e 6dbc ac3d
000002a0: fc24 0d3d 5047 d23d 37a7 e93c c8e7 7b3e
000002b0: 18ab 083e e757 57be 95f1 82be c545 1abd
000002c0: 9182 0cbd 784e dc3c d931 70be 58a3 6a3d
000002d0: 092f 1cbc faf9 2a3c 454e 46bd 9083 af3c
000002e0: acbb c63c fe76 79bd a3b8 513e e258 49bd
000002f0: bd6d 7cbe d9a4 33bd faca d83d 4859 5e3e
00000300: 4960 1e3f 689a 6cbe 2318 413b bfc5 cabe
00000310: 533d b23d 1f32 16c0 5b12 80bd a7ee 843e
00000320: 4a58 78be 2db7 033e d6aa 52be 54a0 a2bc
00000330: 5b65 03bd 1201 90b6 02b3 1ebe cdbc 22be
00000340: ad1a 563e f037 013e 27a7 a73d 930b 803e
00000350: c0d1 00be fb59 f03e 2a96 bfbd f0bb d7bc
00000360: b446 99bd 6d7f 28bd 2048 bcbc c4ca 8b3d
00000370: 31f0 2b3d 8fa9 c93d 611a 2dbe f226 c93d
00000380: 0230 26be e162 843e c0b8 9bbe e431 8abc
00000390: e9dc 8bbe 184f 9abb d71e e1bf ca7f acbe
000003a0: ed00 5e3e 1fe3 aabe 707d c4bd d96b 783d
000003b0: 9ea4 943d eda1 343e 1d7e 47be bdcb 8bbe
000003c0: 21cd 893e 2d4f 563e aef0 003e 0313 79bd
000003d0: a37b 113e 445f 58bd 139e 4f3e 0dfe fc3c
000003e0: 97c8 4b3a 34ee cabc d91b 0b3e b37d 8dbb
000003f0: 398d 53be 7192 c03e e560 733e b48a 4ebd
-0.2950247 0.029548027 -0.14398418 0.014312028 -0.14007664 -0.03636253 -0.03888262 -0.1401747
-0.07629848 1.0039645 0.17976345 0.26666024 0.2354425 0.1158483 -0.027955962 0.21880506
0.05157265 0.09589287 -0.08928831 -0.16042432 0.18214731 0.2871463 -0.21522275 0.16891515
-0.2325035 -0.18146697 0.17588936 0.53792894 0.0567086 0.01556195 -0.2752679 -0.12855388
-1.2374609 0.044086322 -0.047543935 0.26850092 -0.021795401 0.03297112 0.04629432 0.33156148
-0.15754507 0.4901969 -0.081977256 -0.5339927 -0.09562667 -0.22062877 0.0071897563 0.40687054
-0.5525858 -0.038621046 -0.1818518 0.11735688 0.060194083 -0.08129891 -0.092343606 0.30356473
0.40113354 -0.062319655 0.11830264 0.16695644 0.35875064 0.020817565 0.135777 -0.4612043
-0.066665836 0.5258671 0.50146556 0.4113554 -0.071928464 0.0073594875 0.3434221 -0.41398245
-0.18841955 -0.12701942 -0.023120483 0.19834027 0.13779579 0.13662057 -0.0007713896 -0.26979667
0.09010203 -0.32426664 -0.35104066 -0.3639126 -0.36083686 0.099964686 0.0947881 -0.052502766
-0.012343902 0.10671865 0.2438788 -0.07595026 0.26377645 0.43630236 0.14210692 -0.060999505
-0.5651726 0.1260398 -1.0133147 0.21319288 0.71816653 0.094845496 -0.021735968 -0.25511938
-0.15740846 0.35723576 0.06462469 0.0029123537 0.061667882 0.15530294 -0.14934991 -0.5182326
-0.48517898 0.11359057 0.04413252 0.035724375 -0.15164986 -0.00016029464 -0.09094906 -0.034365404
-0.23541825 -0.018770576 -0.13438307 0.115083255 0.0044475533 0.3605184 0.7818501 0.050854094
0.07188863 -0.56484115 -0.123263575 -0.4257702 -0.20875728 -0.15689076 0.01437489 0.08352921
-0.34845927 0.30914015 -0.18099597 0.22518317 0.61403483 -0.09882021 0.30955437 0.0022049227
0.14989415 0.036254656 0.6306556 0.33793068 0.23418467 -0.41911098 0.29504642 0.21231923
0.17028753 0.15657961 -0.09809006 0.1599215 -0.23313245 0.2723201 0.15917778 0.5642074
0.0031446698 -0.104747206 -0.6160607 0.0041794702 -0.118368745 0.15055826 0.21980555 0.08434377
0.0344591 0.10267508 0.028522117 0.24600136 0.13346517 -0.21029626 -0.25574937 -0.037664194
-0.034304205 0.026892886 -0.23456515 0.057284683 -0.009532698 0.010435576 -0.048414487 0.021425039
0.02425941 -0.060904495 0.2048059 -0.04915703 -0.24651237 -0.043858383 0.1058559 0.21713746
0.6186567 -0.23105776 0.002946385 -0.39603993 0.08703103 -2.3468091 -0.06253501 0.25963327
-0.2425243 0.12862845 -0.20572981 -0.019851841 -0.032079082 -4.291659e-06 -0.15497974 -0.15892334
0.20908614 0.12618995 0.08186179 0.2500883 -0.12580013 0.4694365 -0.093548134 -0.026334733
-0.07484189 -0.041137148 -0.02298361 0.06825784 0.04197711 0.09846794 -0.16904594 0.09821881
-0.16229251 0.2585669 -0.3041439 -0.016869493 -0.2731698 -0.0047091357 -1.7587537 -0.33691245
0.2168004 -0.33376405 -0.09594238 0.060649727 0.07257961 0.17639895 -0.19481702 -0.27303877
0.26914313 0.2092864 0.12591812 -0.060809147 0.1420732 -0.052825227 0.20275144 0.03088286
0.00077737257 -0.024771787 0.13584842 -0.004317963 -0.20659341 0.37611726 0.23767431 -0.050425246

fcs1.bias f4 [256]
00000000: 21d6 edbe f4ef c1be cc52 87be 29c5 08bf
00000010: 7875 27bf ff60 1cbf 998e cdbe fdd6 1ebf
00000020: 5568 91be b7b0 a9be 0098 67be d897 d1be
00000030: f3ed 43bf 2798 0fbf e5dc 20be 290c 58bf
00000040: 98ff 8dbe 5bde 5abf 8991 e6be 0fe6 a5be
00000050: b97b 08bf fea1 fabe c0d7 8cbe bd76 f0be
00000060: 7fa4 febd a6f0 dfbe d827 2dbf 64ba 6dbf
00000070: 36c9 aebe 51bf 55be 3311 14bf 882e 41be
00000080: cf23 14be b26a 87bd 327d a93c c622 e7be
00000090: 2114 bbbd b46d 38bf 91c1 0abf c6a8 083e
000000a0: d408 4dbf d0f0 abbe e374 99be 11ff 17be
000000b0: 4148 b6be 533e d3be 0190 9abe a805 dbbe
000000c0: 937b 27bf 395c 92be 676e f3bd b618 b5be
000000d0: 80c4 a63e 7268 46be e176 95b9 1dd1 84be
000000e0: d408 49bd 3c3a 35be 616e 47be 11d7 2dbe
000000f0: 6120 17bf 4a58 773d e527 ebbe 8531 c7be
00000100: 1cf0 ddbe ab49 53be d207 16bf 0662 1dbf
00000110: 60c7 ddbe 6ebe a2be 3d4b 32be 22c3 debe
00000120: 714b 1d3c 536a 2abe 46fe e6bd 940f 47be
00000130: 0130 22bf 4223 cbbe 0ee3 1ebf a943 1dbf
00000140: 3346 69be dcd1 fabe 5d06 03bf bca5 22be
00000150: c319 19bc 56c7 debd c914 d8be b167 05bf
00000160: 6f72 153d 02cb aebe e8d0 773d 0aee 13bf
00000170: 72b5 0bbe 8b5b 9bbe 6f38 04bf 1d80 b5bd
00000180: 70fa f8be 4360 bebe 3a53 26bf d7f5 d8be
00000190: 25ee 0bbf 704a bdbe 76aa dfbd 7e8b 3abe
000001a0: 9ea8 2abf c085 a4be 95f5 0cbf dd22 a8be
000001b0: 16e3 ecbe d33c f1be 63da 98be 2a5c f1be
000001c0: ab32 9cbe 4cd6 87be 7aa2 bbbe c61d 10be
000001d0: a4f7 33bf 3297 8cbe 3a56 2fbf b3e9 67be
000001e0: 48d5 21be 590f d5be c9de 36bf 02b3 78be
000001f0: b1f3 10bf d199 0fbf 3683 97be 92c2 bdbe
00000200: 575d 9fbe d382 2bbf f706 86be c335 aebe
00000210: 9087 59be 8226 38be 1050 1cbf fbcd f3bd
00000220: e2b2 5a3e 58b5 00bf 19d3 b6be 3c10 42be
00000230: b0af b7bd 7a07 4bbf 5c49 0d3e a0e1 b4be
00000240: 1fda e5bd ff8a b93c 7ecb 0dbf 276d f3be
00000250: 62cc cbbe bb16 5dbe 1c37 01bf 9c7c e3be
00000260: 99e6 efbd 2e8c febe adbc dbbe 8340 efbe
00000270: c9a5 debe 5cd5 2ebf a6b1 15bf 787b 2dbf
00000280: 7a72 91be 28ab 8fbe 4d19 b1bd b5f9 fdbe
00000290: aa88 04bf 7a9c 3a3d 3261 b1be edc7 64be
000002a0: 4958 d5be 2226 05bf cf85 8abe 99f5 d8be
000002b0: 9eb5 98be 1ff8 b23c 415e 0e3e f051 8bbe
000002c0: a0a9 debe aad8 7ebe 94bf 0abf 0065 df3a
000002d0: 2e3e 663e be71 2ebf 4b3c 84be fb87 30be
000002e0: 7c25 a43d b99d a4be 47de e1be 3a8f e8be
000002f0: d953 963d ece7 d8be 1560 11bf 1926 79bf
00000300: f1dd 04be 1c38 96be a1b9 9abe 18c7 c6bd
00000310: ac38 ae3b 77a7 bbbd 905f 16bf cd31 36bd
00000320: dfc1 ddbe eaa6 27bf bbbf 0ebf 7dda b7be
00000330: 790f 14be 54de 3d3d 73a6 60bf 58bb b2be
00000340: f12a c7be fcc1 3abe b8bb 20bf 832f a0be
00000350: 1892 aebe 5046 bdbe 2f3d 27be 1396 14be
00000360: 20a7 afbe c292 4bbe fc18 1ebf b46b 9a3e
00000370: 49a3 17bf 8eb5 4cbe ed91 eabd 55e2 e03d
00000380: 6a97 2ebe 9ac2 dabe 0053 64bf a7bf ebbe
00000390: a1d3 1dbf 3273 f9be ae25 22bf e9b1 debe
000003a0: 93d6 03bf 41ec 80be 4e5f 05bf 493c b13d
000003b0: e3c6 b1be da22 b7be 2dc3 21bf 5670 5fbe
000003c0: 7df1 27bf 7c09 1ebf 7b89 d0bd 86fb 0ebf
000003d0: 9680 2abf 8dc3 9ebe 5c36 9a3e 01be aabe
000003e0: c533 dabd 8ca6 d5be b702 b3be 3ac3 bbbe
000003f0: afe1 88be 529f f3be 00ca 62bf 4060 26bf
-0.4645243 -0.37878382 -0.26430357 -0.5342584 -0.6541362 -0.61085504 -0.40147856 -0.62046796
-0.28399912 -0.33142635 -0.22616577 -0.4093616 -0.76534957 -0.5609154 -0.15709265 -0.84393555
-0.27734065 -0.8549554 -0.4503291 -0.32402083 -0.53313786 -0.48951715 -0.27508354 -0.4696559
-0.12433719 -0.43738288 -0.6763892 -0.92862535 -0.34137887 -0.20873763 -0.57838744 -0.18865407
-0.14466785 -0.066121474 0.02068958 -0.45143718 -0.09134699 -0.72042394 -0.5420161 0.13345632
-0.80091596 -0.33582163 -0.2997199 -0.14843394 -0.35602 -0.41258487 -0.3018799 -0.42777753
-0.65422934 -0.28585985 -0.11886292 -0.35370415 0.32571793 -0.1937578 -0.00028508066 -0.2594079
-0.049080685 -0.17697996 -0.194757 -0.16976573 -0.5903378 0.060386933 -0.45928875 -0.38904968
-0.4334725 -0.20633571 -0.5860568 -0.61477697 -0.43316174 -0.3178591 -0.17411514 -0.4350825
0.009600506 -0.16642122 -0.112789676 -0.19439536 -0.633545 -0.39675337 -0.6206521 -0.61431366
-0.22780685 -0.48988235 -0.51181585 -0.15883535 -0.009344521 -0.10877864 -0.42203358 -0.52111346
0.036486086 -0.34139258 0.060501963 -0.57785094 -0.13643435 -0.3034328 -0.5164861 -0.08862326
-0.4862857 -0.37182817 -0.64970744 -0.4237506 -0.54660255 -0.36970854 -0.10921185 -0.18217275
-0.6666354 -0.32133293 -0.5506223 -0.328391 -0.46267003 -0.47116718 -0.29854116 -0.47140628
-0.30507407 -0.26530683 -0.36647397 -0.14073858 -0.70299745 -0.27459103 -0.68490946 -0.22647743
-0.15804017 -0.41613272 -0.71433693 -0.24287036 -0.56621844 -0.5609408 -0.29592294 -0.37062508
-0.311259 -0.66996497 -0.2617719 -0.34025392 -0.21243119 -0.1798344 -0.61059666 -0.11904522
0.21357301 -0.5027671 -0.3570793 -0.18951505 -0.089690566 -0.79308283 0.13797516 -0.35328388
-0.11223244 0.022649286 -0.5538863 -0.47544214 -0.3980437 -0.21590702 -0.50474715 -0.44431007
-0.11713905 -0.49716324 -0.42917386 -0.46728906 -0.4348586 -0.6829431 -0.58474195 -0.67766523
-0.2840765 -0.2806027 -0.08647404 -0.49604574 -0.5177103 0.045559384 -0.34644467 -0.2234189
-0.4166892 -0.5201131 -0.27055213 -0.42374876 -0.29826063 0.021846829 0.13903143 -0.2721095
-0.4348879 -0.24887338 -0.54198575 0.001704365 0.22484657 -0.68142307 -0.2582725 -0.17239372
0.08014962 -0.32151583 -0.44114897 -0.45421773 0.073402114 -0.42364442 -0.56787235 -0.9732376
-0.12975289 -0.29339683 -0.3021975 -0.09705943 0.0053168144 -0.09162801 -0.58739567 -0.044481087
-0.43311974 -0.65489066 -0.5576131 -0.3590888 -0.14459027 0.046354607 -0.8775398 -0.34908557
-0.3889995 -0.18238062 -0.62786436 -0.3128625 -0.34095836 -0.36967707 -0.16331933 -0.14510374
-0.34307194 -0.19880202 -0.61756873 0.30160296 -0.5923353 -0.19991133 -0.114536144 0.109806694
-0.17049947 -0.42726594 -0.8918915 -0.46044657 -0.61651045 -0.487207 -0.63338745 -0.4349511
-0.5149929 -0.25180247 -0.5209855 0.086540766 -0.3472205 -0.35768777 -0.6318844 -0.21820197
-0.65602857 -0.6173322 -0.10182472 -0.55852544 -0.66602457 -0.31008568 0.30119598 -0.33348086
-0.106544055 -0.41728628 -0.3496301 -0.36672384 -0.26734683 -0.4758249 -0.8858948 -0.64990616

fc2.weight f4 [256, 260]
00000000: 8323 b4bd 6dba 5bbc acba 59bd b2a2 9a3c
00000010: 9de1 0fbd 9748 3ebd ea94 89bd 904f 38bd
00000020: 8ffc c53c 690d 8cbb 8b13 6dbb 5a85 d9bc
00000030: f366 153d 2a0d 04bb 8300 273c 1de5 f83c
00000040: 2c59 02bd 2492 9cbd ccf2 c4bc c178 b6bc
00000050: d877 50bd 502b 6f3d 6cfc 4a3d 47dd 293c
00000060: e3ea e6bc a566 183d 83d1 d3bd 8af1 533d
00000070: 0a0e b0bd bf9a 1ebd 4e72 923d f493 923c
00000080: 9b1a 83bd caed b8bd 4bad 32bd 7a3c a1bd
00000090: 39f6 96bd 1698 0fbd 5daf 543c db77 4c3d
000000a0: 2f92 2f3d 25b4 04bd 7c3f 6bbd 067a 92bd
000000b0: 12a1 da3c ae3a 08bc 3738 03bd 8dda 9fbc
000000c0: ff7d 613d 2d69 51bd ca95 86bc a557 82bd
000000d0: ef2a 55bb 7179 b1bd a272 3a3d 760a b93c
000000e0: 4f87 a9bd 61fb 42bd e51e 84bd 892e fcbb
000000f0: 3060 c9bb 8036 94bc 3a90 8bbd 8687 26bd
00000100: d4bf 9b3d c5fd 8bbd 60cf 5ebd 21a7 83bc
00000110: 315c 8ebd 85bb 913b 1741 ebbc 085c 67bd
00000120: d883 e8bc b064 2dbd 2cba bcbd bc1e 0fbc
00000130: 76f2 33bc 5f85 18bd 293d 0b3d 39fb 063d
00000140: d6e2 8fbd 936f ad3c 5545 483b 5dfb 90bd
00000150: 5960 82bd 6587 eebb 8a2a dcbc ecd7 bfbc
00000160: a38f 14bd ba9a 83bc ac25 92bd 3135 e83b
00000170: 4b44 4ebd f2d8 b2bc 70a7 a0bd f11b 61bb
00000180: fdb7 223d ca24 e43a 7996 3b3c 9df3 c43c
00000190: 3c8c 1bbd bef9 cf3b 3a10 10bd 873b 983c
000001a0: fa20 e63c d740 cebd 1662 dd3c 70c7 cabc
000001b0: ed6e 14ba 0e47 a23c 86e7 0abd 5163 dc3c
000001c0: 5b3b 97bd 4925 593c 850d 9dbd ae57 073d
000001d0: 08a9 43bd 1194 a1bd a3b3 18bd 46ab d73c
000001e0: 1f49 4fbd 6f5e 95bd 88e6 803b 585b edbd
000001f0: 1d85 913b fb07 04bc d0d1 fcbc 0549 62bd
00000200: 6d0c 523d a9e6 f83c e201 82bd e8a2 983c
00000210: 18df babd b7f9 1abd 5b92 393d ab1d dabd
00000220: bd4b 70bd ee1f af3c ab49 10bd f3f5 693d
00000230: ab4e 2a3d 8940 3ebc 06ea 4bbd 5c87 b7bd
00000240: 4385 333d 0970 25bd 832b 10bb 0225 1e3d
00000250: d1a1 aa3d 479b 70ba 1fa2 ef3c 0923 de3c
00000260: 69a5 5fbd d6a0 483b 1563 40bd 4d3f 91bd
00000270: de92 fcbb 9caf 9c3b 2993 ed3c 7bbc 2cbd
00000280: 3918 363b a7b7 053d a7a9 79ba 8832 a6bd
00000290: 1d62 99bc f672 77bd a569 55bd 0c84 fbbc
000002a0: 40a7 8abd e9de 81bd 46a1 723d 627e 83bd
000002b0: b10d 8cbd e572 4c3c 1a0f 93bd 2ce2 10bd
000002c0: 899e be3c 1f07 83bd 0b50 243d fd14 a8bd
000002d0: beac 3ebd 7a14 d13c f3f0 e23c f6bf adbd
000002e0: 7e53 7cbd 6ece e6bd fdd8 7abc 3d88 ee3c
000002f0: 15bb 42bd 436f 3abd 45a8 94bd c021 273b
00000300: 86a2 ccbc 444e 52bd 0fdf 86bd a9d2 f6bb
00000310: 6e44 73bc 1536 6ebd c575 5fbd 6e96 b8bc
00000320: 4ae6 4bbd 4ec7 a0bc bf72 2b3d 59dd 3ebd
00000330: 028c 12bd 458c febc 4ef3 103b f65e c5bd
00000340: d2e6 83b9 02fd c33c d06f 34bd 061b f9bc
00000350: edc2 13bc 9e00 c53c 00e5 90bd 674c 943b
00000360: d5dc 243d 2138 2dbc 7279 383d 411b 34bc
00000370: 8e74 86bb aee1 b2bc d699 4bbd ccb4 553d
00000380: a007 92bd 97fe debc 9467 c3bc 1429 1dbd
00000390: 352e 88bd 739e 55bd 1f72 a1bc d485 4cbd
000003a0: a841 fe3b e9a8 2bbd 37e3 5dbd 90b0 29bd
000003b0: 6889 ed3c 9db0 46bd 809d 0dbd dd4d 0fbc
000003c0: 93da e33c cef2 7cbd 28ca 23bd f7f7 48bd
000003d0: b11e 62bd c760 f7bc 36d8 4fbd 4f17 163d
000003e0: bf43 89ba ccf6 e7bb 4a2f 90bb 44f7 ba3c
000003f0: 4e53 87bd 0ade 71bd 0477 313d bee4 b0bd
-0.08795836 -0.013411147 -0.05315654 0.018876407 -0.03512727 -0.046455946 -0.06717856 -0.04499775
0.02416828 -0.0042740596 -0.0036174979 -0.026552845 0.036475133 -0.0020149448 0.010192993 0.030382687
-0.031823322 -0.076450616 -0.024041556 -0.022274377 -0.050895542 0.058390915 0.049557135 0.010367698
-0.028188175 0.037207264 -0.103426956 0.05174402 -0.08596428 -0.038721796 0.07150708 0.017892815
-0.06401559 -0.0902973 -0.043622296 -0.07872863 -0.07371182 -0.03505715 0.012981263 0.04991899
0.04286402 -0.03239836 -0.05743359 -0.071521804 0.026688132 -0.008314772 -0.032036033 -0.019513393
0.0550518 -0.051125694 -0.016428847 -0.06364373 -0.003252681 -0.08665741 0.04551948 0.022587996
-0.08277761 -0.047603015 -0.06451205 -0.007695977 -0.0061454996 -0.018092394 -0.068146184 -0.04065659
0.07604948 -0.06835512 -0.054396987 -0.016070904 -0.06951178 0.004447403 -0.02871756 -0.056484252
-0.02838318 -0.04233235 -0.09215197 -0.008735355 -0.0109831 -0.037236568 0.033993874 0.03295443
-0.070256874 0.021171367 0.0030558903 -0.07079194 -0.06366033 -0.007279324 -0.026875753 -0.02341839
-0.036269795 -0.01606499 -0.071360916 0.007086419 -0.050358098 -0.021831963 -0.07844436 -0.003434893
0.039726246 0.0017405984 0.01144945 0.024041945 -0.037975535 0.0063469103 -0.035171725 0.018583072
0.028091896 -0.10070961 0.02702431 -0.024753302 -0.0005662281 0.019809272 -0.033912204 0.026902827
-0.07384368 0.013253518 -0.07668594 0.033042602 -0.047768623 -0.078895696 -0.03728069 0.026326787
-0.050606843 -0.072934024 0.0039337315 -0.11589688 0.004440917 -0.008058543 -0.030861765 -0.055245418
0.05128138 0.030383425 -0.06348015 0.018632367 -0.09124583 -0.037835803 0.04530559 -0.1065019
-0.05866598 0.02137753 -0.035226505 0.05711932 0.04157893 -0.011612066 -0.04978373 -0.089613646
0.04382826 -0.04039005 -0.0021998591 0.038609512 0.08331645 -0.00091784116 0.02925211 0.027116315
-0.054601107 0.0030613444 -0.046969492 -0.07092152 -0.0077079376 0.0047816765 0.029000835 -0.042171936
0.0027785434 0.032645848 -0.00095238764 -0.08115107 -0.018723542 -0.06041237 -0.052102704 -0.030702613
-0.06770182 -0.06341345 0.059235834 -0.0642059 -0.06838549 0.012478565 -0.07180615 -0.035371944
0.023268955 -0.063978426 0.040115397 -0.08207128 -0.04655146 0.02552246 0.027702784 -0.08483879
-0.06160306 -0.11269842 -0.015310523 0.029117698 -0.047541697 -0.045516264 -0.07258657 0.0025502294
-0.024979841 -0.05134417 -0.06585514 -0.007532437 -0.014847858 -0.058157045 -0.054555673 -0.022532668
-0.049780168 -0.019626286 0.041857477 -0.046597812 -0.035778053 -0.031072745 0.0022117677 -0.09637253
-0.00025158242 0.023924354 -0.044051945 -0.030408394 -0.009018642 0.024048146 -0.07074928 0.0045257094
0.040249664 -0.010572464 0.045037694 -0.010992826 -0.00410325 -0.021836128 -0.049707256 0.052174374
-0.071303606 -0.027221007 -0.0238531 -0.038369253 -0.06649438 -0.052153062 -0.019707737 -0.049932316
0.0077592917 -0.041909132 -0.054171767 -0.04142815 0.028996184 -0.048508275 -0.03457403 -0.008746591
0.027814185 -0.061754994 -0.039987713 -0.049064603 -0.05520505 -0.030197514 -0.050743304 0.036643323
-0.001047246 -0.007078981 -0.0044001685 0.022822984 -0.06607686 -0.059049644 0.043326393 -0.08637379

fc2.bias f4 [256]
00000000: 7af5 a737 a823 9a3f 33e9 823c bd8f 6f3b
00000010: 80ce e5bd 465c 9abe b74a 28bd b385 39be
00000020: 0603 03bd 41c5 883e 421f 96bd 86e2 49be
00000030: f668 dfbd e705 dfbd 19e2 a1bc b0ac 473e
00000040: e3dc 853e fe73 60bd fc3e 3bbd c752 1ebe
00000050: b50b cdbc 9b39 80bb cd3c 453e a824 5cbd
00000060: a439 0a3f 0bb1 5fbe 4549 d93e c353 83bd
00000070: 7a5e c3be 5b48 313f 6dd9 99bd 9d54 91bc
00000080: 5b4b 9dbc 1faa 07be a650 67bd 1486 eebd
00000090: d5c6 1cbf d579 38be ea44 18be 46b0 9fbe
000000a0: 9273 003e 308b a1bd 8c4f 6f3c a1f1 a43c
000000b0: 4e22 333f cf9a 1c3c 221f 10bd e27b 1cbc
000000c0: 7021 873e 8c22 2f3e ead7 80bd 22cc 7cbd
000000d0: 8086 d83b bfb8 08bc f83e d7bd af46 a1be
000000e0: 4a8e ccbd b6a9 30bd 5639 9bbd 6b4f b5bd
000000f0: e409 883e 0e2d 873b adf7 e4bd a4e6 be3e
00000100: 0e16 4fbc 5598 8ebb 97c3 bd3e 16e6 91bd
00000110: c2dc a1bd 9922 ddbd 16a4 e4be 1770 21bf
00000120: 87df 76bc e268 f4be c82a 96bd 32c4 f03e
00000130: 354d ffbe 7165 babc 646f 833d a0bd f0be
00000140: 0e0a 43bc b48b 613c e9dc 73bd ce45 aabd
00000150: b142 e5bd 2f15 52be ef06 783e 33bc 2b3d
00000160: a62f f5bd daf3 d9bd 9687 c4be 1d75 a5be
00000170: 4ed6 1abf f521 ecbe 8ec7 79be a62e d43e
00000180: 2686 f6be a4cd 66bc 7a4a e0be 8454 9fbd
00000190: 0c0d abbd 2ae0 80be 76cc a9be acd7 b73e
000001a0: d851 9fbe 5440 1f3f b133 133b bdca ff3d
000001b0: 10a5 c1bc 4b04 03bd 288c 01bf caee 1ebe
000001c0: 558b 30bd d554 de3e e78d b9be 43b4 c9bc
000001d0: b40f bdbd 2cb0 afbe fcda 0fbd 9d1b 5dbd
000001e0: de3c f23d 7ddc 4bbd 680d 07bf 14d7 913c
000001f0: ac0c 11bf fd90 fbbe 933d b6bd 9a76 c3be
00000200: 176a 3dbd 7cb3 34be b2e3 1bbe 4373 c33e
00000210: 59fd 033e 1f22 22bf f188 4f3f 7456 d43e
00000220: 6f7b 443f 4a70 e9be 3c54 b6bd b050 c4be
00000230: 1fc8 dabd f4d2 7bbe 745d 99bd 6751 07bf
00000240: ceb0 ddbe 02d8 95be 729f 463e 65bc 55be
00000250: b98c 36bf c15a cbbd 02d9 b2bd 8773 c6bd
00000260: 6b1f 373f b6c7 4cbe bbd8 61bd 91ef 52be
00000270: e70f f7be 190b 723b 4346 c5bd f4f5 36bd
00000280: 16fc 313f 788a b1bd 8206 dfbe 44d7 93be
00000290: 51d0 1d3c 3de1 193d 753c 273e b792 c3bd
000002a0: 8da7 223f d55a 4d3f a3b0 c2bc 6c98 98be
000002b0: 58c5 05bf fb2f d8be 2e6e 3d3f a8d3 3fbd
000002c0: c3e2 833b fa18 d0be b952 52bc 0208 593d
000002d0: 2486 07bf 880e d4be 1959 c93e 300a 0cbe
000002e0: 722f d3bb c8a6 c9bd e5d7 4fbe 7310 b33e
000002f0: 4663 adbc 4234 cfbe ac23 e5be d325 82bd
00000300: f821 923b 5afc 5f3c 1963 b03d dcd4 a33b
00000310: 335a 713d 0eec fdbb 6794 b83e 32d9 163f
00000320: 88ec acbd 9b19 eebd 161c 67bc 5ed9 d9bd
00000330: 0e41 8a3e 05f7 413f c2cd 82bd 0d00 113f
00000340: f371 e5bd 2fa6 d23e 6191 33bd bec3 f3be
00000350: 912f 353f 2b9a 0abd 9a19 08bd 8c0d 88bd
00000360: f2e3 89bd 34ec bf3e 78e3 993e 8993 e23e
00000370: fae5 11bf 068e 04be 50a6 c7be 894a f4bc
00000380: c3ba 32bc 9821 9cbd 2b46 a4bd 5339 ddbe
00000390: 9233 80be c4ca f8bc 0201 7eba 08ba ca3e
000003a0: 1f27 be3e b4a9 e63e 19ed 833e 749d 3b3f
000003b0: 52ff b33c 992f 2bbc 85d5 ccbd e7bb d03a
000003c0: 65b2 c1bc 22e6 6bbb 9984 643d 4afe 2bbe
000003d0: 5885 e3ba 67f8 85be cd0c 11be 9617 0ebc
000003e0: 38fd f2be adae 033d 2e7a b63e 981d fcbd
000003f0: 0fd2 cc3e 3b9a a73c 1062 463f c4c8 94be
2.002226e-05 1.2042131 0.015980339 0.003655418 -0.112210274 -0.30148524 -0.04108688 -0.18117408
-0.031985305 0.26712993 -0.07330181 -0.19715318 -0.109086916 -0.10889798 -0.019761132 0.19499469
0.26145086 -0.05479812 -0.045714363 -0.15461265 -0.025029996 -0.003913117 0.19261475 -0.053745896
0.539942 -0.2184488 0.42438713 -0.06412461 -0.38158017 0.6925103 -0.07512174 -0.017740542
-0.019200971 -0.1324849 -0.056473397 -0.11646667 -0.61240894 -0.18015225 -0.14870039 -0.31189173
0.12544087 -0.07887876 0.014606368 0.020134749 0.6997422 0.009558394 -0.03518594 -0.00955102
0.26392698 0.17103022 -0.06291182 -0.061718114 0.0066078305 -0.008344828 -0.10510057 -0.3149924
-0.09988077 -0.0431306 -0.07579295 -0.088530384 0.26570046 0.004125244 -0.11180053 0.3728534
-0.012639536 -0.0043516555 0.37063286 -0.071239635 -0.07903434 -0.107976146 -0.44656438 -0.6306166
-0.0150679415 -0.4773627 -0.073323786 0.47024685 -0.49863592 -0.02275345 0.064177305 -0.47019672
-0.011904253 0.013766218 -0.05953685 -0.083140954 -0.11194361 -0.20515893 0.24221395 0.041927528
-0.11971979 -0.10642214 -0.38384694 -0.32315913 -0.60483253 -0.46119657 -0.2439253 0.4144184
-0.48149222 -0.0140871145 -0.4380682 -0.07779792 -0.08352098 -0.25171024 -0.33163804 0.35906732
-0.3111713 0.6220753 0.002246123 0.12489841 -0.023638278 -0.031986516 -0.50604486 -0.15520778
-0.043101627 0.43424097 -0.36241075 -0.024622088 -0.09231511 -0.34314096 -0.03512095 -0.053981412
0.11828016 -0.04977082 -0.5275483 0.017802753 -0.5665996 -0.49134055 -0.08898463 -0.38176423
-0.046243753 -0.17646593 -0.15223578 0.38173875 0.12889613 -0.63333315 0.8106833 0.41472208
0.76750845 -0.45593482 -0.08902785 -0.3834281 -0.10682701 -0.24592191 -0.07488528 -0.52858585
-0.43298954 -0.29266363 0.19396761 -0.20872648 -0.71308476 -0.09929419 -0.08732797 -0.09690004
0.71532315 -0.19998059 -0.05513833 -0.205992 -0.4825432 0.0036932884 -0.09632542 -0.044668153
0.6952528 -0.08668989 -0.43559653 -0.28875172 0.009632186 0.03756832 0.16331656 -0.09549468
0.6353691 0.80216724 -0.023765868 -0.2980379 -0.5225425 -0.42224106 0.73996246 -0.04683271
0.004024835 -0.40644056 -0.012837105 0.052986152 -0.5293906 -0.41417336 0.3932579 -0.13675761
-0.006444865 -0.09846264 -0.20297201 0.34973487 -0.021165501 -0.40469557 -0.44753778 -0.06354871
0.004459616 0.013671005 0.086126514 0.00499974 0.05892391 -0.007749087 0.36050722 0.58925164
-0.08443552 -0.116259776 -0.014105817 -0.106371626 0.27002758 0.75767547 -0.063869014 0.566407
-0.11203375 0.41142413 -0.043839816 -0.47610277 0.70775706 -0.033838432 -0.03322754 -0.06643209
-0.0673293 0.37484896 0.30056357 0.44253185 -0.5699154 -0.12944803 -0.38994074 -0.029820697
-0.010908785 -0.07623595 -0.08021196 -0.43207797 -0.25039345 -0.030370124 -0.0009689481 0.39595056
0.37139222 0.45051348 0.2576683 0.7328713 0.021972332 -0.01044836 -0.10001663 0.001592514
-0.023644635 -0.0035995324 0.055790517 -0.16796222 -0.0017358465 -0.26166078 -0.1416504 -0.0086726155
-0.47458816 0.032149006 0.3564009 -0.12310332 0.40004012 0.020459285 0.7749338 -0.29059422

fc3.weight f4 [128, 256]
00000000: e2bf eabc 7635 c2bd 13e1 7abd 4e3f 233c
00000010: 02c6 6cbd 854d 9cbd 35b2 383c c97a 21bd
00000020: b66d 093d 39a9 12be c0ab 4fbb 89d8 01bd
00000030: 84b8 78bc f0c1 a6bd 351e 483e 683b b2bd
00000040: 075d d7bd 0a52 1dbc 8ce9 463d 5972 883c
00000050: ac2c 033b 408f 123c 464f cc3c 34f3 483d
00000060: dbb5 3fbe c1d6 fabd 9365 abbd fc98 bdbc
00000070: 7cd9 72bc ec48 69be 2dba edbc 33ad 513b
00000080: 975f 0dbc 5a87 6bbd 8668 03bd 2b16 6bbd
00000090: db2a a3bc 289c c6bc bbfe 563c 376a 07be
000000a0: 1178 16be f31c c9bc 6545 a23c e4c2 0f3c
000000b0: f509 1f3d 6a32 02bb a4db 00bd 35b9 d5ba
000000c0: 09b6 8dbd f99d b8bc c08f 623d 067f adbd
000000d0: 2f70 463d 7fa9 0cbd a2cf 57bc 26fa 68be
000000e0: 07cc c23c de07 58bd 8d0f 873c 8831 8f3c
000000f0: f81f e13b 0815 c8bc 7e1c 253c 18cb 8a38
00000100: 18c6 4ebc e995 83bd 056e bfbb 67c2 a63d
00000110: 1a1f 86bd 7a2d 093c 9f41 9bbd 11e4 c43c
00000120: a304 6d3c 0fbd cdbc 421e 813a 04c7 8dbd
00000130: c241 adbc 5eb6 27bc 5e8b babc 5379 b0be
00000140: 5088 7bbd 59b5 a93d b3fb b03b 5389 bb3d
00000150: 33e5 2bbd f00c 2fbc 0563 1abe c635 9fbd
00000160: d065 89bd 83fb 5f3d 4070 a3be 315c 2bbe
00000170: 9221 91be 694d 34bd 630c 953e 68b0 cdbd
00000180: ab0b 3bbd bb16 17bc 0809 363b 10ec 523e
00000190: c3af d63c 7fd0 323d 09dd 94bc 0174 8c3a
000001a0: 5fbb 4ebe 0cde 0ebe bdb4 50be ee97 49bb
000001b0: 68fb 49bd a1ec 0c3d 2061 91be 14ac 623c
000001c0: f60a 1f3d 3bc4 653d ee7f f2bd ab0e 283d
000001d0: d987 b5bb a7bb 1dbe 6fa2 82bc 7a83 4cbb
000001e0: 7740 25be 28ef 17bd 715c e33d b3ff 6dbd
000001f0: 6865 70be 444b cabd 0b16 003c 938a d23d
00000200: 9bc9 fabc fa7d b5bd 4c58 87bd 3aeb d8bd
00000210: 06c2 6ebe a707 7fbc da16 d8bd 7656 54bd
00000220: 9818 94be 377d b4bd 7fb8 c6bc 94fa 293e
00000230: 2620 05bd b1c3 55bd 4641 a73c a114 98bc
00000240: 0801 7dbc f564 34bc 85fa 6c3e 2d06 ad3c
00000250: 413e c7bd f9ed ad3d f035 773d 1443 9abc
00000260: bab3 5cbe 26de 54be 4d87 8f3c fb4f aabe
00000270: 6af4 a0bd 2f31 0b3c f2df 1bbc 0295 a7bc
00000280: 5d37 f33d 6844 b63d 57d3 423d 9a69 7dbd
00000290: 4072 84bd 11a1 0bbd d674 34bd dde0 0f3d
000002a0: aee8 10bf 9652 a5bd ea09 1abd c7e8 01be
000002b0: ae62 75be c196 72bb 2cdf 39be 4c38 fd3c
000002c0: 70cf c5bc f611 14be b1af 473d b880 503c
000002d0: ce08 d8be bf26 11be f293 f2bd 7432 fabd
000002e0: c5d5 edbc 29b2 473d 2faa 40be 8375 893d
000002f0: eeee 38bc 034a b73c f6ac 3dbe 3aed 2bbc
00000300: fc4b a43c cd03 33bd fb11 10be 0c5c 1cbd
00000310: b22f e5b8 1a07 23bd 41e6 393c 3232 f0bd
00000320: a99b a5bc 493e db3c 6999 5e3d 6581 9fbc
00000330: 0be5 5d3e 63bb 82be c6c6 3dbd c494 b83c
00000340: a091 8abc 41db 93be 3c4b 8d3c 356b a8bd
00000350: 7d00 06be f089 8ebd abeb 7c3d be70 99bc
00000360: ba53 523d 8fba 293d 756d aebb 9a6b 08be
00000370: 4915 fd3c e07c 85bd 7a77 3b3d fc63 023d
00000380: 780b 973c 1efe 71bd 0285 babc 3306 3ebd
00000390: 1543 8bbc c487 dfbb 5b9d 3b3b 4012 4f3e
000003a0: 5355 10bc a00e f43d fc16 2abe 3a27 99be
000003b0: c600 043d 3e4e 823b 96fe 873c b2d3 1bbd
000003c0: 8240 8cbc fc2b 85bd 0eae 1abe 7401 12be
000003d0: fed9 713d b480 debc 8ceb ed3c bd20 4e3d
000003e0: afb0 44be 09b8 1f3c c836 bdbd 12d9 edbc
000003f0: 5279 c8bd 386d b4bc 602d 81bd f0cc 67be
-0.02865595 -0.09482853 -0.061249804 0.0099638235 -0.057806022 -0.07631973 0.011272957 -0.039423738
0.033551894 -0.14322366 -0.0031688064 -0.031700645 -0.015180711 -0.081424594 0.19542773 -0.08702737
-0.105157904 -0.009602079 0.04856257 0.016656088 0.002001564 0.008945286 0.024940144 0.04906006
-0.18721716 -0.12247992 -0.08368983 -0.023144238 -0.01482236 -0.22781724 -0.02901944 0.0031994104
-0.008628747 -0.05750213 -0.032082103 -0.057394188 -0.019917896 -0.024244383 0.013122256 -0.13224111
-0.14694239 -0.024549937 0.01980848 0.008774493 0.038827855 -0.0019866475 -0.031459466 -0.0016305806
-0.06919486 -0.022536265 0.055312872 -0.084714934 0.04844683 -0.03434133 -0.013172062 -0.22751674
0.023778928 -0.052741878 0.016486907 0.017479673 0.006870266 -0.024424091 0.010077594 6.618182e-05
-0.012620471 -0.064250775 -0.005841973 0.08142548 -0.06548901 0.008372659 -0.075808756 0.024034532
0.0144664375 -0.025114564 0.0009850936 -0.06922725 -0.02114952 -0.010236351 -0.022771534 -0.34467563
-0.061409295 0.082865424 0.0054010986 0.09157052 -0.04196663 -0.010684237 -0.15076835 -0.07773928
-0.06708872 0.05468322 -0.31921577 -0.16734387 -0.28345925 -0.044019137 0.29111013 -0.100434124
-0.045665424 -0.009221728 0.002777638 0.20597863 0.026206857 0.04365587 -0.018171804 0.0010715724
-0.20188664 -0.13951892 -0.20381446 -0.0030760723 -0.049312025 0.034405354 -0.28394413 0.013834972
0.038828813 0.056095343 -0.11840807 0.041029613 -0.005539876 -0.15403615 -0.015946595 -0.0031206296
-0.16137873 -0.03709331 0.11101616 -0.058105182 -0.23476183 -0.09877637 0.007817755 0.10280337
-0.030613711 -0.08861919 -0.06608638 -0.10591741 -0.23316202 -0.015565789 -0.105512336 -0.051840268
-0.28925014 -0.08812945 -0.024257896 0.16599494 -0.032501362 -0.05218858 0.020416867 -0.018564524
-0.01544214 -0.011010398 0.2314244 0.021121109 -0.09728671 0.08492655 0.060354173 -0.018830813
-0.21552935 -0.20787868 0.017520571 -0.33264145 -0.07859118 0.008495613 -0.009513842 -0.020456795
0.11875794 0.08899766 0.04756483 -0.061868288 -0.06467104 -0.03408915 -0.044056736 0.035126556
-0.5660504 -0.08072393 -0.03760711 -0.12686454 -0.23963425 -0.0037016126 -0.1815154 0.030910634
-0.024146765 -0.14459977 0.048751537 0.012726001 -0.42194217 -0.14174937 -0.118446246 -0.122166544
-0.029032597 0.04875389 -0.1881492 0.06711867 -0.011287434 0.022374159 -0.1852301 -0.010493571
0.020055763 -0.043704797 -0.14069359 -0.03817372 -0.00010928455 -0.039801694 0.011346401 -0.11728324
-0.020215826 0.026763098 0.054345522 -0.01947088 0.21669404 -0.2553359 -0.046332143 0.022531874
-0.016915143 -0.28878215 0.017247789 -0.08223573 -0.13086124 -0.06959903 0.061748188 -0.018730517
0.05134938 0.04143768 -0.005323107 -0.13322297 0.030893939 -0.06517959 0.04576824 0.031833634
0.018438086 -0.059080236 -0.022768501 -0.04639263 -0.01699976 -0.0068216044 0.0028627727 0.20221806
-0.008809405 0.11916852 -0.1661033 -0.2991274 0.0322273 0.0039766124 0.016600888 -0.038043685
-0.017120603 -0.0650253 -0.15105459 -0.14258367 0.059045784 -0.02716098 0.029042982 0.05032419
-0.19208024 0.009748467 -0.09238964 -0.029034171 -0.09788765 -0.022024736 -0.06307483 -0.22636771

fc3.bias f4 [128]
00000000: 0310 bcbe 4b31 a53f f334 9abe 63b1 2ebe
00000010: 63ec 2ebe dbe7 8cbe 7609 51be 82e7 0abe
00000020: e30f 82be f950 38be de9d 4cbe 1bbf 70bf
00000030: 45ed 7ebe 7d5d 1cbe 4113 1b3e ab00 8bbe
00000040: 8c61 65be f72f 24be 54ea f5bd 1b18 10be
00000050: a5cb 21be 3003 c8bd b153 05be 2294 44be
00000060: 5fa0 57be 6b83 31be 8734 8cbe aa46 89be
00000070: 41e9 88be c6af 40be e452 80be 5aed 54be
00000080: c882 59be d5bd 963c 8ed1 aebe 50d1 2cbe
00000090: d27a bfbd 254b 1fbe 21e8 17be b791 5ebe
000000a0: 4a1f 26be 82e6 fc3f e5c1 19be 4a43 6cbe
000000b0: 252a 663f df21 2dbe ca6e 2fbe e55a 4abe
000000c0: da0d 89be 9767 6ebf 558e 79be a547 4fbe
000000d0: 01ea 28be 50b6 f9bd b18e a3be f8de 16be
000000e0: bdcd 47be a5e0 24be 9abf e6bd e203 51be
000000f0: bd4b 6bbe a7fd 3ebe 2bcb 033f ea94 dd3d
00000100: 09c2 7dbe cb4b cbbd 58ca 89be 4a47 9cbe
00000110: e4a9 70be 8e5b 18bf 9f84 12be 38e7 37be
00000120: 439e 68be 74ff dabd 20a1 e23c 5952 40be
00000130: 68fd 04be 1714 26be 30e8 1d3e b0a8 57be
00000140: bfa3 d9bd ef9f 693f 813a 8abe 99f9 6cbe
00000150: 028a 60be f889 2dbe 2123 48be 3c10 6bbe
00000160: 31f1 50be 6eea 3bbe 2929 31be 7d3a f8bd
00000170: 0e8d 79be 55ef cabd d892 5ebe cffa a13e
00000180: cdff 943d 2e5a 53be 9fb1 76be 8e48 d1bd
00000190: 7ffb 36be 7981 58be 850c d63f a36c 24be
000001a0: b47e 2ebe c7c5 1fbe 080e 08be a2be bcbd
000001b0: 8944 6abe 3268 e3bd acda 0cbe 72f3 4bbe
000001c0: f481 73be eb2d 3ebe b9ee 58be 598b 43be
000001d0: cb6c 4a3e b07f 33be 3bec 2cbe 45c3 81be
000001e0: 7c93 46be a10e 17be db46 87be 985f 15be
000001f0: 8d72 5dbe dbd6 23be 0944 47be 92b2 f9bd
-0.36730966 1.2905668 -0.30118522 -0.17059855 -0.17082362 -0.27520642 -0.20413765 -0.13564876
-0.25402746 -0.17999639 -0.19982097 -0.94041604 -0.24895199 -0.15270038 0.15144064 -0.27148947
-0.22400492 -0.16033922 -0.12007585 -0.14071696 -0.1580034 -0.09766233 -0.13020207 -0.19197133
-0.2105727 -0.17335288 -0.27383825 -0.26811725 -0.2674046 -0.18817052 -0.2506324 -0.20793667
-0.21241295 0.018401066 -0.34144253 -0.16876721 -0.09349598 -0.15556009 -0.14834644 -0.21735273
-0.16222873 1.9757845 -0.15015371 -0.23072544 0.8990806 -0.16907452 -0.17132106 -0.19761236
-0.2676838 -0.93126816 -0.24370702 -0.20242174 -0.16495515 -0.121929765 -0.31944802 -0.14733493
-0.19512077 -0.1610132 -0.11267014 -0.20411637 -0.2297811 -0.18651448 0.51481885 0.10819419
-0.2478105 -0.09926566 -0.2691219 -0.3052314 -0.23502308 -0.595147 -0.14308403 -0.17959297
-0.22716622 -0.10693255 0.027664721 -0.18781413 -0.12987292 -0.16218601 0.15420604 -0.21060443
-0.10626935 0.91259664 -0.2699776 -0.23142089 -0.21927646 -0.16947162 -0.1954465 -0.22955412
-0.20404507 -0.18351147 -0.17300858 -0.12120531 -0.24370214 -0.0990893 -0.21735704 0.31636664
0.072753526 -0.2063987 -0.24091195 -0.10218917 -0.17869376 -0.2114314 1.6722571 -0.16057067
-0.17040521 -0.1560279 -0.13286602 -0.09216048 -0.22877707 -0.11103858 -0.13755292 -0.19917086
-0.23780042 -0.18572204 -0.21184815 -0.19096126 0.19768064 -0.17529178 -0.1688699 -0.2534429
-0.19392198 -0.14751674 -0.26421246 -0.14587247 -0.21625729 -0.1599993 -0.19459547 -0.12192263

fc4.weight f4 [1, 128]
00000000: 22d0 3cbd d6f0 363d 3477 5cbc 8812 203d
00000010: a763 ddbc 6758 6fbb 7157 cf3a 3942 15bc
00000020: d9ba dabc 1c63 6a3b 666f 7e3c c690 d0bc
00000030: 0fc4 69bd dec4 e33c 02b0 a6bd 4810 8f3b
00000040: b383 13bd 39d4 a8bc 80a7 d33c 53e5 5c3d
00000050: 9685 1f3d 5832 e23a f6d1 4b3c 79ee 803c
00000060: 4032 903c cd00 a0ba a06b 7f3c b2da b83c
00000070: 8a3a aabc 00dd 2dbc ac01 3d3c 5e5c 97b9
00000080: bc95 b1bc 1a96 ef3c 9732 9abd 1788 46bc
00000090: 1333 78bc a87c 07bd 475e ba3b 13d8 903c
000000a0: 290c b53c 5a90 d43d 5ab1 94bc bc00 21bc
000000b0: 3005 093d e01d 20bc 455a c6bc dfc5 49bc
000000c0: 4fc7 203d 43d1 ccbc 4fa9 b53c 80a5 34bc
000000d0: 6ed3 0b3c eff2 7f3d 6011 7f3a b191 5ebc
000000e0: f1b0 b2b9 49ba 8bbc d373 38bb e23b 253b
000000f0: 408e 69bd 1cda 89bc 9e85 3dbd 26fc 233d
00000100: 0d5c d03a 1fc6 bf3a 0788 5ebc f26d 62bd
00000110: 64db 14bb 0dd3 15bc e2a8 87bc 37ce 13bd
00000120: a7aa 853c 2c43 c6bc 5923 b73c 2242 e2bc
00000130: 7da0 a13c 8cab 0f3c e0cb 9c3c e974 bebc
00000140: 173c da3c 125c fb3c b6b4 953c 7b65 6cba
00000150: 1746 1ebc 5cc0 3cbd 9dc2 bfbb c75f ef3c
00000160: ab1d 2d3d f6b3 44bc 4aba 19bc e30c 63bd
00000170: 3efb a5bc dcea d53c be6f 463c e02a 993c
00000180: 0ecf 63bd 75f9 e63a 8393 133b adbf f13a
00000190: ce17 2bba e408 6b3b 2f28 9e3d b531 043c
000001a0: 1aba 813b bbb4 4ebc eeb0 a33c 8b5c 7abd
000001b0: 9780 8ebc 0651 e6bc 0119 f2bc b816 66bc
000001c0: c528 163c 68ed 823c 97a9 e03c d9d3 273b
000001d0: fca2 183d d116 a83c 1710 a2bb a624 9b3c
000001e0: 0a18 c7bc e060 bfbc ab8e a7bb 16ab 653d
000001f0: daec 55bd a373 efbc b457 e2bc 6ef5 6cba
-0.04609693 0.044663273 -0.013456155 0.039080173 -0.027025057 -0.0036521198 0.0015818906 -0.009110027
-0.026700424 0.003576464 0.015529489 -0.025459658 -0.05707174 0.027803835 -0.081390396 0.0043659545
-0.03601427 -0.020609008 0.025836706 0.053929638 0.038945757 0.0017257435 0.012440195 0.015738713
0.017602086 -0.001220727 0.015589625 0.02256522 -0.020779867 -0.010611773 0.011536043 -0.00028869783
-0.021677844 0.029246379 -0.075291805 -0.012117407 -0.015148896 -0.033077866 0.0056875083 0.017681157
0.022100525 0.103790954 -0.018150974 -0.009826835 0.033452213 -0.009772748 -0.024212966 -0.012315243
0.039252575 -0.025002128 0.02217546 -0.011025786 0.0085342955 0.06248754 0.0009730067 -0.01358454
-0.00034082637 -0.017056601 -0.0028145208 0.0025212695 -0.057020426 -0.016827635 -0.046270005 0.04003539
0.0015896574 0.0014631188 -0.013582236 -0.055280633 -0.0022713775 -0.009144557 -0.016560022 -0.036085334
0.016316725 -0.024201952 0.022355722 -0.027619425 0.019729847 0.008768927 0.019140184 -0.023249106
0.026639981 0.030683551 0.018274646 -0.00090178073 -0.009660265 -0.046081886 -0.005852057 0.029220475
0.04226462 -0.012005797 -0.009382794 -0.05543221 -0.020261403 0.026112966 0.012111602 0.018697202
-0.055617385 0.0017621951 0.0022518344 0.0018443965 -0.00065266795 0.0035863454 0.07722508 0.008068492
0.0039589526 -0.012616332 0.019981828 -0.061123412 -0.0173953 -0.028114807 -0.029552938 -0.0140435025
0.009164994 0.015982345 0.027424617 0.0025608449 0.03726481 0.020518692 -0.0049457657 0.018938374
-0.024303455 -0.023361623 -0.005113443 0.056071363 -0.052227832 -0.029229945 -0.02762971 -0.00090392574
