no_bn_checkpoint_actor.pth (torch, 305353 bytes, 6 tensors)

fc1.weight f4 [256, 33]
-0.19766974 -0.035361968 -0.17733453 0.025549179 -0.029486453 0.0061395564 -0.14245075 -0.06487691
0.32810563 0.12524572 0.31844354 -0.015793987 0.08541997 -0.17646763 0.06061369 0.09992541
-0.026143076 -0.053036805 -0.047275625 0.06814345 -0.062287744 -0.22440268 -0.0035381848 -0.42205524
0.065611534 -0.03419929 0.14558014 -0.12215467 -0.038717568 -0.13661018 -0.06275244 -0.13588186
0.072104245 -0.039101593 -0.26467046 0.24935283 0.0013086991 0.09517194 -0.086527385 0.031117916
0.009022295 -0.21241537 -0.050877668 -0.040972166 -0.014020018 -0.08767355 -0.01664393 0.18226428
-0.11261744 0.106073536 -0.005385946 -0.07160681 0.17045598 0.09432194 0.10753134 0.19139956
0.055288717 0.026309054 0.21123032 0.028417071 0.10118649 -0.15426412 0.03607446 -0.020440666
0.069303244 0.06962154 0.0046967496 0.124339275 -0.32992455 0.024674686 0.07418236 -0.06846867
-0.06556745 0.1458874 0.29263654 0.104607314 0.07816967 -0.11053008 -0.039176635 -0.0634962
0.053225476 -0.17221962 0.023942363 -0.034737747 0.00033417257 -0.0011839516 -0.017099524 -0.18220265
-0.17633198 -0.05318298 0.07887747 -0.23332202 -0.086693324 -0.0585756 0.13199767 0.07380001
-0.16434781 -0.16805132 0.47737697 0.22158483 -0.38222596 -0.19080178 0.04748426 -0.042524792
0.12306285 -0.14598513 0.09902326 0.26377976 -0.06905012 -0.019233234 -0.08625452 -0.17972851
-0.009584294 -0.010724909 0.13335563 0.037286844 0.011892 -0.028213214 -0.0902509 -0.17916597
0.096156634 -0.0089215925 -0.14466901 0.14125745 0.08916447 -0.0567031 -0.19937606 0.0003006843
-0.17388876 0.06952405 -0.0013735533 -0.2721457 -0.026826506 0.28236887 -0.047680624 0.065914854
-0.0010846887 -0.15889983 -0.11414755 0.16398232 0.082011424 -0.11282236 -0.021593804 0.19297957
0.0044632005 0.23303345 -0.014136504 0.07022449 0.012009622 0.011403502 -0.09531953 -0.07465137
-0.046461083 0.14269815 -0.25992304 -0.23126495 -0.1131586 -0.23322123 -0.098025806 0.17895126
-0.15241519 0.17303288 -0.044318143 0.14198598 -0.5416599 0.20575017 -0.081608646 0.018070975
-0.061175596 0.041138086 0.02029677 0.12724209 -0.011182765 -0.04563736 -0.24691455 0.23308946
0.19779506 0.13643342 -0.21953104 0.16721243 0.056978103 -0.0010085385 -0.031617187 -0.120765544
0.031612 -0.28260636 0.085330926 -0.015953945 0.069117695 -0.02794593 0.20472385 -0.16060807
-0.029663522 -0.09447882 0.16089313 -0.16345303 0.09822415 -0.44598487 -0.09977736 -0.30132377
-0.12883036 0.00060576404 0.018791262 -0.096973225 -0.03650113 -0.13764091 -0.060544517 0.228465
0.009294687 0.06498867 -0.07744067 0.022061355 -0.025107717 -0.026830314 0.16870312 0.010278622
-0.020425228 -0.09430858 -0.080538526 -0.11052337 -0.032789674 -0.10958031 0.031138962 0.0033166793
-0.17858294 -0.06918662 -0.03864667 0.028294202 0.066950954 0.08165952 -0.91542614 -0.3218179
0.07768916 -0.423922 0.066112086 -0.12112205 -0.102825895 -0.0157728 0.08377782 -0.066125184
-0.052529525 -0.0064379205 0.13430493 -0.045644384 -0.21824075 -0.2649821 0.12246575 0.06669537
-0.009464969 -0.1347729 -0.024078019 0.062306184 -0.014296689 -0.17761216 0.07185949 -0.14158386
00000000: f069 4abe b6d7 10bd 2f97 35be 834c d13c
00000010: 938d f1bc 552e c93b 9cde 11be 2fde 84bd
00000020: 76fd a73e 6a40 003e 080b a33e 6462 81bc
00000030: aaf0 ae3d eeb3 34be 1046 783d b1a5 cc3d
00000040: 012a d6bc 1f3d 59bd 16a4 41bd cb8e 8b3d
00000050: 6f21 7fbd d1c9 65be e4e0 67bb a017 d8be
00000060: 575f 863d 8e14 0cbd f612 153e 3a2c fabd
00000070: 5096 1ebd 8ae3 0bbe 5a84 80bd 9d24 0bbe
00000080: 64ab 933d fe28 20bd e382 87be 5956 7f3e
00000090: a888 ab3a 82e9 c23d 4535 b1bd 00eb fe3c
000000a0: 3fd2 133c 6a83 59be 1a65 50bd 6ed2 27bd
000000b0: 38b4 65bc 318e b3bd da58 88bc 7da3 3a3e
000000c0: f9a3 e6bd 153d d93d 977c b0bb 97a6 92bd
000000d0: 038c 2e3e dc2b c13d 6439 dc3d 3ffe 433e
000000e0: 6c76 623d 1686 d73c c34c 583e ebca e83c
000000f0: dd3a cf3d 6af7 1dbe d0c2 133d 2f73 a7bc
00000100: dcee 8d3d bd95 8e3d 31e7 993b 97a5 fe3d
00000110: dfeb a8be 9122 ca3c ecec 973d 4d39 8cbd
00000120: 3a48 86bd 8263 153e 75d4 953e 5c3c d63d
00000130: 6c17 a03d 985d e2bd ae77 20bd 4c0a 82bd
00000140: f502 5a3d 575a 30be c622 c43c 2b49 0ebd
00000150: e233 af39 d32e 9bba 4d14 8cbc 5593 3abe
00000160: 5f90 34be 65d6 59bd 838a a13d f8eb 6ebe
00000170: 458c b1bd f8ec 6fbd 662a 073e 7624 973d
00000180: cb4a 28be a515 2cbe c16a f43e 22e7 623e
00000190: 1fb3 c3be 8b61 43be db7e 423d 7a2e 2ebd
000001a0: 6008 fc3d 207d 15be b5cc ca3d 240e 873e
000001b0: 266a 8dbd 048f 9dbc 36a6 b0bd c00a 38be
000001c0: 7107 1dbc 87b7 2fbc 618e 083e 17ba 183d
000001d0: aad6 423c 661f e7bc 77d5 b8bd 4977 37be
000001e0: c5ed c43d df2b 12bc 1d24 14be cba5 103e
000001f0: dd9b b63d 8341 68bd 3d29 4cbe 2aa5 9d39
00000200: e50f 32be a062 8e3d cd08 b4ba ae56 8bbe
00000210: 43c3 dbbc a792 903e c24c 43bd 5efe 863d
00000220: 1d2c 8eba a3b6 22be 31c6 e9bd fbea 273e
00000230: 9bf5 a73d 690f e7bd 7de5 b0bc 709c 453e
00000240: 0a40 923b 52a0 6e3e cc9c 67bc dbd1 8f3d
00000250: 01c4 443c c1d5 3a3c e336 c3bd d1e2 98bd
00000260: fa4d 3ebd 771f 123e a214 85be b8d0 6cbe
00000270: b2bf e7bd 8cd1 6ebe c1c1 c8bd 003f 373e
00000280: ba12 1cbe 882f 313e f186 35bd c664 113e
00000290: 39aa 0abf 2cb0 523e 6f22 a7bd 9509 943c
000002a0: 4393 7abd 6980 283d 6945 a63c c04b 023e
000002b0: ea37 37bc 3eee 3abd 2bd7 7cbe 01af 6e3e
000002c0: ca8a 4a3e 34b5 0b3e bfcc 60be bc39 2b3e
000002d0: df61 693d f030 84ba 0681 01bd ed53 f7bd
000002e0: 967b 013d c8b1 90be fbc1 ae3d d9b1 82bc
000002f0: 948d 8d3d ddee e4bc 21a3 513e 7176 24be
00000300: ea00 f3bc 1d7e c1bd 2bc1 243e 3b60 27be
00000310: be29 c93d 2158 e4be 1358 ccbd 1c47 9abe
00000320: 1bec 03be 23cc 1e3a 22f0 993c e699 c6bd
00000330: 3582 15bd bdf1 0cbe 87fd 77bd bbf2 693e
00000340: be48 183c c818 853d 3799 9ebd 04ba b43c
00000350: b3ae cdbc 3fcb dbbc 83c0 2c3e aa67 283c
00000360: cf52 a7bc db24 c1bd 62f1 a4bd 145a e2bd
00000370: 774e 06bd a46b e0bd 2317 ff3c a55c 593b
00000380: 72de 36be b7b1 8dbd f84b 1ebd 3ec9 e73c
00000390: 951d 893d 1b3d a73d 5e59 6abf 51c5 a4be
000003a0: 7f1b 9f3d 4e0c d9be c665 873d d60e f8bd
000003b0: 6296 d2bd f635 81bc b593 ab3d a46c 87bd
000003c0: 3329 57bd 31f5 d2bb 3b87 093e 9bf5 3abd
000003d0: 817a 5fbe bcab 87be 53cf fa3d 9597 883d
000003e0: f512 1bbc e801 0abe 443f c5bc c534 7f3d
000003f0: a93c 6abc f6df 35be 112b 933d 5cfb 10be

fc1.bias f4 [256]
-0.041509606 0.03835408 0.1538166 0.23755968 -0.048527215 -0.14063509 -0.07064079 -0.028141914
-0.041598294 -0.06736741 0.08383711 0.0030066536 0.029255219 0.038666505 0.033986006 -0.06665018
0.14046842 -0.2055895 -0.01698304 0.17153515 -0.024950359 0.0566036 0.18926725 0.10719778
0.025687005 0.103310615 -0.043656915 -0.09062321 0.11686402 0.06304428 0.11386599 0.023333821
0.26770127 0.17609203 -0.041686233 0.016391918 0.049355537 -0.0118319 -0.09887583 0.05628276
0.062106322 0.20615846 -0.07976757 0.23613934 -0.07458545 -0.06897318 0.16862828 0.05073165
0.20009114 -0.033668246 -0.15420288 0.10842589 0.03128729 0.11547556 0.23225035 -0.11687309
0.12718618 0.13583404 0.044592924 0.12782049 0.035433527 0.11418475 0.03221413 0.15493584
-0.010975544 -0.08116638 0.21184947 -0.121316075 0.21939373 0.18984509 0.04611688 -0.00879237
0.055697337 0.11043695 -0.108007476 0.013461958 -0.033168443 -0.17365773 -0.016591959 -0.029066315
0.19851914 0.25514293 -0.12676045 -0.039333537 0.2382999 0.10446579 0.18043138 0.11543426
-0.07479191 -0.046824384 0.14039028 -0.048356164 -0.0858798 0.15497518 0.025820978 0.17939475
-0.061783165 0.065932296 -0.07404149 -0.09597602 -0.048034996 0.038823675 0.21651721 -0.038545318
0.1626207 -0.09090405 0.031514168 -0.034684394 0.120766744 0.11153331 -0.09650985 0.15394962
0.0067814947 0.10173384 0.1825432 0.096313566 0.0010553022 0.1639047 0.19815767 -0.18518215
0.059062358 0.07305855 -0.0277789 -0.09500686 -0.090617955 -0.0876285 0.16290711 0.13506973
-0.05768607 -0.030584035 0.05600782 0.086903155 -0.08748832 0.15606818 -0.004362425 0.084080026
0.07500057 0.098251246 0.055259097 0.2297297 -0.01693665 -0.117132254 0.071206905 0.12331756
0.12615629 0.29107937 0.057697468 0.12553395 0.25462702 -0.064263806 -0.125554 -0.011716623
0.0038329868 -0.17562166 -0.12134523 0.066862814 -0.069842726 -0.2072576 -0.1351916 0.0016507541
-0.12329635 0.011354367 0.0045896107 0.05157695 -0.117844 0.05062233 -0.04833671 -0.062013492
-0.10523667 -0.12161004 0.0396021 -0.0101290075 0.18700546 0.07633712 0.14015816 0.08438929
0.10748964 0.1676551 -0.1051337 0.23538609 0.048469268 -0.00021669525 -0.07492838 0.19206521
0.1791449 0.07405067 -0.041774403 -0.058744233 0.11442009 -0.02442741 -0.1056801 -0.11151869
0.15633678 0.18303408 0.062004317 0.13966417 -0.055746824 -0.056089126 -0.029202633 -0.08318073
-0.08261225 -0.11220052 -0.08814111 -0.012052987 0.11188579 0.072038755 0.023141352 0.13132818
-0.118199386 -0.10242861 0.04779541 -0.051321615 0.15903725 -0.06295663 0.20815109 0.13538788
0.08168225 -0.06693486 0.22746445 -0.1401784 0.03348076 0.17051557 0.23415327 0.032427758
0.023342442 -0.027929105 -0.08687134 0.058786236 -0.1612738 -0.034452952 0.0017596565 0.114467226
-0.059373435 0.16456303 -0.047583006 0.033796463 -0.12622307 0.14292698 0.0030913576 -0.04605437
0.096113935 0.057535127 0.017316515 0.14732644 0.1605836 -0.086482555 0.27112335 0.14007695
0.050026264 -0.049518343 -0.020076111 -0.0491347 0.071548566 -0.18630476 -0.108377874 0.016738124
00000000: fa05 2abd 2b19 1d3d 1982 1d3e d842 733e
00000010: 79c4 46bd a502 10be 1eac 90bd df89 e6bc
00000020: f962 2abd edf7 89bd cab2 ab3d 470b 453b
00000030: a4a8 ef3c c560 1e3d e934 0b3d e47f 88bd
00000040: f4d6 0f3e 0e86 52be 0420 8bbc e9a6 2f3e
00000050: b264 ccbc 2dd9 673d 46cf 413e 828a db3d
00000060: 8e6d d23c 8494 d33d 98d1 32bd a998 b9bd
00000070: 6756 ef3d 5c1d 813d 9232 e93d 9226 bf3c
00000080: 2410 893e 7851 343e 2fbf 2abd 5848 863c
00000090: 0829 4a3d 96da 41bc 697f cabd c088 663d
000000a0: 3363 7e3d 341b 533e 2e5d a3bd 83ce 713e
000000b0: 42c0 98bd d041 8dbd e4ac 2c3e fecb 4f3d
000000c0: b1e4 4c3e b7e7 09bd 5ce7 1dbe 650e de3d
000000d0: 1a27 003d 737e ec3d 09d3 6d3e 295b efbd
000000e0: 183d 023e 1418 0b3e 12a7 363d 60e3 023e
000000f0: bf22 113d b2d9 e93d f7f2 033d 80a7 1e3e
00000100: c5d2 33bc 8f3a a6bd 11ef 583e 9074 f8bd
00000110: c0a8 603e c066 423e 0ee5 3c3d df0d 10bc
00000120: e422 643d c52c e23d 0633 ddbd 8b8f 5c3c
00000130: a2db 07bd 55d3 31be dceb 87bc 7b1c eebc
00000140: 9a48 4b3e 18a2 823e 7ecd 01be 341c 21bd
00000150: e404 743e 29f2 d53d 01c3 383e cc68 ec3d
00000160: 802c 99bd edca 3fbd 78c2 0f3e 1d11 46bd
00000170: c0e1 afbd d0b1 1e3e 8486 d33c 42b3 373e
00000180: 5810 7dbd 8307 873d 11a3 97bd 138f c4bd
00000190: 58c0 44bd 9305 1f3d b0b6 5d3e b2e1 1dbd
000001a0: 0a86 263e e72b babd 0015 013d 3911 0ebd
000001b0: 8e54 f73d 936b e43d f5a6 c5bd f8a4 1d3e
000001c0: 4d37 de3b d559 d03d 9bec 3a3e 0c40 c53d
000001d0: 1152 8a3a a2d6 273e d8e9 4a3e 64a0 3dbe
000001e0: 5feb 713d b99f 953d 9390 e3bc f592 c2bd
000001f0: e895 b9bd 9276 b3bd 1fd1 263e b84f 0a3e
00000200: 3b48 6cbd 5f8b fabc 7568 653d 48fa b13d
00000210: 142d b3bd 56d0 1f3e acf2 8ebb 2632 ac3d
00000220: e699 993d f337 c93d 5d57 623d 433e 6b3e
00000230: bbbe 8abc 09e3 efbd edd4 913d eb8d fc3d
00000240: 1d2f 013e 5b08 953e 2e54 6c3d f98b 003e
00000250: 795e 823e be9c 83bd 3a91 00be 14f7 3fbc
00000260: d932 7b3b 2ad6 33be d983 f8bd 5fef 883d
00000270: b409 8fbd 563b 54be ab6f 0abe 1e5e d83a
00000280: cc82 fcbd ab07 3a3c 7264 963b 5a42 533d
00000290: 3258 f1bd 5c59 4f3d b7fc 45bd dc01 7ebd
000002a0: 5386 d7bd af0e f9bd d035 223d 23f4 25bc
000002b0: 5c7e 3f3e a356 9c3d 9f85 0f3e 4bd4 ac3d
000002c0: 8723 dc3d c7ad 2b3e 5650 d7bd 0d09 713e
000002d0: b687 463d b038 63b9 0d74 99bd beac 443e
000002e0: c371 373e e1a7 973d a31b 2bbd cb9d 70bd
000002f0: 1555 ea3d fe1b c8bc cf6e d8bd e963 e4bd
00000300: c016 203e 496d 3b3e 3df8 7d3d 2004 0f3e
00000310: c856 64bd b6bd 65bd 5c3a efbc a95a aabd
00000320: 9c30 a9bd 63c9 e5bd 5483 b4bd e479 45bc
00000330: 6124 e53d 0e89 933d ef92 bd3c e57a 063e
00000340: 8512 f2bd 17c6 d1bd 1fc5 433d 9d36 52bd
00000350: a9da 223e 68ef 80bd 8f25 553e 1fa3 0a3e
00000360: 0649 a73d 2515 89bd 71ec 683e ed8a 0fbe
00000370: 1f23 093d a29b 2e3e e0c5 6f3e f8d2 043d
00000380: a638 bf3c 94cb e4bc 9ae9 b1bd d6c9 703d
00000390: f624 25be 8a1e 0dbd 46a4 e63a cb6d ea3d
000003a0: 8f31 73bd 3683 283e 66e6 42bd 296e 0a3d
000003b0: 9f40 01be 735b 123e 6098 4a3b 82a3 3cbd
000003c0: 62d7 c43d f4a9 6b3d 5ddb 8d3c bedc 163e
000003d0: 0770 243e c41d b1bd aed0 8a3e 5570 0f3e
000003e0: 57e8 4c3d bfd3 4abd a876 a4bc 7841 49bd
000003f0: 0e88 923d adc6 3ebe 38f5 ddbd 641e 893c

fc2.weight f4 [256, 256]
-0.012057127 0.120896906 0.13794059 0.008494385 -0.099204786 -0.050432436 0.016194925 0.002307806
0.01842264 -0.11072608 0.09785627 -0.14102574 0.11379194 0.012481061 -0.014232818 -0.02225852
0.12613052 -0.04831877 -0.10664137 0.06765124 -0.0707347 0.09522805 0.048256684 -0.049323015
0.15656894 -0.12407785 0.17083316 -0.107021466 -0.038751025 0.10125468 0.050121423 -0.07748927
-0.13028003 0.07136378 -0.07114327 0.0051902914 0.028723786 0.049820535 0.015274859 -0.09200473
-0.009879328 -0.05215388 -0.06758981 -0.05348032 -0.026500022 -0.05586086 -0.004241962 0.09614495
0.010629366 0.2169928 -0.028981047 -0.085806586 -0.16954276 -0.033870656 0.024445096 -0.060811568
-0.049773797 0.10894295 -0.017482096 0.0047129975 -0.06076488 -0.0916006 -0.0356582 0.09363202
-0.0012665095 -0.0034014147 0.0035177912 -0.012719686 -0.059501853 0.02022452 0.020610552 0.051465012
0.07140273 -0.029597363 0.07544337 -0.09185439 0.09629822 -0.12597914 -0.03707322 -0.07827316
-0.054082323 0.06743181 -0.03742295 -0.1320851 -0.043485295 -0.020369787 0.0037926645 0.0007915707
-0.062194783 -0.0431562 0.043774605 0.030553397 -0.11358273 0.044329714 0.09730196 0.018692475
0.11115243 -0.123238735 0.06633511 -0.052278712 0.08813412 -0.049744535 -0.008315539 -0.11343115
-0.095386766 0.05909044 -0.05295361 -0.018773807 -0.04886069 0.08413365 -0.109023936 0.060193054
0.0048664208 0.15083958 0.0075735915 -0.04544255 0.06303513 -0.03496336 -0.0511262 0.022685464
0.2598257 0.009297838 0.033344604 0.10020705 0.02352965 0.05204439 -0.125638 -0.062226836
-0.028282551 -0.007704754 -0.18547574 0.04005695 0.007917626 -0.09284754 0.07694374 -0.024398237
-0.041427474 -0.04997131 -0.05448274 0.034803987 -0.07994318 0.06102209 -0.051825467 0.03387004
0.032450385 -0.043596897 -0.11579622 -0.27691385 0.06472 -0.049387075 -0.06774706 -0.0005572958
-0.029939141 0.0019025818 -0.17213108 -0.13116801 0.03559981 0.027298223 -0.096512005 -0.092284665
-0.005568472 0.114981465 -0.12401759 0.12806082 0.06555548 -0.109093 0.17776023 0.10592835
0.13625968 0.038877632 0.12644489 0.010035316 0.12586492 -0.031176295 0.038537383 -0.025022397
-0.16551873 -0.015468704 0.104404286 0.043421227 -0.035803225 0.06972608 0.0056392145 0.033161256
0.015016681 0.12517157 -0.109820575 0.06972005 0.14354864 -0.14766113 -0.036526136 -0.11115133
0.13142268 -0.13121878 0.09893338 -0.03411274 -0.040967382 -0.047205698 0.00707499 -0.10462261
-0.14207442 0.044801433 -0.08393507 -0.0573656 -0.1510845 -0.036175646 -0.05498984 0.027634406
0.13439879 -0.042490944 0.014570715 -0.11517914 -0.007025849 -0.116662525 -0.02804771 -0.09906887
-0.06466598 0.20667917 0.09699864 -0.07428836 0.0026723063 0.033459805 0.08157203 -0.12377599
0.11576473 -0.08361837 -0.06316858 -0.116018504 -0.17811596 0.02155998 0.035366956 0.03685064
0.043242868 0.14252798 0.0005644397 0.060544156 0.011928073 -0.023285374 -0.0006571788 -0.017609727
0.15312085 -0.0013802489 0.058735393 -0.041365296 0.029838406 0.04542477 0.0155725125 -0.14619502
0.03830981 -0.09348607 0.041566767 0.11505087 -0.00606289 0.020563215 -0.101109676 -0.059366997
00000000: 428b 45bc cc98 f73d 4c40 0d3e 082c 0b3c
00000010: e12b cbbd 3e92 4ebd 38ab 843c 8f3e 173b
00000020: 14eb 963c 5bc4 e2bd de68 c83d 0d69 10be
00000030: c00b e93d 5d7d 4c3c c430 69bc 8057 b6bc
00000040: 5c28 013e e7e9 45bd ca66 dabd bc8c 8a3d
00000050: 5bdd 90bd ed06 c33d cda8 453d ee06 4abd
00000060: 9c53 203e 871c febd e3ee 2e3e 122e dbbd
00000070: 65b9 1ebd 9d5e cf3d 1f4c 4d3d b2b2 9ebd
00000080: 2168 05be 2c27 923d 90b3 91bd 5213 aa3b
00000090: 254e eb3c 9e10 4c3d 6743 7a3c fa6c bcbd
000000a0: e8dc 21bc 4f9f 55bd 876c 8abd 2e0e 5bbd
000000b0: 9316 d9bc 5bce 64bd 2800 8bbb a5e7 c43d
000000c0: cb26 2e3c 5c33 5e3e a969 edbc 5dbb afbd
000000d0: 9e9c 2dbe f5bb 0abd 1541 c83c 8d15 79bd
000000e0: 9cdf 4bbd 7b1d df3d 9d36 8fbc 7d6f 9a3b
000000f0: 98e4 78bd 1899 bbbd 550e 12bd 25c2 bf3d
00000100: 0201 a6ba 45ea 5ebb be8a 663b 3b66 50bc
00000110: 37b8 73bd e4ad a53c 76d7 a83c facc 523d
00000120: 983b 923d 2b76 f2bc 0e82 9a3d 281e bcbd
00000130: 0038 c53d ad00 01be 17da 17bd ae4d a0bd
00000140: 6d85 5dbd b019 8a3d cf48 19bd 5141 07be
00000150: a31d 32bd 8ade a6bc 5a8e 783b 6981 4f3a
00000160: f5bf 7ebd 8ec4 30bd 004d 333d 1e4b fa3c
00000170: 109e e8bd 1393 353d 4046 c73d f620 993c
00000180: e3a3 e33d 9764 fcbd b4da 873d 3422 56bd
00000190: a97f b43d edc0 4bbd e63d 08bc 974e e8bd
000001a0: 235a c3bd d108 723d e2e5 58bd 87cb 99bc
000001b0: 2622 48bd 434e ac3d f147 dfbd fe8c 763d
000001c0: 7f76 9f3b b175 1a3e e42b f83b f821 3abd
000001d0: 9018 813d bd35 0fbd b569 51bd ded6 b93c
000001e0: e007 853e f655 183c 5a94 083d 5b39 cd3d
000001f0: 41c1 c03c 802c 553d 3fa7 00be 91e1 7ebd
00000200: cfb0 e7bc 2978 fcbb 5aed 3dbe c212 243d
00000210: eeb8 013c da26 bebd ae94 9d3d d0de c7bc
00000220: dbaf 29bd b7ae 4cbd 4b29 5fbd a08e 0e3d
00000230: 40b9 a3bd 4df2 793d f146 54bd 50bb 0a3d
00000240: b2ea 043d a992 32bd 9226 edbd a7c7 8dbe
00000250: eb8b 843d 1a4a 4abd f8be 8abd 7d17 12ba
00000260: ee42 f5bc 0d60 f93a 2143 30be e850 06be
00000270: 1bd1 113d 86a0 df3c 16a8 c5bd beff bcbd
00000280: bb77 b6bb 677b eb3d effc fdbd 6022 033e
00000290: f441 863d 276c dfbd c706 363e f6f0 d83d
000002a0: a887 0b3e 273e 1f3d c57a 013e 2b6b 243c
000002b0: bce2 003e 6e65 ffbc 60d9 1d3d c5fb ccbc
000002c0: be7d 29be 7270 7dbc ead1 d53d 75da 313d
000002d0: 67a6 12bd 8ccc 8e3d 29c9 b83b 19d4 073d
000002e0: 8608 763c fa2c 003e 9ce9 e0bd 63c9 8e3d
000002f0: 6afe 123e 7b34 17be 6e9c 15bd 4fa3 e3bd
00000300: ab93 063e 375e 06be 959d ca3d cdb9 0bbd
00000310: 6acd 27bd c35a 41bd 51d5 e73b 6144 d6bd
00000320: f57b 11be b581 373d 26e6 abbd 31f8 6abd
00000330: e5b5 1abe ea2c 14bd 073d 61bd 8d61 e23c
00000340: d69f 093e fc0a 2ebd 02ba 6e3c 0ae3 ebbd
00000350: 1839 e6bb c3ec eebd 50c4 e5bc 9fe4 cabd
00000360: 996f 84bd b4a3 533e 39a7 c63d 7f24 98bd
00000370: dc21 2f3b 260d 093d 3d0f a73d 447e fdbd
00000380: 0f16 ed3d 1c40 abbd 875e 81bd 1c9b edbd
00000390: 0864 36be 8e9e b03c f1dc 103d b2f0 163d
000003a0: 6f1f 313d dbf2 113e e8f6 133a 26fd 773d
000003b0: f76d 433c f8c0 bebc 8646 2cba 4642 90bc
000003c0: b6cb 1c3e 78e9 b4ba 8694 703d a86e 29bd
000003d0: ac6f f43c 530f 3a3d da23 7f3c 26b4 15be
000003e0: bfea 1c3d a075 bfbd ea41 2a3d ca9f eb3d
000003f0: 35ab c6bb 3074 a83c 9712 cfbd cf2a 73bd

fc2.bias f4 [256]
0.07409815 0.016921984 0.08207251 -0.05873156 0.07775621 -0.02728141 0.06316664 -0.04661333
0.009015358 -0.07446264 0.07670955 -0.052676704 0.064246446 0.035709213 0.024017781 -0.02725235
0.09276101 0.017870529 0.07774204 0.015359083 -0.0034517783 0.05781382 0.048374403 0.0548133
0.04210739 0.029522326 0.04522537 -0.056748416 0.06650569 0.021152442 -0.009857249 -0.012834668
-0.06550932 0.018161057 -0.05756402 -0.024261663 -0.05244727 -0.04107813 0.00012995853 -0.090860456
0.03270608 -0.027526258 -0.04081913 0.014622917 -0.02559097 0.11530249 -0.03358581 -0.024233973
-0.08056903 0.020318093 0.025376044 0.02297041 0.039090414 0.06875718 0.016760182 0.08456669
-0.05377475 -0.09804173 0.038942803 0.047893602 0.009298634 -0.009020089 0.015501225 -0.0195732
0.07031367 -0.043822076 0.032574 0.0021090342 0.09064022 -0.004918913 0.06000617 0.04568529
0.033863585 0.035803787 0.04567793 -0.10633388 -0.05003731 0.032608796 0.002968039 0.0021228564
-0.03305014 0.035333354 0.03968075 -0.010059018 0.054560546 -0.031563077 0.029207258 0.10190606
0.037430845 -0.07720505 0.00046729238 0.03752215 -0.025790857 0.073723555 0.010634373 -0.0015717865
-0.0037308496 0.02068783 0.07043555 0.023351504 -0.029691057 0.018457348 0.0070077307 0.04720958
-0.051699292 -0.006688442 0.066807486 0.032038942 -0.048730906 0.06163116 -0.010140016 -0.03582895
0.039827984 0.014296398 0.0081478935 0.08256049 -0.03014056 0.11376103 0.0229236 -0.16648069
-0.049659617 0.016663758 0.090514965 0.07768423 -0.04168687 0.06866284 0.096228465 -0.020560643
-0.009959743 -0.05926836 0.061500143 0.0300831 -0.0039858334 -0.013715184 0.04490961 0.036137775
-0.11218912 0.051482312 -0.05818542 0.006108394 0.07212265 0.032695077 0.052979585 0.023901254
0.01500658 0.026746307 -0.05640165 0.06870228 0.11181914 0.008913054 0.10415085 0.004062857
-0.0081799105 0.08199233 -0.016981648 0.016600132 0.05614018 0.08112238 -0.057703715 -0.0048473254
0.06518933 0.027618365 0.035327353 -0.098954596 -0.0402759 -0.06350963 0.10193538 0.09966285
0.08102446 0.113140106 0.06708714 0.10410799 -0.029822804 0.0642391 0.05478232 -0.026010262
0.06185278 -0.030090468 -0.09935386 -0.005767688 -0.055837277 0.051694956 0.039071944 0.030774787
-0.008883156 -0.0076754857 0.102674805 -0.08347026 0.07982948 -0.01361151 -0.014367331 0.048541117
0.007035456 0.062458377 0.0031387107 0.039985362 0.028929867 -0.040535115 -0.077393055 -0.011238848
-0.0134190135 -0.051711194 0.017819922 0.058002003 -0.029981282 0.108600065 0.037347376 -0.032638878
0.0020204105 -0.07195143 0.048274487 0.05789627 0.09262813 -0.0053852205 -0.1176366 -0.0135331405
0.0046781306 0.05344625 0.05950162 -0.00092220673 0.0069083436 -0.054534335 -0.021072974 -0.017638335
-0.055317413 -0.015462285 -0.020076597 0.027231766 -0.011327044 0.14614053 0.035263363 0.036138475
0.00864134 -0.019231673 -0.035140954 0.020745559 0.03998533 -0.031949975 -0.01665514 0.002514043
0.04754071 -0.028900256 -0.081869714 -0.07209335 0.026840268 0.04937578 0.05750723 -0.054585442
-0.03413215 0.036141273 0.060908686 0.055573188 0.042755507 -0.056812763 0.040787056 0.009451664
00000000: c5c0 973d f99f 8a3c a215 a83d 8190 70bd
00000010: a63e 9f3d 437d dfbc 835d 813d 9eed 3ebd
00000020: 27b5 133c de7f 98bd e619 9d3d 87c3 57bd
00000030: a493 833d d343 123d f0c0 c43c 5240 dfbc
00000040: 7cf9 bd3d 3765 923c 3837 9f3d aaa4 7b3c
00000050: 3b37 62bb 2fce 6c3d 3d24 463d e983 603d
00000060: cc78 2c3d ced8 f13c 3d3e 393d 0771 68bd
00000070: 2334 883d e347 ad3c 4d80 21bc 8048 52bc
00000080: c029 86bd 7fc6 943c 40c8 6bbd 65c0 c6bc
00000090: f3d2 56bd 8b41 28bd 7a45 0839 0c15 babd
000000a0: cff6 053d bf7e e1bc f631 27bd f694 6f3c
000000b0: 27a4 d1bc b623 ec3d 4691 09bd 5386 c6bc
000000c0: 6001 a5bd 2172 a63c 6ce1 cf3c 712c bc3c
000000d0: 451d 203d 90d0 8c3d a64c 893c 4d31 ad3d
000000e0: ea42 5cbd 1aca c8bd 7d82 1f3d 152c 443d
000000f0: 4c59 183c ffc8 13bc daf8 7d3c fa57 a0bc
00000100: 9d00 903d c77e 33bd 516c 053d b937 0a3b
00000110: 94a1 b93d d52e a1bb 08c9 753d 8020 3b3d
00000120: 8bb4 0a3d fea6 123d c818 3b3d 94c5 d9bd
00000130: ecf3 4cbd cd90 053d 6e83 423b 9f1f 0b3b
00000140: 955f 07bd b5b9 103d 4888 223d 94ce 24bc
00000150: e17a 5f3d 4948 01bd 0f44 ef3c 20b4 d03d
00000160: 1651 193d ae1d 9ebd ecfe f439 d3b0 193d
00000170: 5947 d3bc 60fc 963d cb3b 2e3c 6704 ceba
00000180: 4581 74bb 8679 a93c 8340 903d a74b bf3c
00000190: a93a f3bc dd33 973c 1ba1 e53b d55e 413d
000001a0: a3c2 53bd b82a dbbb 5dd2 883d 443b 033d
000001b0: 0f9a 47bd f570 7c3d 4f22 26bc 61c1 12bd
000001c0: ab22 233d 703b 6a3c be7e 053c 7915 a93d
000001d0: 56e9 f6bc 8bfb e83d 46ca bb3c ea79 2abe
000001e0: e267 4bbd 6f82 883c e95f b93d e918 9f3d
000001f0: dabf 2abd 1a9f 8c3d 6e13 c53d cb6e a8bc
00000200: 312e 23bc 61c3 72bd 93e7 7b3d d570 f63c
00000210: 989b 82bb a7b5 60bc 24f3 373d 3405 143d
00000220: 69c3 e5bd 1edf 523d d653 6ebd ec28 c83b
00000230: 0ab5 933d 46eb 053d 1f01 593d 90cc c33c
00000240: 29de 753c 121b db3c 6b05 67bd c8b3 8c3d
00000250: 6f01 e53d 0f08 123c 0a4d d53d b721 853b
00000260: 0805 06bc 98eb a73d 191d 8bbc 00fd 873c
00000270: 3ff3 653d 7e23 a63d bb5a 6cbd 50d6 9ebb
00000280: fc81 853d e93f e23c 6ab3 103d b5a8 cabd
00000290: 58f8 24bd 5611 82bd 7fc3 d03d 091c cc3d
000002a0: 27f0 a53d 00b6 e73d fc64 893d 9236 d53d
000002b0: f44e f4bc ca8f 833d 6d63 603d 7913 d5bc
000002c0: 5759 7d3d 4980 f6bc 097a cbbd e0fe bcbb
000002d0: a1b5 64bd 17be 533d e709 203d 681b fc3c
000002e0: a88a 11bc a482 fbbb 2b47 d23d 75f2 aabd
000002f0: a37d a33d d002 5fbc f464 6bbc 0dd3 463d
00000300: af89 e63b 5bd4 7f3d d4b2 4d3b b1c7 233d
00000310: 54fe ec3c 2608 26bd 4080 9ebd 2523 38bc
00000320: 6cdb 5bbc 1ecf 53bd 16fb 913c 8293 6d3d
00000330: 4e9b f5bc b669 de3d 90f9 183d 58b0 05bd
00000340: dd68 043b 455b 93bd 78bb 453d a424 6d3d
00000350: d1b3 bd3d 8176 b0bb 75eb f0bd 1bba 5dbc
00000360: 014b 993b 74ea 5a3d f8b7 733d 3fc0 71ba
00000370: 635f e23b 655f 5fbd 3ba1 acbc 457e 90bc
00000380: 8394 62bd 8655 7dbc ad77 a4bc 2715 df3c
00000390: 1195 39bc dda5 153e 5170 103d f005 143d
000003a0: 6894 0d3c be8b 9dbc f6ef 0fbd 97f2 a93c
000003b0: a8c7 233d fadd 02bd 5c70 88bc a4c2 243b
000003c0: 0cba 423d 3bc0 ecbc 4fab a7bd aea5 93bd
000003d0: 1fe0 db3c 423e 4a3d b48c 6b3d fc94 5fbd
000003e0: 27ce 0bbd df08 143d 637b 793d b6a0 633d
000003f0: 6620 2f3d 80b4 68bd 5410 273d 27db 1a3c

fc3.weight f4 [4, 256]
-0.073072 0.08541074 -0.20671345 0.030297669 0.20465696 -0.26626828 0.68789876 -0.15320192
0.13809562 -0.2933297 0.29436105 0.62088066 -0.2717846 0.20873491 -0.06933067 -0.2177544
-0.03704402 -0.043003272 -0.052932993 0.09028678 0.15507637 -0.24351932 -0.20016411 0.1119553
0.039786372 0.08044905 0.7166611 -0.044495963 -0.34117195 0.06706109 -0.17118432 0.2434727
0.066783726 0.14692935 0.3558144 -0.28051338 0.01483562 0.30451968 -0.050516687 0.18356824
0.5822263 -0.075327724 0.10134115 0.2898289 0.05222411 -0.1112915 0.00040695173 -0.0100350855
-0.29247436 0.16079469 -0.36896998 0.041650515 -0.08018937 -0.12899403 -0.3297691 -0.20026666
0.07784269 0.0813657 -0.03857287 0.025607435 -0.08489663 -0.026890099 -0.11812532 0.1388132
-0.11967612 0.04318314 -0.07235848 -0.41154763 -0.09357623 -0.062344752 -0.1633681 -0.038499407
-0.2482501 0.0027105263 0.2235148 0.15439668 -0.012326037 -0.08786897 0.037775304 -0.31914088
0.05739994 -0.23853086 -0.13017847 0.012429055 0.014761749 -0.15625188 0.31943876 0.08445325
0.19555117 -0.20276135 0.3167164 -0.2570627 0.3962306 -0.18147717 -0.078363754 -0.07511962
-0.071136795 -0.1144941 -0.047746994 0.1231789 0.06738328 -0.022343978 0.027260127 0.3758323
0.12348762 -0.12580103 -0.2776519 0.06684668 -0.006435679 -0.10686627 0.15350401 0.15979822
0.050902344 -0.09489012 0.12943424 0.10846221 0.07927129 -0.39600855 0.072745934 -0.0689083
-0.0028457367 0.48898736 -0.26470616 -0.18068074 -0.28945065 0.47490692 -0.013874109 -0.35293233
0.13464859 -0.2918059 -0.08045479 -0.1677486 0.20661448 0.2588922 -0.082908794 -0.0062167533
0.54121417 -0.21083549 0.60739356 -0.12495903 -0.09321692 0.0775972 0.1490396 0.07676501
0.2782988 0.21602476 -0.071506076 -0.052209117 -0.035899445 0.100311495 -0.052913632 -0.12987898
-0.06276182 -0.14394958 -0.11467877 0.1095877 0.20898913 0.040085044 0.033222158 -0.6363636
-0.08129141 0.1097966 0.5171409 -0.6057509 0.21212006 -0.24865575 0.025462793 -0.070537895
-0.012797586 -0.1195498 -0.16481908 -0.043186117 -0.04278978 0.16396858 -0.101755485 -0.17848818
-0.08605429 0.11019237 0.37656564 0.088819414 -0.013912259 0.4691554 -0.19279039 -0.17780635
0.042641167 0.01777291 -0.26383892 0.15335278 0.076253034 -0.20946053 0.037749335 0.06132573
0.054825913 0.13620508 0.05864389 -0.17215866 -0.17097755 0.012036233 0.1745188 0.11852972
-0.08003181 0.09555497 -0.035459697 -0.13866243 -0.09113665 -0.13983314 -0.2699274 -0.16841471
-0.090995416 -0.47568607 0.028582852 -0.062791556 -0.18394828 -0.09378529 0.19524872 0.10026401
0.06198773 -0.028176904 0.07980619 0.043861836 0.07284838 0.09793896 0.57829046 0.054019395
-0.15988977 0.27193183 0.0843327 -0.23870161 -0.0052634035 -0.14778717 -0.04857325 -0.119975656
-0.17603901 -0.3182949 0.1675111 -0.039147217 -0.2922099 -0.29928672 0.074069194 -0.33781534
0.029990029 0.086673275 0.5593648 -0.26252076 0.10550185 -0.00017362715 0.102089286 0.06472016
-0.07186925 0.14574844 0.043559104 0.007820023 0.39954364 0.39470622 0.1912029 0.24839893
00000000: c6a6 95bd d3eb ae3d b1ac 53be d132 f83c
00000010: 9891 513e 5154 88be 221a 303f f7e0 1cbe
00000020: f068 0d3e 4f2f 96be 7eb6 963e 09f2 1e3f
00000030: 5a27 8bbe 9bbe 553e 3dfd 8dbd 02fb 5ebe
00000040: 78bb 17bd 3324 30bd 44d0 58bd 46e8 b83d
00000050: 57cc 1e3e 215d 79be d2f7 4cbe d248 e53d
00000060: 09f7 223d 79c2 a43d 1a77 373f 6641 36bd
00000070: 17ae aebe 5357 893d f14a 2fbe e850 793e
00000080: e8c5 883d a674 163e 4e2d b63e 739f 8fbe
00000090: 1a11 733c 01ea 9b3e 96ea 4ebd 50f9 3b3e
000000a0: c80c 153f 6c45 9abd f38b cf3d 7464 943e
000000b0: f3e8 553d ccec e3bd 235c d539 336a 24bc
000000c0: 33bf 95be 5da7 243e a2e9 bcbe bb99 2a3d
000000d0: 533a a4bd 0317 04be 7fd7 a8be b412 4dbe
000000e0: fd6b 9f3d 0fa3 a63d 96fe 1dbd afc6 d13c
000000f0: 49de adbd a048 dcbc b0eb f1bd 0c25 0e3e
00000100: c118 f5bd cee0 303d af30 94bd 5fb6 d2be
00000110: e5a4 bfbd 365d 7fbd f849 27be 8eb1 1dbd
00000120: 4635 7ebe 16a3 313b 10e1 643e 2a1a 1e3e
00000130: 25f3 49bc a6f4 b3bd 47ba 1a3d 6f66 a3be
00000140: 331c 6b3d 6f41 74be 814d 05be 3ca3 4b3c
00000150: 43db 713c 7e00 20be 7a8d a33e d3f5 ac3d
00000160: 913e 483e aca0 4fbe a728 a23e b99d 83be
00000170: bdde ca3e 27d5 39be 2d7d a0bd 51d8 99bd
00000180: 2bb0 91bd e27b eabd 5a92 43bd 3845 fc3d
00000190: 3f00 8a3d b80a b7bc a150 df3c 176d c03e
000001a0: 14e7 fc3d fcd1 00be 6428 8ebe eae6 883d
000001b0: 63e2 d2bb b4dc dabd 2830 1d3e 25a2 233e
000001c0: fa7e 503d c055 c2bd 698a 043e 6f21 de3d
000001d0: fc58 a23d a2c1 cabe d2fb 943d cb1f 8dbd
000001e0: 8a7f 3abb 8d5c fa3e 9187 87be 5f04 39be
000001f0: e032 94be 0027 f33e 3b50 63bc 8cb3 b4be
00000200: 52e1 093e 9567 95be 7bc5 a4bd 4ac6 2bbe
00000210: bf92 533e 858d 843e 16cc a9bd e8b5 cbbb
00000220: 038d 0a3f 42e5 57be 257e 1b3f 85ea ffbd
00000230: 83e8 bebd 48eb 9e3d d69d 183e f936 9d3d
00000240: 2e7d 8e3e 9835 5d3e c771 92bd 3ad9 55bd
00000250: 4c0b 13bd 1d70 cd3d f7bb 58bd fffe 04be
00000260: 4589 80bd 8567 13be b4dc eabd 846f e03d
00000270: 3f01 563e 3730 243d f513 083d bae8 22bf
00000280: 1c7c a6bd 0add e03d 5963 043f 7e12 1bbf
00000290: 0036 593e 9d9f 7ebe 5997 d03c 2c76 90bd
000002a0: f7ac 51bc 87d6 f4bd 55c6 28be ede3 30bd
000002b0: 5644 2fbd 61e7 273e 2e65 d0bd 9bc5 36be
000002c0: 3b3d b0bd 8aac e13d 36cd c03e f4e6 b53d
000002d0: 3ef0 63bc 2335 f03e d86a 45be de12 36be
000002e0: 81a8 2e3d 7e98 913c e515 87be 8308 1d3e
000002f0: 8d2a 9c3d d27c 56be 0c9f 1a3d b030 7b3d
00000300: 2391 603d 5879 0b3e 9334 703d 5c4a 30be
00000310: bd14 2fbe 9f33 453c 0eb5 323e b6bf f23d
00000320: b8e7 a3bd 53b2 c33d 303e 11bd 86fd 0dbe
00000330: daa5 babd 6b30 0fbe ed33 8abe e874 2cbe
00000340: ce5b babd 208d f3be 9626 ea3c dc98 80bd
00000350: f05c 3cbe 8112 c0bd 48ef 473e 3857 cd3d
00000360: d9e6 7d3d 40d3 e6bc 6e71 a33d 78a8 333d
00000370: 8831 953d 3994 c83d d80a 143f 7143 5d3d
00000380: 25ba 23be a63a 8b3e 9fb6 ac3d 326e 74be
00000390: a178 acbb 8555 17be bff4 46bd ccb5 f5bd
000003a0: 9243 34be 8df7 a2be 0888 2b3e d558 20bd
000003b0: 899c 95be 1c3c 99be 97b1 973d 22f6 acbe
000003c0: a6ad f53c c281 b13d 8832 0f3f 1f69 86be
000003d0: 5b11 d83d af0f 36b9 3014 d13d 018c 843d
000003e0: 2f30 93bd 143f 153e 086b 323d 8e1f 003c
000003f0: fc90 cc3e ef16 ca3e b1ca 433e 4a5c 7e3e

fc3.bias f4 [4]
0.05225258 -0.09656922 -0.02899093 0.05304457
00000000: cd06 563d 15c6 c5bd 637e edbc 4345 593d
